<?xml version="1.0" ?>
<net name="0003_EmoNet_ResNet10" version="10">
	<layers>
		<layer id="0" name="data" type="Parameter" version="opset1">
			<data element_type="f32" shape="1,3,64,64"/>
			<output>
				<port id="0" precision="FP32">
					<dim>1</dim>
					<dim>3</dim>
					<dim>64</dim>
					<dim>64</dim>
				</port>
			</output>
		</layer>
		<layer id="1" name="data_mul_2311/copy_const77_const" type="Const" version="opset1">
			<data element_type="f32" offset="0" shape="1,3,1,1" size="12"/>
			<output>
				<port id="1" precision="FP32">
					<dim>1</dim>
					<dim>3</dim>
					<dim>1</dim>
					<dim>1</dim>
				</port>
			</output>
		</layer>
		<layer id="2" name="Mul1_/Fused_Mul_" type="Multiply" version="opset1">
			<input>
				<port id="0">
					<dim>1</dim>
					<dim>3</dim>
					<dim>64</dim>
					<dim>64</dim>
				</port>
				<port id="1">
					<dim>1</dim>
					<dim>3</dim>
					<dim>1</dim>
					<dim>1</dim>
				</port>
			</input>
			<output>
				<port id="2" precision="FP32">
					<dim>1</dim>
					<dim>3</dim>
					<dim>64</dim>
					<dim>64</dim>
				</port>
			</output>
		</layer>
		<layer id="3" name="data_add_2313/copy_const79_const" type="Const" version="opset1">
			<data element_type="f32" offset="12" shape="1,3,1,1" size="12"/>
			<output>
				<port id="1" precision="FP32">
					<dim>1</dim>
					<dim>3</dim>
					<dim>1</dim>
					<dim>1</dim>
				</port>
			</output>
		</layer>
		<layer id="4" name="Add1_/Fused_Add_" type="Add" version="opset1">
			<input>
				<port id="0">
					<dim>1</dim>
					<dim>3</dim>
					<dim>64</dim>
					<dim>64</dim>
				</port>
				<port id="1">
					<dim>1</dim>
					<dim>3</dim>
					<dim>1</dim>
					<dim>1</dim>
				</port>
			</input>
			<output>
				<port id="2" precision="FP32">
					<dim>1</dim>
					<dim>3</dim>
					<dim>64</dim>
					<dim>64</dim>
				</port>
			</output>
		</layer>
		<layer id="5" name="459463_const" type="Const" version="opset1">
			<data element_type="f32" offset="24" shape="" size="4"/>
			<output>
				<port id="1" precision="FP32"/>
			</output>
		</layer>
		<layer id="6" name="460464_const" type="Const" version="opset1">
			<data element_type="f32" offset="28" shape="" size="4"/>
			<output>
				<port id="1" precision="FP32"/>
			</output>
		</layer>
		<layer id="7" name="461465_const" type="Const" version="opset1">
			<data element_type="f32" offset="24" shape="" size="4"/>
			<output>
				<port id="1" precision="FP32"/>
			</output>
		</layer>
		<layer id="8" name="462466_const" type="Const" version="opset1">
			<data element_type="f32" offset="28" shape="" size="4"/>
			<output>
				<port id="1" precision="FP32"/>
			</output>
		</layer>
		<layer id="9" name="Convolution1/WithoutBiases/fq_input_0" type="FakeQuantize" version="opset1">
			<data levels="256"/>
			<input>
				<port id="0">
					<dim>1</dim>
					<dim>3</dim>
					<dim>64</dim>
					<dim>64</dim>
				</port>
				<port id="1"/>
				<port id="2"/>
				<port id="3"/>
				<port id="4"/>
			</input>
			<output>
				<port id="5" precision="FP32">
					<dim>1</dim>
					<dim>3</dim>
					<dim>64</dim>
					<dim>64</dim>
				</port>
			</output>
		</layer>
		<layer id="10" name="Mul1_2009/Fused_Mul_24772479_const81_const" type="Const" version="opset1">
			<data element_type="f32" offset="32" shape="64,3,7,7" size="37632"/>
			<output>
				<port id="1" precision="FP32">
					<dim>64</dim>
					<dim>3</dim>
					<dim>7</dim>
					<dim>7</dim>
				</port>
			</output>
		</layer>
		<layer id="11" name="469473_const" type="Const" version="opset1">
			<data element_type="f32" offset="37664" shape="64,1,1,1" size="256"/>
			<output>
				<port id="1" precision="FP32">
					<dim>64</dim>
					<dim>1</dim>
					<dim>1</dim>
					<dim>1</dim>
				</port>
			</output>
		</layer>
		<layer id="12" name="470474_const" type="Const" version="opset1">
			<data element_type="f32" offset="37920" shape="64,1,1,1" size="256"/>
			<output>
				<port id="1" precision="FP32">
					<dim>64</dim>
					<dim>1</dim>
					<dim>1</dim>
					<dim>1</dim>
				</port>
			</output>
		</layer>
		<layer id="13" name="471475_const" type="Const" version="opset1">
			<data element_type="f32" offset="38176" shape="64,1,1,1" size="256"/>
			<output>
				<port id="1" precision="FP32">
					<dim>64</dim>
					<dim>1</dim>
					<dim>1</dim>
					<dim>1</dim>
				</port>
			</output>
		</layer>
		<layer id="14" name="472476_const" type="Const" version="opset1">
			<data element_type="f32" offset="38432" shape="64,1,1,1" size="256"/>
			<output>
				<port id="1" precision="FP32">
					<dim>64</dim>
					<dim>1</dim>
					<dim>1</dim>
					<dim>1</dim>
				</port>
			</output>
		</layer>
		<layer id="15" name="Convolution1/WithoutBiases/fq_weights_1" type="FakeQuantize" version="opset1">
			<data levels="255"/>
			<input>
				<port id="0">
					<dim>64</dim>
					<dim>3</dim>
					<dim>7</dim>
					<dim>7</dim>
				</port>
				<port id="1">
					<dim>64</dim>
					<dim>1</dim>
					<dim>1</dim>
					<dim>1</dim>
				</port>
				<port id="2">
					<dim>64</dim>
					<dim>1</dim>
					<dim>1</dim>
					<dim>1</dim>
				</port>
				<port id="3">
					<dim>64</dim>
					<dim>1</dim>
					<dim>1</dim>
					<dim>1</dim>
				</port>
				<port id="4">
					<dim>64</dim>
					<dim>1</dim>
					<dim>1</dim>
					<dim>1</dim>
				</port>
			</input>
			<output>
				<port id="5" precision="FP32">
					<dim>64</dim>
					<dim>3</dim>
					<dim>7</dim>
					<dim>7</dim>
				</port>
			</output>
		</layer>
		<layer id="16" name="Convolution1/WithoutBiases" type="Convolution" version="opset1">
			<data dilations="1,1" output_padding="0,0" pads_begin="3,3" pads_end="3,3" strides="2,2"/>
			<input>
				<port id="0">
					<dim>1</dim>
					<dim>3</dim>
					<dim>64</dim>
					<dim>64</dim>
				</port>
				<port id="1">
					<dim>64</dim>
					<dim>3</dim>
					<dim>7</dim>
					<dim>7</dim>
				</port>
			</input>
			<output>
				<port id="2" precision="FP32">
					<dim>1</dim>
					<dim>64</dim>
					<dim>32</dim>
					<dim>32</dim>
				</port>
			</output>
		</layer>
		<layer id="17" name="data_add_23162321/copy_const83_const" type="Const" version="opset1">
			<data element_type="f32" offset="38688" shape="1,64,1,1" size="256"/>
			<output>
				<port id="1" precision="FP32">
					<dim>1</dim>
					<dim>64</dim>
					<dim>1</dim>
					<dim>1</dim>
				</port>
			</output>
		</layer>
		<layer id="18" name="Convolution1/Fused_Add_" type="Add" version="opset1">
			<input>
				<port id="0">
					<dim>1</dim>
					<dim>64</dim>
					<dim>32</dim>
					<dim>32</dim>
				</port>
				<port id="1">
					<dim>1</dim>
					<dim>64</dim>
					<dim>1</dim>
					<dim>1</dim>
				</port>
			</input>
			<output>
				<port id="2" precision="FP32">
					<dim>1</dim>
					<dim>64</dim>
					<dim>32</dim>
					<dim>32</dim>
				</port>
			</output>
		</layer>
		<layer id="19" name="ReLU1" type="ReLU" version="opset1">
			<input>
				<port id="0">
					<dim>1</dim>
					<dim>64</dim>
					<dim>32</dim>
					<dim>32</dim>
				</port>
			</input>
			<output>
				<port id="1" precision="FP32">
					<dim>1</dim>
					<dim>64</dim>
					<dim>32</dim>
					<dim>32</dim>
				</port>
			</output>
		</layer>
		<layer id="20" name="770774_const" type="Const" version="opset1">
			<data element_type="f32" offset="38944" shape="" size="4"/>
			<output>
				<port id="1" precision="FP32"/>
			</output>
		</layer>
		<layer id="21" name="771775_const" type="Const" version="opset1">
			<data element_type="f32" offset="38948" shape="" size="4"/>
			<output>
				<port id="1" precision="FP32"/>
			</output>
		</layer>
		<layer id="22" name="772776_const" type="Const" version="opset1">
			<data element_type="f32" offset="38944" shape="" size="4"/>
			<output>
				<port id="1" precision="FP32"/>
			</output>
		</layer>
		<layer id="23" name="773777_const" type="Const" version="opset1">
			<data element_type="f32" offset="38948" shape="" size="4"/>
			<output>
				<port id="1" precision="FP32"/>
			</output>
		</layer>
		<layer id="24" name="Pooling1/fq_input_0" type="FakeQuantize" version="opset1">
			<data levels="256"/>
			<input>
				<port id="0">
					<dim>1</dim>
					<dim>64</dim>
					<dim>32</dim>
					<dim>32</dim>
				</port>
				<port id="1"/>
				<port id="2"/>
				<port id="3"/>
				<port id="4"/>
			</input>
			<output>
				<port id="5" precision="FP32">
					<dim>1</dim>
					<dim>64</dim>
					<dim>32</dim>
					<dim>32</dim>
				</port>
			</output>
		</layer>
		<layer id="25" name="Pooling1" type="MaxPool" version="opset1">
			<data kernel="3,3" pads_begin="0,0" pads_end="0,0" rounding_type="ceil" strides="2,2"/>
			<input>
				<port id="0">
					<dim>1</dim>
					<dim>64</dim>
					<dim>32</dim>
					<dim>32</dim>
				</port>
			</input>
			<output>
				<port id="1" precision="FP32">
					<dim>1</dim>
					<dim>64</dim>
					<dim>16</dim>
					<dim>16</dim>
				</port>
			</output>
		</layer>
		<layer id="26" name="Mul1_2021/Fused_Mul_24812483_const87_const" type="Const" version="opset1">
			<data element_type="f32" offset="38952" shape="64,64,3,3" size="147456"/>
			<output>
				<port id="1" precision="FP32">
					<dim>64</dim>
					<dim>64</dim>
					<dim>3</dim>
					<dim>3</dim>
				</port>
			</output>
		</layer>
		<layer id="27" name="579583_const" type="Const" version="opset1">
			<data element_type="f32" offset="186408" shape="64,1,1,1" size="256"/>
			<output>
				<port id="1" precision="FP32">
					<dim>64</dim>
					<dim>1</dim>
					<dim>1</dim>
					<dim>1</dim>
				</port>
			</output>
		</layer>
		<layer id="28" name="580584_const" type="Const" version="opset1">
			<data element_type="f32" offset="186664" shape="64,1,1,1" size="256"/>
			<output>
				<port id="1" precision="FP32">
					<dim>64</dim>
					<dim>1</dim>
					<dim>1</dim>
					<dim>1</dim>
				</port>
			</output>
		</layer>
		<layer id="29" name="581585_const" type="Const" version="opset1">
			<data element_type="f32" offset="186408" shape="64,1,1,1" size="256"/>
			<output>
				<port id="1" precision="FP32">
					<dim>64</dim>
					<dim>1</dim>
					<dim>1</dim>
					<dim>1</dim>
				</port>
			</output>
		</layer>
		<layer id="30" name="582586_const" type="Const" version="opset1">
			<data element_type="f32" offset="186664" shape="64,1,1,1" size="256"/>
			<output>
				<port id="1" precision="FP32">
					<dim>64</dim>
					<dim>1</dim>
					<dim>1</dim>
					<dim>1</dim>
				</port>
			</output>
		</layer>
		<layer id="31" name="Convolution2/fq_weights_1" type="FakeQuantize" version="opset1">
			<data levels="255"/>
			<input>
				<port id="0">
					<dim>64</dim>
					<dim>64</dim>
					<dim>3</dim>
					<dim>3</dim>
				</port>
				<port id="1">
					<dim>64</dim>
					<dim>1</dim>
					<dim>1</dim>
					<dim>1</dim>
				</port>
				<port id="2">
					<dim>64</dim>
					<dim>1</dim>
					<dim>1</dim>
					<dim>1</dim>
				</port>
				<port id="3">
					<dim>64</dim>
					<dim>1</dim>
					<dim>1</dim>
					<dim>1</dim>
				</port>
				<port id="4">
					<dim>64</dim>
					<dim>1</dim>
					<dim>1</dim>
					<dim>1</dim>
				</port>
			</input>
			<output>
				<port id="5" precision="FP32">
					<dim>64</dim>
					<dim>64</dim>
					<dim>3</dim>
					<dim>3</dim>
				</port>
			</output>
		</layer>
		<layer id="32" name="Convolution2" type="Convolution" version="opset1">
			<data dilations="1,1" output_padding="0,0" pads_begin="1,1" pads_end="1,1" strides="1,1"/>
			<input>
				<port id="0">
					<dim>1</dim>
					<dim>64</dim>
					<dim>16</dim>
					<dim>16</dim>
				</port>
				<port id="1">
					<dim>64</dim>
					<dim>64</dim>
					<dim>3</dim>
					<dim>3</dim>
				</port>
			</input>
			<output>
				<port id="2" precision="FP32">
					<dim>1</dim>
					<dim>64</dim>
					<dim>16</dim>
					<dim>16</dim>
				</port>
			</output>
		</layer>
		<layer id="33" name="data_add_23242329/copy_const89_const" type="Const" version="opset1">
			<data element_type="f32" offset="186920" shape="1,64,1,1" size="256"/>
			<output>
				<port id="1" precision="FP32">
					<dim>1</dim>
					<dim>64</dim>
					<dim>1</dim>
					<dim>1</dim>
				</port>
			</output>
		</layer>
		<layer id="34" name="Add1_2022/Fused_Add_" type="Add" version="opset1">
			<input>
				<port id="0">
					<dim>1</dim>
					<dim>64</dim>
					<dim>16</dim>
					<dim>16</dim>
				</port>
				<port id="1">
					<dim>1</dim>
					<dim>64</dim>
					<dim>1</dim>
					<dim>1</dim>
				</port>
			</input>
			<output>
				<port id="2" precision="FP32">
					<dim>1</dim>
					<dim>64</dim>
					<dim>16</dim>
					<dim>16</dim>
				</port>
			</output>
		</layer>
		<layer id="35" name="ReLU2" type="ReLU" version="opset1">
			<input>
				<port id="0">
					<dim>1</dim>
					<dim>64</dim>
					<dim>16</dim>
					<dim>16</dim>
				</port>
			</input>
			<output>
				<port id="1" precision="FP32">
					<dim>1</dim>
					<dim>64</dim>
					<dim>16</dim>
					<dim>16</dim>
				</port>
			</output>
		</layer>
		<layer id="36" name="499503_const" type="Const" version="opset1">
			<data element_type="f32" offset="38944" shape="" size="4"/>
			<output>
				<port id="1" precision="FP32"/>
			</output>
		</layer>
		<layer id="37" name="500504_const" type="Const" version="opset1">
			<data element_type="f32" offset="187176" shape="" size="4"/>
			<output>
				<port id="1" precision="FP32"/>
			</output>
		</layer>
		<layer id="38" name="501505_const" type="Const" version="opset1">
			<data element_type="f32" offset="38944" shape="" size="4"/>
			<output>
				<port id="1" precision="FP32"/>
			</output>
		</layer>
		<layer id="39" name="502506_const" type="Const" version="opset1">
			<data element_type="f32" offset="187176" shape="" size="4"/>
			<output>
				<port id="1" precision="FP32"/>
			</output>
		</layer>
		<layer id="40" name="Convolution3/fq_input_0" type="FakeQuantize" version="opset1">
			<data levels="256"/>
			<input>
				<port id="0">
					<dim>1</dim>
					<dim>64</dim>
					<dim>16</dim>
					<dim>16</dim>
				</port>
				<port id="1"/>
				<port id="2"/>
				<port id="3"/>
				<port id="4"/>
			</input>
			<output>
				<port id="5" precision="FP32">
					<dim>1</dim>
					<dim>64</dim>
					<dim>16</dim>
					<dim>16</dim>
				</port>
			</output>
		</layer>
		<layer id="41" name="124/Output_0/Data__const92_const" type="Const" version="opset1">
			<data element_type="f32" offset="187180" shape="64,64,3,3" size="147456"/>
			<output>
				<port id="1" precision="FP32">
					<dim>64</dim>
					<dim>64</dim>
					<dim>3</dim>
					<dim>3</dim>
				</port>
			</output>
		</layer>
		<layer id="42" name="509513_const" type="Const" version="opset1">
			<data element_type="f32" offset="334636" shape="64,1,1,1" size="256"/>
			<output>
				<port id="1" precision="FP32">
					<dim>64</dim>
					<dim>1</dim>
					<dim>1</dim>
					<dim>1</dim>
				</port>
			</output>
		</layer>
		<layer id="43" name="510514_const" type="Const" version="opset1">
			<data element_type="f32" offset="334892" shape="64,1,1,1" size="256"/>
			<output>
				<port id="1" precision="FP32">
					<dim>64</dim>
					<dim>1</dim>
					<dim>1</dim>
					<dim>1</dim>
				</port>
			</output>
		</layer>
		<layer id="44" name="511515_const" type="Const" version="opset1">
			<data element_type="f32" offset="334636" shape="64,1,1,1" size="256"/>
			<output>
				<port id="1" precision="FP32">
					<dim>64</dim>
					<dim>1</dim>
					<dim>1</dim>
					<dim>1</dim>
				</port>
			</output>
		</layer>
		<layer id="45" name="512516_const" type="Const" version="opset1">
			<data element_type="f32" offset="334892" shape="64,1,1,1" size="256"/>
			<output>
				<port id="1" precision="FP32">
					<dim>64</dim>
					<dim>1</dim>
					<dim>1</dim>
					<dim>1</dim>
				</port>
			</output>
		</layer>
		<layer id="46" name="Convolution3/fq_weights_1" type="FakeQuantize" version="opset1">
			<data levels="255"/>
			<input>
				<port id="0">
					<dim>64</dim>
					<dim>64</dim>
					<dim>3</dim>
					<dim>3</dim>
				</port>
				<port id="1">
					<dim>64</dim>
					<dim>1</dim>
					<dim>1</dim>
					<dim>1</dim>
				</port>
				<port id="2">
					<dim>64</dim>
					<dim>1</dim>
					<dim>1</dim>
					<dim>1</dim>
				</port>
				<port id="3">
					<dim>64</dim>
					<dim>1</dim>
					<dim>1</dim>
					<dim>1</dim>
				</port>
				<port id="4">
					<dim>64</dim>
					<dim>1</dim>
					<dim>1</dim>
					<dim>1</dim>
				</port>
			</input>
			<output>
				<port id="5" precision="FP32">
					<dim>64</dim>
					<dim>64</dim>
					<dim>3</dim>
					<dim>3</dim>
				</port>
			</output>
		</layer>
		<layer id="47" name="Convolution3" type="Convolution" version="opset1">
			<data dilations="1,1" output_padding="0,0" pads_begin="1,1" pads_end="1,1" strides="1,1"/>
			<input>
				<port id="0">
					<dim>1</dim>
					<dim>64</dim>
					<dim>16</dim>
					<dim>16</dim>
				</port>
				<port id="1">
					<dim>64</dim>
					<dim>64</dim>
					<dim>3</dim>
					<dim>3</dim>
				</port>
			</input>
			<output>
				<port id="2" precision="FP32">
					<dim>1</dim>
					<dim>64</dim>
					<dim>16</dim>
					<dim>16</dim>
				</port>
			</output>
		</layer>
		<layer id="48" name="279283_const" type="Const" version="opset1">
			<data element_type="f32" offset="335148" shape="" size="4"/>
			<output>
				<port id="1" precision="FP32"/>
			</output>
		</layer>
		<layer id="49" name="280284_const" type="Const" version="opset1">
			<data element_type="f32" offset="335152" shape="" size="4"/>
			<output>
				<port id="1" precision="FP32"/>
			</output>
		</layer>
		<layer id="50" name="281285_const" type="Const" version="opset1">
			<data element_type="f32" offset="335148" shape="" size="4"/>
			<output>
				<port id="1" precision="FP32"/>
			</output>
		</layer>
		<layer id="51" name="282286_const" type="Const" version="opset1">
			<data element_type="f32" offset="335152" shape="" size="4"/>
			<output>
				<port id="1" precision="FP32"/>
			</output>
		</layer>
		<layer id="52" name="Eltwise1/fq_input_0" type="FakeQuantize" version="opset1">
			<data levels="256"/>
			<input>
				<port id="0">
					<dim>1</dim>
					<dim>64</dim>
					<dim>16</dim>
					<dim>16</dim>
				</port>
				<port id="1"/>
				<port id="2"/>
				<port id="3"/>
				<port id="4"/>
			</input>
			<output>
				<port id="5" precision="FP32">
					<dim>1</dim>
					<dim>64</dim>
					<dim>16</dim>
					<dim>16</dim>
				</port>
			</output>
		</layer>
		<layer id="53" name="Eltwise1" type="Add" version="opset1">
			<input>
				<port id="0">
					<dim>1</dim>
					<dim>64</dim>
					<dim>16</dim>
					<dim>16</dim>
				</port>
				<port id="1">
					<dim>1</dim>
					<dim>64</dim>
					<dim>16</dim>
					<dim>16</dim>
				</port>
			</input>
			<output>
				<port id="2" precision="FP32">
					<dim>1</dim>
					<dim>64</dim>
					<dim>16</dim>
					<dim>16</dim>
				</port>
			</output>
		</layer>
		<layer id="54" name="539543_const" type="Const" version="opset1">
			<data element_type="f32" offset="335156" shape="" size="4"/>
			<output>
				<port id="1" precision="FP32"/>
			</output>
		</layer>
		<layer id="55" name="540544_const" type="Const" version="opset1">
			<data element_type="f32" offset="335160" shape="" size="4"/>
			<output>
				<port id="1" precision="FP32"/>
			</output>
		</layer>
		<layer id="56" name="541545_const" type="Const" version="opset1">
			<data element_type="f32" offset="335156" shape="" size="4"/>
			<output>
				<port id="1" precision="FP32"/>
			</output>
		</layer>
		<layer id="57" name="542546_const" type="Const" version="opset1">
			<data element_type="f32" offset="335160" shape="" size="4"/>
			<output>
				<port id="1" precision="FP32"/>
			</output>
		</layer>
		<layer id="58" name="Mul1_2033/Fused_Mul_/fq_input_0" type="FakeQuantize" version="opset1">
			<data levels="256"/>
			<input>
				<port id="0">
					<dim>1</dim>
					<dim>64</dim>
					<dim>16</dim>
					<dim>16</dim>
				</port>
				<port id="1"/>
				<port id="2"/>
				<port id="3"/>
				<port id="4"/>
			</input>
			<output>
				<port id="5" precision="FP32">
					<dim>1</dim>
					<dim>64</dim>
					<dim>16</dim>
					<dim>16</dim>
				</port>
			</output>
		</layer>
		<layer id="59" name="data_mul_23312335/copy_const95_const" type="Const" version="opset1">
			<data element_type="f32" offset="335164" shape="1,64,1,1" size="256"/>
			<output>
				<port id="1" precision="FP32">
					<dim>1</dim>
					<dim>64</dim>
					<dim>1</dim>
					<dim>1</dim>
				</port>
			</output>
		</layer>
		<layer id="60" name="Mul1_2033/Fused_Mul_" type="Multiply" version="opset1">
			<input>
				<port id="0">
					<dim>1</dim>
					<dim>64</dim>
					<dim>16</dim>
					<dim>16</dim>
				</port>
				<port id="1">
					<dim>1</dim>
					<dim>64</dim>
					<dim>1</dim>
					<dim>1</dim>
				</port>
			</input>
			<output>
				<port id="2" precision="FP32">
					<dim>1</dim>
					<dim>64</dim>
					<dim>16</dim>
					<dim>16</dim>
				</port>
			</output>
		</layer>
		<layer id="61" name="data_add_23322337/copy_const97_const" type="Const" version="opset1">
			<data element_type="f32" offset="335420" shape="1,64,1,1" size="256"/>
			<output>
				<port id="1" precision="FP32">
					<dim>1</dim>
					<dim>64</dim>
					<dim>1</dim>
					<dim>1</dim>
				</port>
			</output>
		</layer>
		<layer id="62" name="Add1_2034/Fused_Add_" type="Add" version="opset1">
			<input>
				<port id="0">
					<dim>1</dim>
					<dim>64</dim>
					<dim>16</dim>
					<dim>16</dim>
				</port>
				<port id="1">
					<dim>1</dim>
					<dim>64</dim>
					<dim>1</dim>
					<dim>1</dim>
				</port>
			</input>
			<output>
				<port id="2" precision="FP32">
					<dim>1</dim>
					<dim>64</dim>
					<dim>16</dim>
					<dim>16</dim>
				</port>
			</output>
		</layer>
		<layer id="63" name="ReLU3" type="ReLU" version="opset1">
			<input>
				<port id="0">
					<dim>1</dim>
					<dim>64</dim>
					<dim>16</dim>
					<dim>16</dim>
				</port>
			</input>
			<output>
				<port id="1" precision="FP32">
					<dim>1</dim>
					<dim>64</dim>
					<dim>16</dim>
					<dim>16</dim>
				</port>
			</output>
		</layer>
		<layer id="64" name="549553_const" type="Const" version="opset1">
			<data element_type="f32" offset="38944" shape="" size="4"/>
			<output>
				<port id="1" precision="FP32"/>
			</output>
		</layer>
		<layer id="65" name="550554_const" type="Const" version="opset1">
			<data element_type="f32" offset="335676" shape="" size="4"/>
			<output>
				<port id="1" precision="FP32"/>
			</output>
		</layer>
		<layer id="66" name="551555_const" type="Const" version="opset1">
			<data element_type="f32" offset="38944" shape="" size="4"/>
			<output>
				<port id="1" precision="FP32"/>
			</output>
		</layer>
		<layer id="67" name="552556_const" type="Const" version="opset1">
			<data element_type="f32" offset="335676" shape="" size="4"/>
			<output>
				<port id="1" precision="FP32"/>
			</output>
		</layer>
		<layer id="68" name="Convolution4/fq_input_0" type="FakeQuantize" version="opset1">
			<data levels="256"/>
			<input>
				<port id="0">
					<dim>1</dim>
					<dim>64</dim>
					<dim>16</dim>
					<dim>16</dim>
				</port>
				<port id="1"/>
				<port id="2"/>
				<port id="3"/>
				<port id="4"/>
			</input>
			<output>
				<port id="5" precision="FP32">
					<dim>1</dim>
					<dim>64</dim>
					<dim>16</dim>
					<dim>16</dim>
				</port>
			</output>
		</layer>
		<layer id="69" name="Mul1_2045/Fused_Mul_24852487_const100_const" type="Const" version="opset1">
			<data element_type="f32" offset="335680" shape="128,64,3,3" size="294912"/>
			<output>
				<port id="1" precision="FP32">
					<dim>128</dim>
					<dim>64</dim>
					<dim>3</dim>
					<dim>3</dim>
				</port>
			</output>
		</layer>
		<layer id="70" name="559563_const" type="Const" version="opset1">
			<data element_type="f32" offset="630592" shape="128,1,1,1" size="512"/>
			<output>
				<port id="1" precision="FP32">
					<dim>128</dim>
					<dim>1</dim>
					<dim>1</dim>
					<dim>1</dim>
				</port>
			</output>
		</layer>
		<layer id="71" name="560564_const" type="Const" version="opset1">
			<data element_type="f32" offset="631104" shape="128,1,1,1" size="512"/>
			<output>
				<port id="1" precision="FP32">
					<dim>128</dim>
					<dim>1</dim>
					<dim>1</dim>
					<dim>1</dim>
				</port>
			</output>
		</layer>
		<layer id="72" name="561565_const" type="Const" version="opset1">
			<data element_type="f32" offset="630592" shape="128,1,1,1" size="512"/>
			<output>
				<port id="1" precision="FP32">
					<dim>128</dim>
					<dim>1</dim>
					<dim>1</dim>
					<dim>1</dim>
				</port>
			</output>
		</layer>
		<layer id="73" name="562566_const" type="Const" version="opset1">
			<data element_type="f32" offset="631104" shape="128,1,1,1" size="512"/>
			<output>
				<port id="1" precision="FP32">
					<dim>128</dim>
					<dim>1</dim>
					<dim>1</dim>
					<dim>1</dim>
				</port>
			</output>
		</layer>
		<layer id="74" name="Convolution4/fq_weights_1" type="FakeQuantize" version="opset1">
			<data levels="255"/>
			<input>
				<port id="0">
					<dim>128</dim>
					<dim>64</dim>
					<dim>3</dim>
					<dim>3</dim>
				</port>
				<port id="1">
					<dim>128</dim>
					<dim>1</dim>
					<dim>1</dim>
					<dim>1</dim>
				</port>
				<port id="2">
					<dim>128</dim>
					<dim>1</dim>
					<dim>1</dim>
					<dim>1</dim>
				</port>
				<port id="3">
					<dim>128</dim>
					<dim>1</dim>
					<dim>1</dim>
					<dim>1</dim>
				</port>
				<port id="4">
					<dim>128</dim>
					<dim>1</dim>
					<dim>1</dim>
					<dim>1</dim>
				</port>
			</input>
			<output>
				<port id="5" precision="FP32">
					<dim>128</dim>
					<dim>64</dim>
					<dim>3</dim>
					<dim>3</dim>
				</port>
			</output>
		</layer>
		<layer id="75" name="Convolution4" type="Convolution" version="opset1">
			<data dilations="1,1" output_padding="0,0" pads_begin="1,1" pads_end="1,1" strides="2,2"/>
			<input>
				<port id="0">
					<dim>1</dim>
					<dim>64</dim>
					<dim>16</dim>
					<dim>16</dim>
				</port>
				<port id="1">
					<dim>128</dim>
					<dim>64</dim>
					<dim>3</dim>
					<dim>3</dim>
				</port>
			</input>
			<output>
				<port id="2" precision="FP32">
					<dim>1</dim>
					<dim>128</dim>
					<dim>8</dim>
					<dim>8</dim>
				</port>
			</output>
		</layer>
		<layer id="76" name="data_add_23402345/copy_const102_const" type="Const" version="opset1">
			<data element_type="f32" offset="631616" shape="1,128,1,1" size="512"/>
			<output>
				<port id="1" precision="FP32">
					<dim>1</dim>
					<dim>128</dim>
					<dim>1</dim>
					<dim>1</dim>
				</port>
			</output>
		</layer>
		<layer id="77" name="Add1_2046/Fused_Add_" type="Add" version="opset1">
			<input>
				<port id="0">
					<dim>1</dim>
					<dim>128</dim>
					<dim>8</dim>
					<dim>8</dim>
				</port>
				<port id="1">
					<dim>1</dim>
					<dim>128</dim>
					<dim>1</dim>
					<dim>1</dim>
				</port>
			</input>
			<output>
				<port id="2" precision="FP32">
					<dim>1</dim>
					<dim>128</dim>
					<dim>8</dim>
					<dim>8</dim>
				</port>
			</output>
		</layer>
		<layer id="78" name="ReLU4" type="ReLU" version="opset1">
			<input>
				<port id="0">
					<dim>1</dim>
					<dim>128</dim>
					<dim>8</dim>
					<dim>8</dim>
				</port>
			</input>
			<output>
				<port id="1" precision="FP32">
					<dim>1</dim>
					<dim>128</dim>
					<dim>8</dim>
					<dim>8</dim>
				</port>
			</output>
		</layer>
		<layer id="79" name="239243_const" type="Const" version="opset1">
			<data element_type="f32" offset="38944" shape="" size="4"/>
			<output>
				<port id="1" precision="FP32"/>
			</output>
		</layer>
		<layer id="80" name="240244_const" type="Const" version="opset1">
			<data element_type="f32" offset="632128" shape="" size="4"/>
			<output>
				<port id="1" precision="FP32"/>
			</output>
		</layer>
		<layer id="81" name="241245_const" type="Const" version="opset1">
			<data element_type="f32" offset="38944" shape="" size="4"/>
			<output>
				<port id="1" precision="FP32"/>
			</output>
		</layer>
		<layer id="82" name="242246_const" type="Const" version="opset1">
			<data element_type="f32" offset="632128" shape="" size="4"/>
			<output>
				<port id="1" precision="FP32"/>
			</output>
		</layer>
		<layer id="83" name="Convolution5/fq_input_0" type="FakeQuantize" version="opset1">
			<data levels="256"/>
			<input>
				<port id="0">
					<dim>1</dim>
					<dim>128</dim>
					<dim>8</dim>
					<dim>8</dim>
				</port>
				<port id="1"/>
				<port id="2"/>
				<port id="3"/>
				<port id="4"/>
			</input>
			<output>
				<port id="5" precision="FP32">
					<dim>1</dim>
					<dim>128</dim>
					<dim>8</dim>
					<dim>8</dim>
				</port>
			</output>
		</layer>
		<layer id="84" name="92/Output_0/Data__const105_const" type="Const" version="opset1">
			<data element_type="f32" offset="632132" shape="128,128,3,3" size="589824"/>
			<output>
				<port id="1" precision="FP32">
					<dim>128</dim>
					<dim>128</dim>
					<dim>3</dim>
					<dim>3</dim>
				</port>
			</output>
		</layer>
		<layer id="85" name="249253_const" type="Const" version="opset1">
			<data element_type="f32" offset="1221956" shape="128,1,1,1" size="512"/>
			<output>
				<port id="1" precision="FP32">
					<dim>128</dim>
					<dim>1</dim>
					<dim>1</dim>
					<dim>1</dim>
				</port>
			</output>
		</layer>
		<layer id="86" name="250254_const" type="Const" version="opset1">
			<data element_type="f32" offset="1222468" shape="128,1,1,1" size="512"/>
			<output>
				<port id="1" precision="FP32">
					<dim>128</dim>
					<dim>1</dim>
					<dim>1</dim>
					<dim>1</dim>
				</port>
			</output>
		</layer>
		<layer id="87" name="251255_const" type="Const" version="opset1">
			<data element_type="f32" offset="1221956" shape="128,1,1,1" size="512"/>
			<output>
				<port id="1" precision="FP32">
					<dim>128</dim>
					<dim>1</dim>
					<dim>1</dim>
					<dim>1</dim>
				</port>
			</output>
		</layer>
		<layer id="88" name="252256_const" type="Const" version="opset1">
			<data element_type="f32" offset="1222468" shape="128,1,1,1" size="512"/>
			<output>
				<port id="1" precision="FP32">
					<dim>128</dim>
					<dim>1</dim>
					<dim>1</dim>
					<dim>1</dim>
				</port>
			</output>
		</layer>
		<layer id="89" name="Convolution5/fq_weights_1" type="FakeQuantize" version="opset1">
			<data levels="255"/>
			<input>
				<port id="0">
					<dim>128</dim>
					<dim>128</dim>
					<dim>3</dim>
					<dim>3</dim>
				</port>
				<port id="1">
					<dim>128</dim>
					<dim>1</dim>
					<dim>1</dim>
					<dim>1</dim>
				</port>
				<port id="2">
					<dim>128</dim>
					<dim>1</dim>
					<dim>1</dim>
					<dim>1</dim>
				</port>
				<port id="3">
					<dim>128</dim>
					<dim>1</dim>
					<dim>1</dim>
					<dim>1</dim>
				</port>
				<port id="4">
					<dim>128</dim>
					<dim>1</dim>
					<dim>1</dim>
					<dim>1</dim>
				</port>
			</input>
			<output>
				<port id="5" precision="FP32">
					<dim>128</dim>
					<dim>128</dim>
					<dim>3</dim>
					<dim>3</dim>
				</port>
			</output>
		</layer>
		<layer id="90" name="Convolution5" type="Convolution" version="opset1">
			<data dilations="1,1" output_padding="0,0" pads_begin="1,1" pads_end="1,1" strides="1,1"/>
			<input>
				<port id="0">
					<dim>1</dim>
					<dim>128</dim>
					<dim>8</dim>
					<dim>8</dim>
				</port>
				<port id="1">
					<dim>128</dim>
					<dim>128</dim>
					<dim>3</dim>
					<dim>3</dim>
				</port>
			</input>
			<output>
				<port id="2" precision="FP32">
					<dim>1</dim>
					<dim>128</dim>
					<dim>8</dim>
					<dim>8</dim>
				</port>
			</output>
		</layer>
		<layer id="91" name="299303_const" type="Const" version="opset1">
			<data element_type="f32" offset="1222980" shape="" size="4"/>
			<output>
				<port id="1" precision="FP32"/>
			</output>
		</layer>
		<layer id="92" name="300304_const" type="Const" version="opset1">
			<data element_type="f32" offset="1222984" shape="" size="4"/>
			<output>
				<port id="1" precision="FP32"/>
			</output>
		</layer>
		<layer id="93" name="301305_const" type="Const" version="opset1">
			<data element_type="f32" offset="1222980" shape="" size="4"/>
			<output>
				<port id="1" precision="FP32"/>
			</output>
		</layer>
		<layer id="94" name="302306_const" type="Const" version="opset1">
			<data element_type="f32" offset="1222984" shape="" size="4"/>
			<output>
				<port id="1" precision="FP32"/>
			</output>
		</layer>
		<layer id="95" name="Eltwise2/fq_input_0" type="FakeQuantize" version="opset1">
			<data levels="256"/>
			<input>
				<port id="0">
					<dim>1</dim>
					<dim>128</dim>
					<dim>8</dim>
					<dim>8</dim>
				</port>
				<port id="1"/>
				<port id="2"/>
				<port id="3"/>
				<port id="4"/>
			</input>
			<output>
				<port id="5" precision="FP32">
					<dim>1</dim>
					<dim>128</dim>
					<dim>8</dim>
					<dim>8</dim>
				</port>
			</output>
		</layer>
		<layer id="96" name="104/Output_0/Data__const107_const" type="Const" version="opset1">
			<data element_type="f32" offset="1222988" shape="128,64,1,1" size="32768"/>
			<output>
				<port id="1" precision="FP32">
					<dim>128</dim>
					<dim>64</dim>
					<dim>1</dim>
					<dim>1</dim>
				</port>
			</output>
		</layer>
		<layer id="97" name="359363_const" type="Const" version="opset1">
			<data element_type="f32" offset="1255756" shape="128,1,1,1" size="512"/>
			<output>
				<port id="1" precision="FP32">
					<dim>128</dim>
					<dim>1</dim>
					<dim>1</dim>
					<dim>1</dim>
				</port>
			</output>
		</layer>
		<layer id="98" name="360364_const" type="Const" version="opset1">
			<data element_type="f32" offset="1256268" shape="128,1,1,1" size="512"/>
			<output>
				<port id="1" precision="FP32">
					<dim>128</dim>
					<dim>1</dim>
					<dim>1</dim>
					<dim>1</dim>
				</port>
			</output>
		</layer>
		<layer id="99" name="361365_const" type="Const" version="opset1">
			<data element_type="f32" offset="1255756" shape="128,1,1,1" size="512"/>
			<output>
				<port id="1" precision="FP32">
					<dim>128</dim>
					<dim>1</dim>
					<dim>1</dim>
					<dim>1</dim>
				</port>
			</output>
		</layer>
		<layer id="100" name="362366_const" type="Const" version="opset1">
			<data element_type="f32" offset="1256268" shape="128,1,1,1" size="512"/>
			<output>
				<port id="1" precision="FP32">
					<dim>128</dim>
					<dim>1</dim>
					<dim>1</dim>
					<dim>1</dim>
				</port>
			</output>
		</layer>
		<layer id="101" name="Convolution6/fq_weights_1" type="FakeQuantize" version="opset1">
			<data levels="255"/>
			<input>
				<port id="0">
					<dim>128</dim>
					<dim>64</dim>
					<dim>1</dim>
					<dim>1</dim>
				</port>
				<port id="1">
					<dim>128</dim>
					<dim>1</dim>
					<dim>1</dim>
					<dim>1</dim>
				</port>
				<port id="2">
					<dim>128</dim>
					<dim>1</dim>
					<dim>1</dim>
					<dim>1</dim>
				</port>
				<port id="3">
					<dim>128</dim>
					<dim>1</dim>
					<dim>1</dim>
					<dim>1</dim>
				</port>
				<port id="4">
					<dim>128</dim>
					<dim>1</dim>
					<dim>1</dim>
					<dim>1</dim>
				</port>
			</input>
			<output>
				<port id="5" precision="FP32">
					<dim>128</dim>
					<dim>64</dim>
					<dim>1</dim>
					<dim>1</dim>
				</port>
			</output>
		</layer>
		<layer id="102" name="Convolution6" type="Convolution" version="opset1">
			<data dilations="1,1" output_padding="0,0" pads_begin="0,0" pads_end="0,0" strides="2,2"/>
			<input>
				<port id="0">
					<dim>1</dim>
					<dim>64</dim>
					<dim>16</dim>
					<dim>16</dim>
				</port>
				<port id="1">
					<dim>128</dim>
					<dim>64</dim>
					<dim>1</dim>
					<dim>1</dim>
				</port>
			</input>
			<output>
				<port id="2" precision="FP32">
					<dim>1</dim>
					<dim>128</dim>
					<dim>8</dim>
					<dim>8</dim>
				</port>
			</output>
		</layer>
		<layer id="103" name="309313_const" type="Const" version="opset1">
			<data element_type="f32" offset="1256780" shape="" size="4"/>
			<output>
				<port id="1" precision="FP32"/>
			</output>
		</layer>
		<layer id="104" name="310314_const" type="Const" version="opset1">
			<data element_type="f32" offset="1256784" shape="" size="4"/>
			<output>
				<port id="1" precision="FP32"/>
			</output>
		</layer>
		<layer id="105" name="311315_const" type="Const" version="opset1">
			<data element_type="f32" offset="1256780" shape="" size="4"/>
			<output>
				<port id="1" precision="FP32"/>
			</output>
		</layer>
		<layer id="106" name="312316_const" type="Const" version="opset1">
			<data element_type="f32" offset="1256784" shape="" size="4"/>
			<output>
				<port id="1" precision="FP32"/>
			</output>
		</layer>
		<layer id="107" name="Eltwise2/fq_input_1" type="FakeQuantize" version="opset1">
			<data levels="256"/>
			<input>
				<port id="0">
					<dim>1</dim>
					<dim>128</dim>
					<dim>8</dim>
					<dim>8</dim>
				</port>
				<port id="1"/>
				<port id="2"/>
				<port id="3"/>
				<port id="4"/>
			</input>
			<output>
				<port id="5" precision="FP32">
					<dim>1</dim>
					<dim>128</dim>
					<dim>8</dim>
					<dim>8</dim>
				</port>
			</output>
		</layer>
		<layer id="108" name="Eltwise2" type="Add" version="opset1">
			<input>
				<port id="0">
					<dim>1</dim>
					<dim>128</dim>
					<dim>8</dim>
					<dim>8</dim>
				</port>
				<port id="1">
					<dim>1</dim>
					<dim>128</dim>
					<dim>8</dim>
					<dim>8</dim>
				</port>
			</input>
			<output>
				<port id="2" precision="FP32">
					<dim>1</dim>
					<dim>128</dim>
					<dim>8</dim>
					<dim>8</dim>
				</port>
			</output>
		</layer>
		<layer id="109" name="409413_const" type="Const" version="opset1">
			<data element_type="f32" offset="1256788" shape="" size="4"/>
			<output>
				<port id="1" precision="FP32"/>
			</output>
		</layer>
		<layer id="110" name="410414_const" type="Const" version="opset1">
			<data element_type="f32" offset="1256792" shape="" size="4"/>
			<output>
				<port id="1" precision="FP32"/>
			</output>
		</layer>
		<layer id="111" name="411415_const" type="Const" version="opset1">
			<data element_type="f32" offset="1256788" shape="" size="4"/>
			<output>
				<port id="1" precision="FP32"/>
			</output>
		</layer>
		<layer id="112" name="412416_const" type="Const" version="opset1">
			<data element_type="f32" offset="1256792" shape="" size="4"/>
			<output>
				<port id="1" precision="FP32"/>
			</output>
		</layer>
		<layer id="113" name="Mul1_2057/Fused_Mul_/fq_input_0" type="FakeQuantize" version="opset1">
			<data levels="256"/>
			<input>
				<port id="0">
					<dim>1</dim>
					<dim>128</dim>
					<dim>8</dim>
					<dim>8</dim>
				</port>
				<port id="1"/>
				<port id="2"/>
				<port id="3"/>
				<port id="4"/>
			</input>
			<output>
				<port id="5" precision="FP32">
					<dim>1</dim>
					<dim>128</dim>
					<dim>8</dim>
					<dim>8</dim>
				</port>
			</output>
		</layer>
		<layer id="114" name="data_mul_23472351/copy_const110_const" type="Const" version="opset1">
			<data element_type="f32" offset="1256796" shape="1,128,1,1" size="512"/>
			<output>
				<port id="1" precision="FP32">
					<dim>1</dim>
					<dim>128</dim>
					<dim>1</dim>
					<dim>1</dim>
				</port>
			</output>
		</layer>
		<layer id="115" name="Mul1_2057/Fused_Mul_" type="Multiply" version="opset1">
			<input>
				<port id="0">
					<dim>1</dim>
					<dim>128</dim>
					<dim>8</dim>
					<dim>8</dim>
				</port>
				<port id="1">
					<dim>1</dim>
					<dim>128</dim>
					<dim>1</dim>
					<dim>1</dim>
				</port>
			</input>
			<output>
				<port id="2" precision="FP32">
					<dim>1</dim>
					<dim>128</dim>
					<dim>8</dim>
					<dim>8</dim>
				</port>
			</output>
		</layer>
		<layer id="116" name="data_add_23482353/copy_const112_const" type="Const" version="opset1">
			<data element_type="f32" offset="1257308" shape="1,128,1,1" size="512"/>
			<output>
				<port id="1" precision="FP32">
					<dim>1</dim>
					<dim>128</dim>
					<dim>1</dim>
					<dim>1</dim>
				</port>
			</output>
		</layer>
		<layer id="117" name="Add1_2058/Fused_Add_" type="Add" version="opset1">
			<input>
				<port id="0">
					<dim>1</dim>
					<dim>128</dim>
					<dim>8</dim>
					<dim>8</dim>
				</port>
				<port id="1">
					<dim>1</dim>
					<dim>128</dim>
					<dim>1</dim>
					<dim>1</dim>
				</port>
			</input>
			<output>
				<port id="2" precision="FP32">
					<dim>1</dim>
					<dim>128</dim>
					<dim>8</dim>
					<dim>8</dim>
				</port>
			</output>
		</layer>
		<layer id="118" name="ReLU5" type="ReLU" version="opset1">
			<input>
				<port id="0">
					<dim>1</dim>
					<dim>128</dim>
					<dim>8</dim>
					<dim>8</dim>
				</port>
			</input>
			<output>
				<port id="1" precision="FP32">
					<dim>1</dim>
					<dim>128</dim>
					<dim>8</dim>
					<dim>8</dim>
				</port>
			</output>
		</layer>
		<layer id="119" name="479483_const" type="Const" version="opset1">
			<data element_type="f32" offset="38944" shape="" size="4"/>
			<output>
				<port id="1" precision="FP32"/>
			</output>
		</layer>
		<layer id="120" name="480484_const" type="Const" version="opset1">
			<data element_type="f32" offset="1257820" shape="" size="4"/>
			<output>
				<port id="1" precision="FP32"/>
			</output>
		</layer>
		<layer id="121" name="481485_const" type="Const" version="opset1">
			<data element_type="f32" offset="38944" shape="" size="4"/>
			<output>
				<port id="1" precision="FP32"/>
			</output>
		</layer>
		<layer id="122" name="482486_const" type="Const" version="opset1">
			<data element_type="f32" offset="1257820" shape="" size="4"/>
			<output>
				<port id="1" precision="FP32"/>
			</output>
		</layer>
		<layer id="123" name="Convolution7/fq_input_0" type="FakeQuantize" version="opset1">
			<data levels="256"/>
			<input>
				<port id="0">
					<dim>1</dim>
					<dim>128</dim>
					<dim>8</dim>
					<dim>8</dim>
				</port>
				<port id="1"/>
				<port id="2"/>
				<port id="3"/>
				<port id="4"/>
			</input>
			<output>
				<port id="5" precision="FP32">
					<dim>1</dim>
					<dim>128</dim>
					<dim>8</dim>
					<dim>8</dim>
				</port>
			</output>
		</layer>
		<layer id="124" name="Mul1_2069/Fused_Mul_24892491_const115_const" type="Const" version="opset1">
			<data element_type="f32" offset="1257824" shape="256,128,3,3" size="1179648"/>
			<output>
				<port id="1" precision="FP32">
					<dim>256</dim>
					<dim>128</dim>
					<dim>3</dim>
					<dim>3</dim>
				</port>
			</output>
		</layer>
		<layer id="125" name="489493_const" type="Const" version="opset1">
			<data element_type="f32" offset="2437472" shape="256,1,1,1" size="1024"/>
			<output>
				<port id="1" precision="FP32">
					<dim>256</dim>
					<dim>1</dim>
					<dim>1</dim>
					<dim>1</dim>
				</port>
			</output>
		</layer>
		<layer id="126" name="490494_const" type="Const" version="opset1">
			<data element_type="f32" offset="2438496" shape="256,1,1,1" size="1024"/>
			<output>
				<port id="1" precision="FP32">
					<dim>256</dim>
					<dim>1</dim>
					<dim>1</dim>
					<dim>1</dim>
				</port>
			</output>
		</layer>
		<layer id="127" name="491495_const" type="Const" version="opset1">
			<data element_type="f32" offset="2437472" shape="256,1,1,1" size="1024"/>
			<output>
				<port id="1" precision="FP32">
					<dim>256</dim>
					<dim>1</dim>
					<dim>1</dim>
					<dim>1</dim>
				</port>
			</output>
		</layer>
		<layer id="128" name="492496_const" type="Const" version="opset1">
			<data element_type="f32" offset="2438496" shape="256,1,1,1" size="1024"/>
			<output>
				<port id="1" precision="FP32">
					<dim>256</dim>
					<dim>1</dim>
					<dim>1</dim>
					<dim>1</dim>
				</port>
			</output>
		</layer>
		<layer id="129" name="Convolution7/fq_weights_1" type="FakeQuantize" version="opset1">
			<data levels="255"/>
			<input>
				<port id="0">
					<dim>256</dim>
					<dim>128</dim>
					<dim>3</dim>
					<dim>3</dim>
				</port>
				<port id="1">
					<dim>256</dim>
					<dim>1</dim>
					<dim>1</dim>
					<dim>1</dim>
				</port>
				<port id="2">
					<dim>256</dim>
					<dim>1</dim>
					<dim>1</dim>
					<dim>1</dim>
				</port>
				<port id="3">
					<dim>256</dim>
					<dim>1</dim>
					<dim>1</dim>
					<dim>1</dim>
				</port>
				<port id="4">
					<dim>256</dim>
					<dim>1</dim>
					<dim>1</dim>
					<dim>1</dim>
				</port>
			</input>
			<output>
				<port id="5" precision="FP32">
					<dim>256</dim>
					<dim>128</dim>
					<dim>3</dim>
					<dim>3</dim>
				</port>
			</output>
		</layer>
		<layer id="130" name="Convolution7" type="Convolution" version="opset1">
			<data dilations="1,1" output_padding="0,0" pads_begin="1,1" pads_end="1,1" strides="2,2"/>
			<input>
				<port id="0">
					<dim>1</dim>
					<dim>128</dim>
					<dim>8</dim>
					<dim>8</dim>
				</port>
				<port id="1">
					<dim>256</dim>
					<dim>128</dim>
					<dim>3</dim>
					<dim>3</dim>
				</port>
			</input>
			<output>
				<port id="2" precision="FP32">
					<dim>1</dim>
					<dim>256</dim>
					<dim>4</dim>
					<dim>4</dim>
				</port>
			</output>
		</layer>
		<layer id="131" name="data_add_23562361/copy_const117_const" type="Const" version="opset1">
			<data element_type="f32" offset="2439520" shape="1,256,1,1" size="1024"/>
			<output>
				<port id="1" precision="FP32">
					<dim>1</dim>
					<dim>256</dim>
					<dim>1</dim>
					<dim>1</dim>
				</port>
			</output>
		</layer>
		<layer id="132" name="Add1_2070/Fused_Add_" type="Add" version="opset1">
			<input>
				<port id="0">
					<dim>1</dim>
					<dim>256</dim>
					<dim>4</dim>
					<dim>4</dim>
				</port>
				<port id="1">
					<dim>1</dim>
					<dim>256</dim>
					<dim>1</dim>
					<dim>1</dim>
				</port>
			</input>
			<output>
				<port id="2" precision="FP32">
					<dim>1</dim>
					<dim>256</dim>
					<dim>4</dim>
					<dim>4</dim>
				</port>
			</output>
		</layer>
		<layer id="133" name="ReLU6" type="ReLU" version="opset1">
			<input>
				<port id="0">
					<dim>1</dim>
					<dim>256</dim>
					<dim>4</dim>
					<dim>4</dim>
				</port>
			</input>
			<output>
				<port id="1" precision="FP32">
					<dim>1</dim>
					<dim>256</dim>
					<dim>4</dim>
					<dim>4</dim>
				</port>
			</output>
		</layer>
		<layer id="134" name="209213_const" type="Const" version="opset1">
			<data element_type="f32" offset="38944" shape="" size="4"/>
			<output>
				<port id="1" precision="FP32"/>
			</output>
		</layer>
		<layer id="135" name="210214_const" type="Const" version="opset1">
			<data element_type="f32" offset="2440544" shape="" size="4"/>
			<output>
				<port id="1" precision="FP32"/>
			</output>
		</layer>
		<layer id="136" name="211215_const" type="Const" version="opset1">
			<data element_type="f32" offset="38944" shape="" size="4"/>
			<output>
				<port id="1" precision="FP32"/>
			</output>
		</layer>
		<layer id="137" name="212216_const" type="Const" version="opset1">
			<data element_type="f32" offset="2440544" shape="" size="4"/>
			<output>
				<port id="1" precision="FP32"/>
			</output>
		</layer>
		<layer id="138" name="Convolution8/fq_input_0" type="FakeQuantize" version="opset1">
			<data levels="256"/>
			<input>
				<port id="0">
					<dim>1</dim>
					<dim>256</dim>
					<dim>4</dim>
					<dim>4</dim>
				</port>
				<port id="1"/>
				<port id="2"/>
				<port id="3"/>
				<port id="4"/>
			</input>
			<output>
				<port id="5" precision="FP32">
					<dim>1</dim>
					<dim>256</dim>
					<dim>4</dim>
					<dim>4</dim>
				</port>
			</output>
		</layer>
		<layer id="139" name="88/Output_0/Data__const120_const" type="Const" version="opset1">
			<data element_type="f32" offset="2440548" shape="256,256,3,3" size="2359296"/>
			<output>
				<port id="1" precision="FP32">
					<dim>256</dim>
					<dim>256</dim>
					<dim>3</dim>
					<dim>3</dim>
				</port>
			</output>
		</layer>
		<layer id="140" name="219223_const" type="Const" version="opset1">
			<data element_type="f32" offset="4799844" shape="256,1,1,1" size="1024"/>
			<output>
				<port id="1" precision="FP32">
					<dim>256</dim>
					<dim>1</dim>
					<dim>1</dim>
					<dim>1</dim>
				</port>
			</output>
		</layer>
		<layer id="141" name="220224_const" type="Const" version="opset1">
			<data element_type="f32" offset="4800868" shape="256,1,1,1" size="1024"/>
			<output>
				<port id="1" precision="FP32">
					<dim>256</dim>
					<dim>1</dim>
					<dim>1</dim>
					<dim>1</dim>
				</port>
			</output>
		</layer>
		<layer id="142" name="221225_const" type="Const" version="opset1">
			<data element_type="f32" offset="4799844" shape="256,1,1,1" size="1024"/>
			<output>
				<port id="1" precision="FP32">
					<dim>256</dim>
					<dim>1</dim>
					<dim>1</dim>
					<dim>1</dim>
				</port>
			</output>
		</layer>
		<layer id="143" name="222226_const" type="Const" version="opset1">
			<data element_type="f32" offset="4800868" shape="256,1,1,1" size="1024"/>
			<output>
				<port id="1" precision="FP32">
					<dim>256</dim>
					<dim>1</dim>
					<dim>1</dim>
					<dim>1</dim>
				</port>
			</output>
		</layer>
		<layer id="144" name="Convolution8/fq_weights_1" type="FakeQuantize" version="opset1">
			<data levels="255"/>
			<input>
				<port id="0">
					<dim>256</dim>
					<dim>256</dim>
					<dim>3</dim>
					<dim>3</dim>
				</port>
				<port id="1">
					<dim>256</dim>
					<dim>1</dim>
					<dim>1</dim>
					<dim>1</dim>
				</port>
				<port id="2">
					<dim>256</dim>
					<dim>1</dim>
					<dim>1</dim>
					<dim>1</dim>
				</port>
				<port id="3">
					<dim>256</dim>
					<dim>1</dim>
					<dim>1</dim>
					<dim>1</dim>
				</port>
				<port id="4">
					<dim>256</dim>
					<dim>1</dim>
					<dim>1</dim>
					<dim>1</dim>
				</port>
			</input>
			<output>
				<port id="5" precision="FP32">
					<dim>256</dim>
					<dim>256</dim>
					<dim>3</dim>
					<dim>3</dim>
				</port>
			</output>
		</layer>
		<layer id="145" name="Convolution8" type="Convolution" version="opset1">
			<data dilations="1,1" output_padding="0,0" pads_begin="1,1" pads_end="1,1" strides="1,1"/>
			<input>
				<port id="0">
					<dim>1</dim>
					<dim>256</dim>
					<dim>4</dim>
					<dim>4</dim>
				</port>
				<port id="1">
					<dim>256</dim>
					<dim>256</dim>
					<dim>3</dim>
					<dim>3</dim>
				</port>
			</input>
			<output>
				<port id="2" precision="FP32">
					<dim>1</dim>
					<dim>256</dim>
					<dim>4</dim>
					<dim>4</dim>
				</port>
			</output>
		</layer>
		<layer id="146" name="259263_const" type="Const" version="opset1">
			<data element_type="f32" offset="4801892" shape="" size="4"/>
			<output>
				<port id="1" precision="FP32"/>
			</output>
		</layer>
		<layer id="147" name="260264_const" type="Const" version="opset1">
			<data element_type="f32" offset="4801896" shape="" size="4"/>
			<output>
				<port id="1" precision="FP32"/>
			</output>
		</layer>
		<layer id="148" name="261265_const" type="Const" version="opset1">
			<data element_type="f32" offset="4801892" shape="" size="4"/>
			<output>
				<port id="1" precision="FP32"/>
			</output>
		</layer>
		<layer id="149" name="262266_const" type="Const" version="opset1">
			<data element_type="f32" offset="4801896" shape="" size="4"/>
			<output>
				<port id="1" precision="FP32"/>
			</output>
		</layer>
		<layer id="150" name="Eltwise3/fq_input_0" type="FakeQuantize" version="opset1">
			<data levels="256"/>
			<input>
				<port id="0">
					<dim>1</dim>
					<dim>256</dim>
					<dim>4</dim>
					<dim>4</dim>
				</port>
				<port id="1"/>
				<port id="2"/>
				<port id="3"/>
				<port id="4"/>
			</input>
			<output>
				<port id="5" precision="FP32">
					<dim>1</dim>
					<dim>256</dim>
					<dim>4</dim>
					<dim>4</dim>
				</port>
			</output>
		</layer>
		<layer id="151" name="119/Output_0/Data__const122_const" type="Const" version="opset1">
			<data element_type="f32" offset="4801900" shape="256,128,1,1" size="131072"/>
			<output>
				<port id="1" precision="FP32">
					<dim>256</dim>
					<dim>128</dim>
					<dim>1</dim>
					<dim>1</dim>
				</port>
			</output>
		</layer>
		<layer id="152" name="339343_const" type="Const" version="opset1">
			<data element_type="f32" offset="4932972" shape="256,1,1,1" size="1024"/>
			<output>
				<port id="1" precision="FP32">
					<dim>256</dim>
					<dim>1</dim>
					<dim>1</dim>
					<dim>1</dim>
				</port>
			</output>
		</layer>
		<layer id="153" name="340344_const" type="Const" version="opset1">
			<data element_type="f32" offset="4933996" shape="256,1,1,1" size="1024"/>
			<output>
				<port id="1" precision="FP32">
					<dim>256</dim>
					<dim>1</dim>
					<dim>1</dim>
					<dim>1</dim>
				</port>
			</output>
		</layer>
		<layer id="154" name="341345_const" type="Const" version="opset1">
			<data element_type="f32" offset="4932972" shape="256,1,1,1" size="1024"/>
			<output>
				<port id="1" precision="FP32">
					<dim>256</dim>
					<dim>1</dim>
					<dim>1</dim>
					<dim>1</dim>
				</port>
			</output>
		</layer>
		<layer id="155" name="342346_const" type="Const" version="opset1">
			<data element_type="f32" offset="4933996" shape="256,1,1,1" size="1024"/>
			<output>
				<port id="1" precision="FP32">
					<dim>256</dim>
					<dim>1</dim>
					<dim>1</dim>
					<dim>1</dim>
				</port>
			</output>
		</layer>
		<layer id="156" name="Convolution9/fq_weights_1" type="FakeQuantize" version="opset1">
			<data levels="255"/>
			<input>
				<port id="0">
					<dim>256</dim>
					<dim>128</dim>
					<dim>1</dim>
					<dim>1</dim>
				</port>
				<port id="1">
					<dim>256</dim>
					<dim>1</dim>
					<dim>1</dim>
					<dim>1</dim>
				</port>
				<port id="2">
					<dim>256</dim>
					<dim>1</dim>
					<dim>1</dim>
					<dim>1</dim>
				</port>
				<port id="3">
					<dim>256</dim>
					<dim>1</dim>
					<dim>1</dim>
					<dim>1</dim>
				</port>
				<port id="4">
					<dim>256</dim>
					<dim>1</dim>
					<dim>1</dim>
					<dim>1</dim>
				</port>
			</input>
			<output>
				<port id="5" precision="FP32">
					<dim>256</dim>
					<dim>128</dim>
					<dim>1</dim>
					<dim>1</dim>
				</port>
			</output>
		</layer>
		<layer id="157" name="Convolution9" type="Convolution" version="opset1">
			<data dilations="1,1" output_padding="0,0" pads_begin="0,0" pads_end="0,0" strides="2,2"/>
			<input>
				<port id="0">
					<dim>1</dim>
					<dim>128</dim>
					<dim>8</dim>
					<dim>8</dim>
				</port>
				<port id="1">
					<dim>256</dim>
					<dim>128</dim>
					<dim>1</dim>
					<dim>1</dim>
				</port>
			</input>
			<output>
				<port id="2" precision="FP32">
					<dim>1</dim>
					<dim>256</dim>
					<dim>4</dim>
					<dim>4</dim>
				</port>
			</output>
		</layer>
		<layer id="158" name="269273_const" type="Const" version="opset1">
			<data element_type="f32" offset="4935020" shape="" size="4"/>
			<output>
				<port id="1" precision="FP32"/>
			</output>
		</layer>
		<layer id="159" name="270274_const" type="Const" version="opset1">
			<data element_type="f32" offset="4935024" shape="" size="4"/>
			<output>
				<port id="1" precision="FP32"/>
			</output>
		</layer>
		<layer id="160" name="271275_const" type="Const" version="opset1">
			<data element_type="f32" offset="4935020" shape="" size="4"/>
			<output>
				<port id="1" precision="FP32"/>
			</output>
		</layer>
		<layer id="161" name="272276_const" type="Const" version="opset1">
			<data element_type="f32" offset="4935024" shape="" size="4"/>
			<output>
				<port id="1" precision="FP32"/>
			</output>
		</layer>
		<layer id="162" name="Eltwise3/fq_input_1" type="FakeQuantize" version="opset1">
			<data levels="256"/>
			<input>
				<port id="0">
					<dim>1</dim>
					<dim>256</dim>
					<dim>4</dim>
					<dim>4</dim>
				</port>
				<port id="1"/>
				<port id="2"/>
				<port id="3"/>
				<port id="4"/>
			</input>
			<output>
				<port id="5" precision="FP32">
					<dim>1</dim>
					<dim>256</dim>
					<dim>4</dim>
					<dim>4</dim>
				</port>
			</output>
		</layer>
		<layer id="163" name="Eltwise3" type="Add" version="opset1">
			<input>
				<port id="0">
					<dim>1</dim>
					<dim>256</dim>
					<dim>4</dim>
					<dim>4</dim>
				</port>
				<port id="1">
					<dim>1</dim>
					<dim>256</dim>
					<dim>4</dim>
					<dim>4</dim>
				</port>
			</input>
			<output>
				<port id="2" precision="FP32">
					<dim>1</dim>
					<dim>256</dim>
					<dim>4</dim>
					<dim>4</dim>
				</port>
			</output>
		</layer>
		<layer id="164" name="229233_const" type="Const" version="opset1">
			<data element_type="f32" offset="4935028" shape="" size="4"/>
			<output>
				<port id="1" precision="FP32"/>
			</output>
		</layer>
		<layer id="165" name="230234_const" type="Const" version="opset1">
			<data element_type="f32" offset="4935032" shape="" size="4"/>
			<output>
				<port id="1" precision="FP32"/>
			</output>
		</layer>
		<layer id="166" name="231235_const" type="Const" version="opset1">
			<data element_type="f32" offset="4935028" shape="" size="4"/>
			<output>
				<port id="1" precision="FP32"/>
			</output>
		</layer>
		<layer id="167" name="232236_const" type="Const" version="opset1">
			<data element_type="f32" offset="4935032" shape="" size="4"/>
			<output>
				<port id="1" precision="FP32"/>
			</output>
		</layer>
		<layer id="168" name="Mul1_2081/Fused_Mul_/fq_input_0" type="FakeQuantize" version="opset1">
			<data levels="256"/>
			<input>
				<port id="0">
					<dim>1</dim>
					<dim>256</dim>
					<dim>4</dim>
					<dim>4</dim>
				</port>
				<port id="1"/>
				<port id="2"/>
				<port id="3"/>
				<port id="4"/>
			</input>
			<output>
				<port id="5" precision="FP32">
					<dim>1</dim>
					<dim>256</dim>
					<dim>4</dim>
					<dim>4</dim>
				</port>
			</output>
		</layer>
		<layer id="169" name="data_mul_23632367/copy_const125_const" type="Const" version="opset1">
			<data element_type="f32" offset="4935036" shape="1,256,1,1" size="1024"/>
			<output>
				<port id="1" precision="FP32">
					<dim>1</dim>
					<dim>256</dim>
					<dim>1</dim>
					<dim>1</dim>
				</port>
			</output>
		</layer>
		<layer id="170" name="Mul1_2081/Fused_Mul_" type="Multiply" version="opset1">
			<input>
				<port id="0">
					<dim>1</dim>
					<dim>256</dim>
					<dim>4</dim>
					<dim>4</dim>
				</port>
				<port id="1">
					<dim>1</dim>
					<dim>256</dim>
					<dim>1</dim>
					<dim>1</dim>
				</port>
			</input>
			<output>
				<port id="2" precision="FP32">
					<dim>1</dim>
					<dim>256</dim>
					<dim>4</dim>
					<dim>4</dim>
				</port>
			</output>
		</layer>
		<layer id="171" name="data_add_23642369/copy_const127_const" type="Const" version="opset1">
			<data element_type="f32" offset="4936060" shape="1,256,1,1" size="1024"/>
			<output>
				<port id="1" precision="FP32">
					<dim>1</dim>
					<dim>256</dim>
					<dim>1</dim>
					<dim>1</dim>
				</port>
			</output>
		</layer>
		<layer id="172" name="Add1_2082/Fused_Add_" type="Add" version="opset1">
			<input>
				<port id="0">
					<dim>1</dim>
					<dim>256</dim>
					<dim>4</dim>
					<dim>4</dim>
				</port>
				<port id="1">
					<dim>1</dim>
					<dim>256</dim>
					<dim>1</dim>
					<dim>1</dim>
				</port>
			</input>
			<output>
				<port id="2" precision="FP32">
					<dim>1</dim>
					<dim>256</dim>
					<dim>4</dim>
					<dim>4</dim>
				</port>
			</output>
		</layer>
		<layer id="173" name="ReLU7" type="ReLU" version="opset1">
			<input>
				<port id="0">
					<dim>1</dim>
					<dim>256</dim>
					<dim>4</dim>
					<dim>4</dim>
				</port>
			</input>
			<output>
				<port id="1" precision="FP32">
					<dim>1</dim>
					<dim>256</dim>
					<dim>4</dim>
					<dim>4</dim>
				</port>
			</output>
		</layer>
		<layer id="174" name="439443_const" type="Const" version="opset1">
			<data element_type="f32" offset="38944" shape="" size="4"/>
			<output>
				<port id="1" precision="FP32"/>
			</output>
		</layer>
		<layer id="175" name="440444_const" type="Const" version="opset1">
			<data element_type="f32" offset="4937084" shape="" size="4"/>
			<output>
				<port id="1" precision="FP32"/>
			</output>
		</layer>
		<layer id="176" name="441445_const" type="Const" version="opset1">
			<data element_type="f32" offset="38944" shape="" size="4"/>
			<output>
				<port id="1" precision="FP32"/>
			</output>
		</layer>
		<layer id="177" name="442446_const" type="Const" version="opset1">
			<data element_type="f32" offset="4937084" shape="" size="4"/>
			<output>
				<port id="1" precision="FP32"/>
			</output>
		</layer>
		<layer id="178" name="Convolution10/fq_input_0" type="FakeQuantize" version="opset1">
			<data levels="256"/>
			<input>
				<port id="0">
					<dim>1</dim>
					<dim>256</dim>
					<dim>4</dim>
					<dim>4</dim>
				</port>
				<port id="1"/>
				<port id="2"/>
				<port id="3"/>
				<port id="4"/>
			</input>
			<output>
				<port id="5" precision="FP32">
					<dim>1</dim>
					<dim>256</dim>
					<dim>4</dim>
					<dim>4</dim>
				</port>
			</output>
		</layer>
		<layer id="179" name="Mul1_2093/Fused_Mul_24932495_const130_const" type="Const" version="opset1">
			<data element_type="f32" offset="4937088" shape="256,256,3,3" size="2359296"/>
			<output>
				<port id="1" precision="FP32">
					<dim>256</dim>
					<dim>256</dim>
					<dim>3</dim>
					<dim>3</dim>
				</port>
			</output>
		</layer>
		<layer id="180" name="449453_const" type="Const" version="opset1">
			<data element_type="f32" offset="7296384" shape="256,1,1,1" size="1024"/>
			<output>
				<port id="1" precision="FP32">
					<dim>256</dim>
					<dim>1</dim>
					<dim>1</dim>
					<dim>1</dim>
				</port>
			</output>
		</layer>
		<layer id="181" name="450454_const" type="Const" version="opset1">
			<data element_type="f32" offset="7297408" shape="256,1,1,1" size="1024"/>
			<output>
				<port id="1" precision="FP32">
					<dim>256</dim>
					<dim>1</dim>
					<dim>1</dim>
					<dim>1</dim>
				</port>
			</output>
		</layer>
		<layer id="182" name="451455_const" type="Const" version="opset1">
			<data element_type="f32" offset="7296384" shape="256,1,1,1" size="1024"/>
			<output>
				<port id="1" precision="FP32">
					<dim>256</dim>
					<dim>1</dim>
					<dim>1</dim>
					<dim>1</dim>
				</port>
			</output>
		</layer>
		<layer id="183" name="452456_const" type="Const" version="opset1">
			<data element_type="f32" offset="7297408" shape="256,1,1,1" size="1024"/>
			<output>
				<port id="1" precision="FP32">
					<dim>256</dim>
					<dim>1</dim>
					<dim>1</dim>
					<dim>1</dim>
				</port>
			</output>
		</layer>
		<layer id="184" name="Convolution10/fq_weights_1" type="FakeQuantize" version="opset1">
			<data levels="255"/>
			<input>
				<port id="0">
					<dim>256</dim>
					<dim>256</dim>
					<dim>3</dim>
					<dim>3</dim>
				</port>
				<port id="1">
					<dim>256</dim>
					<dim>1</dim>
					<dim>1</dim>
					<dim>1</dim>
				</port>
				<port id="2">
					<dim>256</dim>
					<dim>1</dim>
					<dim>1</dim>
					<dim>1</dim>
				</port>
				<port id="3">
					<dim>256</dim>
					<dim>1</dim>
					<dim>1</dim>
					<dim>1</dim>
				</port>
				<port id="4">
					<dim>256</dim>
					<dim>1</dim>
					<dim>1</dim>
					<dim>1</dim>
				</port>
			</input>
			<output>
				<port id="5" precision="FP32">
					<dim>256</dim>
					<dim>256</dim>
					<dim>3</dim>
					<dim>3</dim>
				</port>
			</output>
		</layer>
		<layer id="185" name="Convolution10" type="Convolution" version="opset1">
			<data dilations="1,1" output_padding="0,0" pads_begin="1,1" pads_end="1,1" strides="2,2"/>
			<input>
				<port id="0">
					<dim>1</dim>
					<dim>256</dim>
					<dim>4</dim>
					<dim>4</dim>
				</port>
				<port id="1">
					<dim>256</dim>
					<dim>256</dim>
					<dim>3</dim>
					<dim>3</dim>
				</port>
			</input>
			<output>
				<port id="2" precision="FP32">
					<dim>1</dim>
					<dim>256</dim>
					<dim>2</dim>
					<dim>2</dim>
				</port>
			</output>
		</layer>
		<layer id="186" name="data_add_23722377/copy_const132_const" type="Const" version="opset1">
			<data element_type="f32" offset="7298432" shape="1,256,1,1" size="1024"/>
			<output>
				<port id="1" precision="FP32">
					<dim>1</dim>
					<dim>256</dim>
					<dim>1</dim>
					<dim>1</dim>
				</port>
			</output>
		</layer>
		<layer id="187" name="Add1_2094/Fused_Add_" type="Add" version="opset1">
			<input>
				<port id="0">
					<dim>1</dim>
					<dim>256</dim>
					<dim>2</dim>
					<dim>2</dim>
				</port>
				<port id="1">
					<dim>1</dim>
					<dim>256</dim>
					<dim>1</dim>
					<dim>1</dim>
				</port>
			</input>
			<output>
				<port id="2" precision="FP32">
					<dim>1</dim>
					<dim>256</dim>
					<dim>2</dim>
					<dim>2</dim>
				</port>
			</output>
		</layer>
		<layer id="188" name="ReLU8" type="ReLU" version="opset1">
			<input>
				<port id="0">
					<dim>1</dim>
					<dim>256</dim>
					<dim>2</dim>
					<dim>2</dim>
				</port>
			</input>
			<output>
				<port id="1" precision="FP32">
					<dim>1</dim>
					<dim>256</dim>
					<dim>2</dim>
					<dim>2</dim>
				</port>
			</output>
		</layer>
		<layer id="189" name="419423_const" type="Const" version="opset1">
			<data element_type="f32" offset="38944" shape="" size="4"/>
			<output>
				<port id="1" precision="FP32"/>
			</output>
		</layer>
		<layer id="190" name="420424_const" type="Const" version="opset1">
			<data element_type="f32" offset="7299456" shape="" size="4"/>
			<output>
				<port id="1" precision="FP32"/>
			</output>
		</layer>
		<layer id="191" name="421425_const" type="Const" version="opset1">
			<data element_type="f32" offset="38944" shape="" size="4"/>
			<output>
				<port id="1" precision="FP32"/>
			</output>
		</layer>
		<layer id="192" name="422426_const" type="Const" version="opset1">
			<data element_type="f32" offset="7299456" shape="" size="4"/>
			<output>
				<port id="1" precision="FP32"/>
			</output>
		</layer>
		<layer id="193" name="Convolution11/fq_input_0" type="FakeQuantize" version="opset1">
			<data levels="256"/>
			<input>
				<port id="0">
					<dim>1</dim>
					<dim>256</dim>
					<dim>2</dim>
					<dim>2</dim>
				</port>
				<port id="1"/>
				<port id="2"/>
				<port id="3"/>
				<port id="4"/>
			</input>
			<output>
				<port id="5" precision="FP32">
					<dim>1</dim>
					<dim>256</dim>
					<dim>2</dim>
					<dim>2</dim>
				</port>
			</output>
		</layer>
		<layer id="194" name="126/Output_0/Data__const135_const" type="Const" version="opset1">
			<data element_type="f32" offset="7299460" shape="256,256,3,3" size="2359296"/>
			<output>
				<port id="1" precision="FP32">
					<dim>256</dim>
					<dim>256</dim>
					<dim>3</dim>
					<dim>3</dim>
				</port>
			</output>
		</layer>
		<layer id="195" name="429433_const" type="Const" version="opset1">
			<data element_type="f32" offset="9658756" shape="256,1,1,1" size="1024"/>
			<output>
				<port id="1" precision="FP32">
					<dim>256</dim>
					<dim>1</dim>
					<dim>1</dim>
					<dim>1</dim>
				</port>
			</output>
		</layer>
		<layer id="196" name="430434_const" type="Const" version="opset1">
			<data element_type="f32" offset="9659780" shape="256,1,1,1" size="1024"/>
			<output>
				<port id="1" precision="FP32">
					<dim>256</dim>
					<dim>1</dim>
					<dim>1</dim>
					<dim>1</dim>
				</port>
			</output>
		</layer>
		<layer id="197" name="431435_const" type="Const" version="opset1">
			<data element_type="f32" offset="9658756" shape="256,1,1,1" size="1024"/>
			<output>
				<port id="1" precision="FP32">
					<dim>256</dim>
					<dim>1</dim>
					<dim>1</dim>
					<dim>1</dim>
				</port>
			</output>
		</layer>
		<layer id="198" name="432436_const" type="Const" version="opset1">
			<data element_type="f32" offset="9659780" shape="256,1,1,1" size="1024"/>
			<output>
				<port id="1" precision="FP32">
					<dim>256</dim>
					<dim>1</dim>
					<dim>1</dim>
					<dim>1</dim>
				</port>
			</output>
		</layer>
		<layer id="199" name="Convolution11/fq_weights_1" type="FakeQuantize" version="opset1">
			<data levels="255"/>
			<input>
				<port id="0">
					<dim>256</dim>
					<dim>256</dim>
					<dim>3</dim>
					<dim>3</dim>
				</port>
				<port id="1">
					<dim>256</dim>
					<dim>1</dim>
					<dim>1</dim>
					<dim>1</dim>
				</port>
				<port id="2">
					<dim>256</dim>
					<dim>1</dim>
					<dim>1</dim>
					<dim>1</dim>
				</port>
				<port id="3">
					<dim>256</dim>
					<dim>1</dim>
					<dim>1</dim>
					<dim>1</dim>
				</port>
				<port id="4">
					<dim>256</dim>
					<dim>1</dim>
					<dim>1</dim>
					<dim>1</dim>
				</port>
			</input>
			<output>
				<port id="5" precision="FP32">
					<dim>256</dim>
					<dim>256</dim>
					<dim>3</dim>
					<dim>3</dim>
				</port>
			</output>
		</layer>
		<layer id="200" name="Convolution11" type="Convolution" version="opset1">
			<data dilations="1,1" output_padding="0,0" pads_begin="1,1" pads_end="1,1" strides="1,1"/>
			<input>
				<port id="0">
					<dim>1</dim>
					<dim>256</dim>
					<dim>2</dim>
					<dim>2</dim>
				</port>
				<port id="1">
					<dim>256</dim>
					<dim>256</dim>
					<dim>3</dim>
					<dim>3</dim>
				</port>
			</input>
			<output>
				<port id="2" precision="FP32">
					<dim>1</dim>
					<dim>256</dim>
					<dim>2</dim>
					<dim>2</dim>
				</port>
			</output>
		</layer>
		<layer id="201" name="369373_const" type="Const" version="opset1">
			<data element_type="f32" offset="9660804" shape="" size="4"/>
			<output>
				<port id="1" precision="FP32"/>
			</output>
		</layer>
		<layer id="202" name="370374_const" type="Const" version="opset1">
			<data element_type="f32" offset="9660808" shape="" size="4"/>
			<output>
				<port id="1" precision="FP32"/>
			</output>
		</layer>
		<layer id="203" name="371375_const" type="Const" version="opset1">
			<data element_type="f32" offset="9660804" shape="" size="4"/>
			<output>
				<port id="1" precision="FP32"/>
			</output>
		</layer>
		<layer id="204" name="372376_const" type="Const" version="opset1">
			<data element_type="f32" offset="9660808" shape="" size="4"/>
			<output>
				<port id="1" precision="FP32"/>
			</output>
		</layer>
		<layer id="205" name="Eltwise4/fq_input_0" type="FakeQuantize" version="opset1">
			<data levels="256"/>
			<input>
				<port id="0">
					<dim>1</dim>
					<dim>256</dim>
					<dim>2</dim>
					<dim>2</dim>
				</port>
				<port id="1"/>
				<port id="2"/>
				<port id="3"/>
				<port id="4"/>
			</input>
			<output>
				<port id="5" precision="FP32">
					<dim>1</dim>
					<dim>256</dim>
					<dim>2</dim>
					<dim>2</dim>
				</port>
			</output>
		</layer>
		<layer id="206" name="125/Output_0/Data__const137_const" type="Const" version="opset1">
			<data element_type="f32" offset="9660812" shape="256,256,1,1" size="262144"/>
			<output>
				<port id="1" precision="FP32">
					<dim>256</dim>
					<dim>256</dim>
					<dim>1</dim>
					<dim>1</dim>
				</port>
			</output>
		</layer>
		<layer id="207" name="529533_const" type="Const" version="opset1">
			<data element_type="f32" offset="9922956" shape="256,1,1,1" size="1024"/>
			<output>
				<port id="1" precision="FP32">
					<dim>256</dim>
					<dim>1</dim>
					<dim>1</dim>
					<dim>1</dim>
				</port>
			</output>
		</layer>
		<layer id="208" name="530534_const" type="Const" version="opset1">
			<data element_type="f32" offset="9923980" shape="256,1,1,1" size="1024"/>
			<output>
				<port id="1" precision="FP32">
					<dim>256</dim>
					<dim>1</dim>
					<dim>1</dim>
					<dim>1</dim>
				</port>
			</output>
		</layer>
		<layer id="209" name="531535_const" type="Const" version="opset1">
			<data element_type="f32" offset="9922956" shape="256,1,1,1" size="1024"/>
			<output>
				<port id="1" precision="FP32">
					<dim>256</dim>
					<dim>1</dim>
					<dim>1</dim>
					<dim>1</dim>
				</port>
			</output>
		</layer>
		<layer id="210" name="532536_const" type="Const" version="opset1">
			<data element_type="f32" offset="9923980" shape="256,1,1,1" size="1024"/>
			<output>
				<port id="1" precision="FP32">
					<dim>256</dim>
					<dim>1</dim>
					<dim>1</dim>
					<dim>1</dim>
				</port>
			</output>
		</layer>
		<layer id="211" name="Convolution12/fq_weights_1" type="FakeQuantize" version="opset1">
			<data levels="255"/>
			<input>
				<port id="0">
					<dim>256</dim>
					<dim>256</dim>
					<dim>1</dim>
					<dim>1</dim>
				</port>
				<port id="1">
					<dim>256</dim>
					<dim>1</dim>
					<dim>1</dim>
					<dim>1</dim>
				</port>
				<port id="2">
					<dim>256</dim>
					<dim>1</dim>
					<dim>1</dim>
					<dim>1</dim>
				</port>
				<port id="3">
					<dim>256</dim>
					<dim>1</dim>
					<dim>1</dim>
					<dim>1</dim>
				</port>
				<port id="4">
					<dim>256</dim>
					<dim>1</dim>
					<dim>1</dim>
					<dim>1</dim>
				</port>
			</input>
			<output>
				<port id="5" precision="FP32">
					<dim>256</dim>
					<dim>256</dim>
					<dim>1</dim>
					<dim>1</dim>
				</port>
			</output>
		</layer>
		<layer id="212" name="Convolution12" type="Convolution" version="opset1">
			<data dilations="1,1" output_padding="0,0" pads_begin="0,0" pads_end="0,0" strides="2,2"/>
			<input>
				<port id="0">
					<dim>1</dim>
					<dim>256</dim>
					<dim>4</dim>
					<dim>4</dim>
				</port>
				<port id="1">
					<dim>256</dim>
					<dim>256</dim>
					<dim>1</dim>
					<dim>1</dim>
				</port>
			</input>
			<output>
				<port id="2" precision="FP32">
					<dim>1</dim>
					<dim>256</dim>
					<dim>2</dim>
					<dim>2</dim>
				</port>
			</output>
		</layer>
		<layer id="213" name="379383_const" type="Const" version="opset1">
			<data element_type="f32" offset="9925004" shape="" size="4"/>
			<output>
				<port id="1" precision="FP32"/>
			</output>
		</layer>
		<layer id="214" name="380384_const" type="Const" version="opset1">
			<data element_type="f32" offset="9925008" shape="" size="4"/>
			<output>
				<port id="1" precision="FP32"/>
			</output>
		</layer>
		<layer id="215" name="381385_const" type="Const" version="opset1">
			<data element_type="f32" offset="9925004" shape="" size="4"/>
			<output>
				<port id="1" precision="FP32"/>
			</output>
		</layer>
		<layer id="216" name="382386_const" type="Const" version="opset1">
			<data element_type="f32" offset="9925008" shape="" size="4"/>
			<output>
				<port id="1" precision="FP32"/>
			</output>
		</layer>
		<layer id="217" name="Eltwise4/fq_input_1" type="FakeQuantize" version="opset1">
			<data levels="256"/>
			<input>
				<port id="0">
					<dim>1</dim>
					<dim>256</dim>
					<dim>2</dim>
					<dim>2</dim>
				</port>
				<port id="1"/>
				<port id="2"/>
				<port id="3"/>
				<port id="4"/>
			</input>
			<output>
				<port id="5" precision="FP32">
					<dim>1</dim>
					<dim>256</dim>
					<dim>2</dim>
					<dim>2</dim>
				</port>
			</output>
		</layer>
		<layer id="218" name="Eltwise4" type="Add" version="opset1">
			<input>
				<port id="0">
					<dim>1</dim>
					<dim>256</dim>
					<dim>2</dim>
					<dim>2</dim>
				</port>
				<port id="1">
					<dim>1</dim>
					<dim>256</dim>
					<dim>2</dim>
					<dim>2</dim>
				</port>
			</input>
			<output>
				<port id="2" precision="FP32">
					<dim>1</dim>
					<dim>256</dim>
					<dim>2</dim>
					<dim>2</dim>
				</port>
			</output>
		</layer>
		<layer id="219" name="319323_const" type="Const" version="opset1">
			<data element_type="f32" offset="9925012" shape="" size="4"/>
			<output>
				<port id="1" precision="FP32"/>
			</output>
		</layer>
		<layer id="220" name="320324_const" type="Const" version="opset1">
			<data element_type="f32" offset="9925016" shape="" size="4"/>
			<output>
				<port id="1" precision="FP32"/>
			</output>
		</layer>
		<layer id="221" name="321325_const" type="Const" version="opset1">
			<data element_type="f32" offset="9925012" shape="" size="4"/>
			<output>
				<port id="1" precision="FP32"/>
			</output>
		</layer>
		<layer id="222" name="322326_const" type="Const" version="opset1">
			<data element_type="f32" offset="9925016" shape="" size="4"/>
			<output>
				<port id="1" precision="FP32"/>
			</output>
		</layer>
		<layer id="223" name="Mul1_2105/Fused_Mul_/fq_input_0" type="FakeQuantize" version="opset1">
			<data levels="256"/>
			<input>
				<port id="0">
					<dim>1</dim>
					<dim>256</dim>
					<dim>2</dim>
					<dim>2</dim>
				</port>
				<port id="1"/>
				<port id="2"/>
				<port id="3"/>
				<port id="4"/>
			</input>
			<output>
				<port id="5" precision="FP32">
					<dim>1</dim>
					<dim>256</dim>
					<dim>2</dim>
					<dim>2</dim>
				</port>
			</output>
		</layer>
		<layer id="224" name="data_mul_23792383/copy_const140_const" type="Const" version="opset1">
			<data element_type="f32" offset="9925020" shape="1,256,1,1" size="1024"/>
			<output>
				<port id="1" precision="FP32">
					<dim>1</dim>
					<dim>256</dim>
					<dim>1</dim>
					<dim>1</dim>
				</port>
			</output>
		</layer>
		<layer id="225" name="Mul1_2105/Fused_Mul_" type="Multiply" version="opset1">
			<input>
				<port id="0">
					<dim>1</dim>
					<dim>256</dim>
					<dim>2</dim>
					<dim>2</dim>
				</port>
				<port id="1">
					<dim>1</dim>
					<dim>256</dim>
					<dim>1</dim>
					<dim>1</dim>
				</port>
			</input>
			<output>
				<port id="2" precision="FP32">
					<dim>1</dim>
					<dim>256</dim>
					<dim>2</dim>
					<dim>2</dim>
				</port>
			</output>
		</layer>
		<layer id="226" name="data_add_23802385/copy_const142_const" type="Const" version="opset1">
			<data element_type="f32" offset="9926044" shape="1,256,1,1" size="1024"/>
			<output>
				<port id="1" precision="FP32">
					<dim>1</dim>
					<dim>256</dim>
					<dim>1</dim>
					<dim>1</dim>
				</port>
			</output>
		</layer>
		<layer id="227" name="Add1_2106/Fused_Add_" type="Add" version="opset1">
			<input>
				<port id="0">
					<dim>1</dim>
					<dim>256</dim>
					<dim>2</dim>
					<dim>2</dim>
				</port>
				<port id="1">
					<dim>1</dim>
					<dim>256</dim>
					<dim>1</dim>
					<dim>1</dim>
				</port>
			</input>
			<output>
				<port id="2" precision="FP32">
					<dim>1</dim>
					<dim>256</dim>
					<dim>2</dim>
					<dim>2</dim>
				</port>
			</output>
		</layer>
		<layer id="228" name="ReLU9" type="ReLU" version="opset1">
			<input>
				<port id="0">
					<dim>1</dim>
					<dim>256</dim>
					<dim>2</dim>
					<dim>2</dim>
				</port>
			</input>
			<output>
				<port id="1" precision="FP32">
					<dim>1</dim>
					<dim>256</dim>
					<dim>2</dim>
					<dim>2</dim>
				</port>
			</output>
		</layer>
		<layer id="229" name="389393_const" type="Const" version="opset1">
			<data element_type="f32" offset="38944" shape="" size="4"/>
			<output>
				<port id="1" precision="FP32"/>
			</output>
		</layer>
		<layer id="230" name="390394_const" type="Const" version="opset1">
			<data element_type="f32" offset="9927068" shape="" size="4"/>
			<output>
				<port id="1" precision="FP32"/>
			</output>
		</layer>
		<layer id="231" name="391395_const" type="Const" version="opset1">
			<data element_type="f32" offset="38944" shape="" size="4"/>
			<output>
				<port id="1" precision="FP32"/>
			</output>
		</layer>
		<layer id="232" name="392396_const" type="Const" version="opset1">
			<data element_type="f32" offset="9927068" shape="" size="4"/>
			<output>
				<port id="1" precision="FP32"/>
			</output>
		</layer>
		<layer id="233" name="emotion5_conv1/WithoutBiases/fq_input_0" type="FakeQuantize" version="opset1">
			<data levels="256"/>
			<input>
				<port id="0">
					<dim>1</dim>
					<dim>256</dim>
					<dim>2</dim>
					<dim>2</dim>
				</port>
				<port id="1"/>
				<port id="2"/>
				<port id="3"/>
				<port id="4"/>
			</input>
			<output>
				<port id="5" precision="FP32">
					<dim>1</dim>
					<dim>256</dim>
					<dim>2</dim>
					<dim>2</dim>
				</port>
			</output>
		</layer>
		<layer id="234" name="73/Output_0/Data__const145_const" type="Const" version="opset1">
			<data element_type="f32" offset="9927072" shape="5,256,2,2" size="20480"/>
			<output>
				<port id="1" precision="FP32">
					<dim>5</dim>
					<dim>256</dim>
					<dim>2</dim>
					<dim>2</dim>
				</port>
			</output>
		</layer>
		<layer id="235" name="399403_const" type="Const" version="opset1">
			<data element_type="f32" offset="9947552" shape="5,1,1,1" size="20"/>
			<output>
				<port id="1" precision="FP32">
					<dim>5</dim>
					<dim>1</dim>
					<dim>1</dim>
					<dim>1</dim>
				</port>
			</output>
		</layer>
		<layer id="236" name="400404_const" type="Const" version="opset1">
			<data element_type="f32" offset="9947572" shape="5,1,1,1" size="20"/>
			<output>
				<port id="1" precision="FP32">
					<dim>5</dim>
					<dim>1</dim>
					<dim>1</dim>
					<dim>1</dim>
				</port>
			</output>
		</layer>
		<layer id="237" name="401405_const" type="Const" version="opset1">
			<data element_type="f32" offset="9947552" shape="5,1,1,1" size="20"/>
			<output>
				<port id="1" precision="FP32">
					<dim>5</dim>
					<dim>1</dim>
					<dim>1</dim>
					<dim>1</dim>
				</port>
			</output>
		</layer>
		<layer id="238" name="402406_const" type="Const" version="opset1">
			<data element_type="f32" offset="9947572" shape="5,1,1,1" size="20"/>
			<output>
				<port id="1" precision="FP32">
					<dim>5</dim>
					<dim>1</dim>
					<dim>1</dim>
					<dim>1</dim>
				</port>
			</output>
		</layer>
		<layer id="239" name="emotion5_conv1/WithoutBiases/fq_weights_1" type="FakeQuantize" version="opset1">
			<data levels="255"/>
			<input>
				<port id="0">
					<dim>5</dim>
					<dim>256</dim>
					<dim>2</dim>
					<dim>2</dim>
				</port>
				<port id="1">
					<dim>5</dim>
					<dim>1</dim>
					<dim>1</dim>
					<dim>1</dim>
				</port>
				<port id="2">
					<dim>5</dim>
					<dim>1</dim>
					<dim>1</dim>
					<dim>1</dim>
				</port>
				<port id="3">
					<dim>5</dim>
					<dim>1</dim>
					<dim>1</dim>
					<dim>1</dim>
				</port>
				<port id="4">
					<dim>5</dim>
					<dim>1</dim>
					<dim>1</dim>
					<dim>1</dim>
				</port>
			</input>
			<output>
				<port id="5" precision="FP32">
					<dim>5</dim>
					<dim>256</dim>
					<dim>2</dim>
					<dim>2</dim>
				</port>
			</output>
		</layer>
		<layer id="240" name="emotion5_conv1/WithoutBiases" type="Convolution" version="opset1">
			<data dilations="1,1" output_padding="0,0" pads_begin="0,0" pads_end="0,0" strides="1,1"/>
			<input>
				<port id="0">
					<dim>1</dim>
					<dim>256</dim>
					<dim>2</dim>
					<dim>2</dim>
				</port>
				<port id="1">
					<dim>5</dim>
					<dim>256</dim>
					<dim>2</dim>
					<dim>2</dim>
				</port>
			</input>
			<output>
				<port id="2" precision="FP32">
					<dim>1</dim>
					<dim>5</dim>
					<dim>1</dim>
					<dim>1</dim>
				</port>
			</output>
		</layer>
		<layer id="241" name="emotion5_conv1/Dims1390/copy_const147_const" type="Const" version="opset1">
			<data element_type="f32" offset="9947592" shape="1,5,1,1" size="20"/>
			<output>
				<port id="1" precision="FP32">
					<dim>1</dim>
					<dim>5</dim>
					<dim>1</dim>
					<dim>1</dim>
				</port>
			</output>
		</layer>
		<layer id="242" name="emotion5_conv1" type="Add" version="opset1">
			<input>
				<port id="0">
					<dim>1</dim>
					<dim>5</dim>
					<dim>1</dim>
					<dim>1</dim>
				</port>
				<port id="1">
					<dim>1</dim>
					<dim>5</dim>
					<dim>1</dim>
					<dim>1</dim>
				</port>
			</input>
			<output>
				<port id="2" precision="FP32">
					<dim>1</dim>
					<dim>5</dim>
					<dim>1</dim>
					<dim>1</dim>
				</port>
			</output>
		</layer>
		<layer id="243" name="prob_emotion" type="SoftMax" version="opset1">
			<data axis="1"/>
			<input>
				<port id="0">
					<dim>1</dim>
					<dim>5</dim>
					<dim>1</dim>
					<dim>1</dim>
				</port>
			</input>
			<output>
				<port id="1" precision="FP32">
					<dim>1</dim>
					<dim>5</dim>
					<dim>1</dim>
					<dim>1</dim>
				</port>
			</output>
		</layer>
		<layer id="244" name="prob_emotion/sink_port_0" type="Result" version="opset1">
			<input>
				<port id="0">
					<dim>1</dim>
					<dim>5</dim>
					<dim>1</dim>
					<dim>1</dim>
				</port>
			</input>
		</layer>
	</layers>
	<edges>
		<edge from-layer="0" from-port="0" to-layer="2" to-port="0"/>
		<edge from-layer="1" from-port="1" to-layer="2" to-port="1"/>
		<edge from-layer="2" from-port="2" to-layer="4" to-port="0"/>
		<edge from-layer="3" from-port="1" to-layer="4" to-port="1"/>
		<edge from-layer="4" from-port="2" to-layer="9" to-port="0"/>
		<edge from-layer="5" from-port="1" to-layer="9" to-port="1"/>
		<edge from-layer="6" from-port="1" to-layer="9" to-port="2"/>
		<edge from-layer="7" from-port="1" to-layer="9" to-port="3"/>
		<edge from-layer="8" from-port="1" to-layer="9" to-port="4"/>
		<edge from-layer="10" from-port="1" to-layer="15" to-port="0"/>
		<edge from-layer="11" from-port="1" to-layer="15" to-port="1"/>
		<edge from-layer="12" from-port="1" to-layer="15" to-port="2"/>
		<edge from-layer="13" from-port="1" to-layer="15" to-port="3"/>
		<edge from-layer="14" from-port="1" to-layer="15" to-port="4"/>
		<edge from-layer="9" from-port="5" to-layer="16" to-port="0"/>
		<edge from-layer="15" from-port="5" to-layer="16" to-port="1"/>
		<edge from-layer="16" from-port="2" to-layer="18" to-port="0"/>
		<edge from-layer="17" from-port="1" to-layer="18" to-port="1"/>
		<edge from-layer="18" from-port="2" to-layer="19" to-port="0"/>
		<edge from-layer="19" from-port="1" to-layer="24" to-port="0"/>
		<edge from-layer="20" from-port="1" to-layer="24" to-port="1"/>
		<edge from-layer="21" from-port="1" to-layer="24" to-port="2"/>
		<edge from-layer="22" from-port="1" to-layer="24" to-port="3"/>
		<edge from-layer="23" from-port="1" to-layer="24" to-port="4"/>
		<edge from-layer="24" from-port="5" to-layer="25" to-port="0"/>
		<edge from-layer="26" from-port="1" to-layer="31" to-port="0"/>
		<edge from-layer="27" from-port="1" to-layer="31" to-port="1"/>
		<edge from-layer="28" from-port="1" to-layer="31" to-port="2"/>
		<edge from-layer="29" from-port="1" to-layer="31" to-port="3"/>
		<edge from-layer="30" from-port="1" to-layer="31" to-port="4"/>
		<edge from-layer="25" from-port="1" to-layer="32" to-port="0"/>
		<edge from-layer="31" from-port="5" to-layer="32" to-port="1"/>
		<edge from-layer="32" from-port="2" to-layer="34" to-port="0"/>
		<edge from-layer="33" from-port="1" to-layer="34" to-port="1"/>
		<edge from-layer="34" from-port="2" to-layer="35" to-port="0"/>
		<edge from-layer="35" from-port="1" to-layer="40" to-port="0"/>
		<edge from-layer="36" from-port="1" to-layer="40" to-port="1"/>
		<edge from-layer="37" from-port="1" to-layer="40" to-port="2"/>
		<edge from-layer="38" from-port="1" to-layer="40" to-port="3"/>
		<edge from-layer="39" from-port="1" to-layer="40" to-port="4"/>
		<edge from-layer="41" from-port="1" to-layer="46" to-port="0"/>
		<edge from-layer="42" from-port="1" to-layer="46" to-port="1"/>
		<edge from-layer="43" from-port="1" to-layer="46" to-port="2"/>
		<edge from-layer="44" from-port="1" to-layer="46" to-port="3"/>
		<edge from-layer="45" from-port="1" to-layer="46" to-port="4"/>
		<edge from-layer="40" from-port="5" to-layer="47" to-port="0"/>
		<edge from-layer="46" from-port="5" to-layer="47" to-port="1"/>
		<edge from-layer="47" from-port="2" to-layer="52" to-port="0"/>
		<edge from-layer="48" from-port="1" to-layer="52" to-port="1"/>
		<edge from-layer="49" from-port="1" to-layer="52" to-port="2"/>
		<edge from-layer="50" from-port="1" to-layer="52" to-port="3"/>
		<edge from-layer="51" from-port="1" to-layer="52" to-port="4"/>
		<edge from-layer="52" from-port="5" to-layer="53" to-port="0"/>
		<edge from-layer="25" from-port="1" to-layer="53" to-port="1"/>
		<edge from-layer="53" from-port="2" to-layer="58" to-port="0"/>
		<edge from-layer="54" from-port="1" to-layer="58" to-port="1"/>
		<edge from-layer="55" from-port="1" to-layer="58" to-port="2"/>
		<edge from-layer="56" from-port="1" to-layer="58" to-port="3"/>
		<edge from-layer="57" from-port="1" to-layer="58" to-port="4"/>
		<edge from-layer="58" from-port="5" to-layer="60" to-port="0"/>
		<edge from-layer="59" from-port="1" to-layer="60" to-port="1"/>
		<edge from-layer="60" from-port="2" to-layer="62" to-port="0"/>
		<edge from-layer="61" from-port="1" to-layer="62" to-port="1"/>
		<edge from-layer="62" from-port="2" to-layer="63" to-port="0"/>
		<edge from-layer="63" from-port="1" to-layer="68" to-port="0"/>
		<edge from-layer="64" from-port="1" to-layer="68" to-port="1"/>
		<edge from-layer="65" from-port="1" to-layer="68" to-port="2"/>
		<edge from-layer="66" from-port="1" to-layer="68" to-port="3"/>
		<edge from-layer="67" from-port="1" to-layer="68" to-port="4"/>
		<edge from-layer="69" from-port="1" to-layer="74" to-port="0"/>
		<edge from-layer="70" from-port="1" to-layer="74" to-port="1"/>
		<edge from-layer="71" from-port="1" to-layer="74" to-port="2"/>
		<edge from-layer="72" from-port="1" to-layer="74" to-port="3"/>
		<edge from-layer="73" from-port="1" to-layer="74" to-port="4"/>
		<edge from-layer="68" from-port="5" to-layer="75" to-port="0"/>
		<edge from-layer="74" from-port="5" to-layer="75" to-port="1"/>
		<edge from-layer="75" from-port="2" to-layer="77" to-port="0"/>
		<edge from-layer="76" from-port="1" to-layer="77" to-port="1"/>
		<edge from-layer="77" from-port="2" to-layer="78" to-port="0"/>
		<edge from-layer="78" from-port="1" to-layer="83" to-port="0"/>
		<edge from-layer="79" from-port="1" to-layer="83" to-port="1"/>
		<edge from-layer="80" from-port="1" to-layer="83" to-port="2"/>
		<edge from-layer="81" from-port="1" to-layer="83" to-port="3"/>
		<edge from-layer="82" from-port="1" to-layer="83" to-port="4"/>
		<edge from-layer="84" from-port="1" to-layer="89" to-port="0"/>
		<edge from-layer="85" from-port="1" to-layer="89" to-port="1"/>
		<edge from-layer="86" from-port="1" to-layer="89" to-port="2"/>
		<edge from-layer="87" from-port="1" to-layer="89" to-port="3"/>
		<edge from-layer="88" from-port="1" to-layer="89" to-port="4"/>
		<edge from-layer="83" from-port="5" to-layer="90" to-port="0"/>
		<edge from-layer="89" from-port="5" to-layer="90" to-port="1"/>
		<edge from-layer="90" from-port="2" to-layer="95" to-port="0"/>
		<edge from-layer="91" from-port="1" to-layer="95" to-port="1"/>
		<edge from-layer="92" from-port="1" to-layer="95" to-port="2"/>
		<edge from-layer="93" from-port="1" to-layer="95" to-port="3"/>
		<edge from-layer="94" from-port="1" to-layer="95" to-port="4"/>
		<edge from-layer="96" from-port="1" to-layer="101" to-port="0"/>
		<edge from-layer="97" from-port="1" to-layer="101" to-port="1"/>
		<edge from-layer="98" from-port="1" to-layer="101" to-port="2"/>
		<edge from-layer="99" from-port="1" to-layer="101" to-port="3"/>
		<edge from-layer="100" from-port="1" to-layer="101" to-port="4"/>
		<edge from-layer="68" from-port="5" to-layer="102" to-port="0"/>
		<edge from-layer="101" from-port="5" to-layer="102" to-port="1"/>
		<edge from-layer="102" from-port="2" to-layer="107" to-port="0"/>
		<edge from-layer="103" from-port="1" to-layer="107" to-port="1"/>
		<edge from-layer="104" from-port="1" to-layer="107" to-port="2"/>
		<edge from-layer="105" from-port="1" to-layer="107" to-port="3"/>
		<edge from-layer="106" from-port="1" to-layer="107" to-port="4"/>
		<edge from-layer="95" from-port="5" to-layer="108" to-port="0"/>
		<edge from-layer="107" from-port="5" to-layer="108" to-port="1"/>
		<edge from-layer="108" from-port="2" to-layer="113" to-port="0"/>
		<edge from-layer="109" from-port="1" to-layer="113" to-port="1"/>
		<edge from-layer="110" from-port="1" to-layer="113" to-port="2"/>
		<edge from-layer="111" from-port="1" to-layer="113" to-port="3"/>
		<edge from-layer="112" from-port="1" to-layer="113" to-port="4"/>
		<edge from-layer="113" from-port="5" to-layer="115" to-port="0"/>
		<edge from-layer="114" from-port="1" to-layer="115" to-port="1"/>
		<edge from-layer="115" from-port="2" to-layer="117" to-port="0"/>
		<edge from-layer="116" from-port="1" to-layer="117" to-port="1"/>
		<edge from-layer="117" from-port="2" to-layer="118" to-port="0"/>
		<edge from-layer="118" from-port="1" to-layer="123" to-port="0"/>
		<edge from-layer="119" from-port="1" to-layer="123" to-port="1"/>
		<edge from-layer="120" from-port="1" to-layer="123" to-port="2"/>
		<edge from-layer="121" from-port="1" to-layer="123" to-port="3"/>
		<edge from-layer="122" from-port="1" to-layer="123" to-port="4"/>
		<edge from-layer="124" from-port="1" to-layer="129" to-port="0"/>
		<edge from-layer="125" from-port="1" to-layer="129" to-port="1"/>
		<edge from-layer="126" from-port="1" to-layer="129" to-port="2"/>
		<edge from-layer="127" from-port="1" to-layer="129" to-port="3"/>
		<edge from-layer="128" from-port="1" to-layer="129" to-port="4"/>
		<edge from-layer="123" from-port="5" to-layer="130" to-port="0"/>
		<edge from-layer="129" from-port="5" to-layer="130" to-port="1"/>
		<edge from-layer="130" from-port="2" to-layer="132" to-port="0"/>
		<edge from-layer="131" from-port="1" to-layer="132" to-port="1"/>
		<edge from-layer="132" from-port="2" to-layer="133" to-port="0"/>
		<edge from-layer="133" from-port="1" to-layer="138" to-port="0"/>
		<edge from-layer="134" from-port="1" to-layer="138" to-port="1"/>
		<edge from-layer="135" from-port="1" to-layer="138" to-port="2"/>
		<edge from-layer="136" from-port="1" to-layer="138" to-port="3"/>
		<edge from-layer="137" from-port="1" to-layer="138" to-port="4"/>
		<edge from-layer="139" from-port="1" to-layer="144" to-port="0"/>
		<edge from-layer="140" from-port="1" to-layer="144" to-port="1"/>
		<edge from-layer="141" from-port="1" to-layer="144" to-port="2"/>
		<edge from-layer="142" from-port="1" to-layer="144" to-port="3"/>
		<edge from-layer="143" from-port="1" to-layer="144" to-port="4"/>
		<edge from-layer="138" from-port="5" to-layer="145" to-port="0"/>
		<edge from-layer="144" from-port="5" to-layer="145" to-port="1"/>
		<edge from-layer="145" from-port="2" to-layer="150" to-port="0"/>
		<edge from-layer="146" from-port="1" to-layer="150" to-port="1"/>
		<edge from-layer="147" from-port="1" to-layer="150" to-port="2"/>
		<edge from-layer="148" from-port="1" to-layer="150" to-port="3"/>
		<edge from-layer="149" from-port="1" to-layer="150" to-port="4"/>
		<edge from-layer="151" from-port="1" to-layer="156" to-port="0"/>
		<edge from-layer="152" from-port="1" to-layer="156" to-port="1"/>
		<edge from-layer="153" from-port="1" to-layer="156" to-port="2"/>
		<edge from-layer="154" from-port="1" to-layer="156" to-port="3"/>
		<edge from-layer="155" from-port="1" to-layer="156" to-port="4"/>
		<edge from-layer="123" from-port="5" to-layer="157" to-port="0"/>
		<edge from-layer="156" from-port="5" to-layer="157" to-port="1"/>
		<edge from-layer="157" from-port="2" to-layer="162" to-port="0"/>
		<edge from-layer="158" from-port="1" to-layer="162" to-port="1"/>
		<edge from-layer="159" from-port="1" to-layer="162" to-port="2"/>
		<edge from-layer="160" from-port="1" to-layer="162" to-port="3"/>
		<edge from-layer="161" from-port="1" to-layer="162" to-port="4"/>
		<edge from-layer="150" from-port="5" to-layer="163" to-port="0"/>
		<edge from-layer="162" from-port="5" to-layer="163" to-port="1"/>
		<edge from-layer="163" from-port="2" to-layer="168" to-port="0"/>
		<edge from-layer="164" from-port="1" to-layer="168" to-port="1"/>
		<edge from-layer="165" from-port="1" to-layer="168" to-port="2"/>
		<edge from-layer="166" from-port="1" to-layer="168" to-port="3"/>
		<edge from-layer="167" from-port="1" to-layer="168" to-port="4"/>
		<edge from-layer="168" from-port="5" to-layer="170" to-port="0"/>
		<edge from-layer="169" from-port="1" to-layer="170" to-port="1"/>
		<edge from-layer="170" from-port="2" to-layer="172" to-port="0"/>
		<edge from-layer="171" from-port="1" to-layer="172" to-port="1"/>
		<edge from-layer="172" from-port="2" to-layer="173" to-port="0"/>
		<edge from-layer="173" from-port="1" to-layer="178" to-port="0"/>
		<edge from-layer="174" from-port="1" to-layer="178" to-port="1"/>
		<edge from-layer="175" from-port="1" to-layer="178" to-port="2"/>
		<edge from-layer="176" from-port="1" to-layer="178" to-port="3"/>
		<edge from-layer="177" from-port="1" to-layer="178" to-port="4"/>
		<edge from-layer="179" from-port="1" to-layer="184" to-port="0"/>
		<edge from-layer="180" from-port="1" to-layer="184" to-port="1"/>
		<edge from-layer="181" from-port="1" to-layer="184" to-port="2"/>
		<edge from-layer="182" from-port="1" to-layer="184" to-port="3"/>
		<edge from-layer="183" from-port="1" to-layer="184" to-port="4"/>
		<edge from-layer="178" from-port="5" to-layer="185" to-port="0"/>
		<edge from-layer="184" from-port="5" to-layer="185" to-port="1"/>
		<edge from-layer="185" from-port="2" to-layer="187" to-port="0"/>
		<edge from-layer="186" from-port="1" to-layer="187" to-port="1"/>
		<edge from-layer="187" from-port="2" to-layer="188" to-port="0"/>
		<edge from-layer="188" from-port="1" to-layer="193" to-port="0"/>
		<edge from-layer="189" from-port="1" to-layer="193" to-port="1"/>
		<edge from-layer="190" from-port="1" to-layer="193" to-port="2"/>
		<edge from-layer="191" from-port="1" to-layer="193" to-port="3"/>
		<edge from-layer="192" from-port="1" to-layer="193" to-port="4"/>
		<edge from-layer="194" from-port="1" to-layer="199" to-port="0"/>
		<edge from-layer="195" from-port="1" to-layer="199" to-port="1"/>
		<edge from-layer="196" from-port="1" to-layer="199" to-port="2"/>
		<edge from-layer="197" from-port="1" to-layer="199" to-port="3"/>
		<edge from-layer="198" from-port="1" to-layer="199" to-port="4"/>
		<edge from-layer="193" from-port="5" to-layer="200" to-port="0"/>
		<edge from-layer="199" from-port="5" to-layer="200" to-port="1"/>
		<edge from-layer="200" from-port="2" to-layer="205" to-port="0"/>
		<edge from-layer="201" from-port="1" to-layer="205" to-port="1"/>
		<edge from-layer="202" from-port="1" to-layer="205" to-port="2"/>
		<edge from-layer="203" from-port="1" to-layer="205" to-port="3"/>
		<edge from-layer="204" from-port="1" to-layer="205" to-port="4"/>
		<edge from-layer="206" from-port="1" to-layer="211" to-port="0"/>
		<edge from-layer="207" from-port="1" to-layer="211" to-port="1"/>
		<edge from-layer="208" from-port="1" to-layer="211" to-port="2"/>
		<edge from-layer="209" from-port="1" to-layer="211" to-port="3"/>
		<edge from-layer="210" from-port="1" to-layer="211" to-port="4"/>
		<edge from-layer="178" from-port="5" to-layer="212" to-port="0"/>
		<edge from-layer="211" from-port="5" to-layer="212" to-port="1"/>
		<edge from-layer="212" from-port="2" to-layer="217" to-port="0"/>
		<edge from-layer="213" from-port="1" to-layer="217" to-port="1"/>
		<edge from-layer="214" from-port="1" to-layer="217" to-port="2"/>
		<edge from-layer="215" from-port="1" to-layer="217" to-port="3"/>
		<edge from-layer="216" from-port="1" to-layer="217" to-port="4"/>
		<edge from-layer="205" from-port="5" to-layer="218" to-port="0"/>
		<edge from-layer="217" from-port="5" to-layer="218" to-port="1"/>
		<edge from-layer="218" from-port="2" to-layer="223" to-port="0"/>
		<edge from-layer="219" from-port="1" to-layer="223" to-port="1"/>
		<edge from-layer="220" from-port="1" to-layer="223" to-port="2"/>
		<edge from-layer="221" from-port="1" to-layer="223" to-port="3"/>
		<edge from-layer="222" from-port="1" to-layer="223" to-port="4"/>
		<edge from-layer="223" from-port="5" to-layer="225" to-port="0"/>
		<edge from-layer="224" from-port="1" to-layer="225" to-port="1"/>
		<edge from-layer="225" from-port="2" to-layer="227" to-port="0"/>
		<edge from-layer="226" from-port="1" to-layer="227" to-port="1"/>
		<edge from-layer="227" from-port="2" to-layer="228" to-port="0"/>
		<edge from-layer="228" from-port="1" to-layer="233" to-port="0"/>
		<edge from-layer="229" from-port="1" to-layer="233" to-port="1"/>
		<edge from-layer="230" from-port="1" to-layer="233" to-port="2"/>
		<edge from-layer="231" from-port="1" to-layer="233" to-port="3"/>
		<edge from-layer="232" from-port="1" to-layer="233" to-port="4"/>
		<edge from-layer="234" from-port="1" to-layer="239" to-port="0"/>
		<edge from-layer="235" from-port="1" to-layer="239" to-port="1"/>
		<edge from-layer="236" from-port="1" to-layer="239" to-port="2"/>
		<edge from-layer="237" from-port="1" to-layer="239" to-port="3"/>
		<edge from-layer="238" from-port="1" to-layer="239" to-port="4"/>
		<edge from-layer="233" from-port="5" to-layer="240" to-port="0"/>
		<edge from-layer="239" from-port="5" to-layer="240" to-port="1"/>
		<edge from-layer="240" from-port="2" to-layer="242" to-port="0"/>
		<edge from-layer="241" from-port="1" to-layer="242" to-port="1"/>
		<edge from-layer="242" from-port="2" to-layer="243" to-port="0"/>
		<edge from-layer="243" from-port="1" to-layer="244" to-port="0"/>
	</edges>
	<meta_data>
		<MO_version value="unknown version"/>
		<cli_parameters>
			<blobs_as_inputs value="True"/>
			<caffe_parser_path value="DIR"/>
			<data_type value="FP32"/>
			<disable_nhwc_to_nchw value="False"/>
			<disable_omitting_optional value="False"/>
			<disable_resnet_optimization value="False"/>
			<enable_concat_optimization value="False"/>
			<enable_flattening_nested_params value="False"/>
			<enable_ssd_gluoncv value="False"/>
			<extensions value="DIR"/>
			<framework value="caffe"/>
			<freeze_placeholder_with_value value="{}"/>
			<generate_deprecated_IR_V2 value="False"/>
			<generate_deprecated_IR_V7 value="False"/>
			<generate_experimental_IR_V10 value="True"/>
			<input value="data"/>
			<input_model value="DIR/0003_EmoNet_ResNet10.caffemodel"/>
			<input_model_is_text value="False"/>
			<input_proto value="DIR/0003_EmoNet_ResNet10.prototxt"/>
			<input_shape value="[1,3,64,64]"/>
			<k value="DIR/CustomLayersMapping.xml"/>
			<keep_quantize_ops_in_IR value="True"/>
			<keep_shape_ops value="False"/>
			<legacy_mxnet_model value="False"/>
			<log_level value="ERROR"/>
			<mean_scale_values value="{'data': {'mean': None, 'scale': array([1.])}}"/>
			<mean_values value="()"/>
			<model_name value="emotions-recognition-retail-0003"/>
			<move_to_preprocess value="False"/>
			<output value="['prob_emotion']"/>
			<output_dir value="DIR"/>
			<placeholder_data_types value="{}"/>
			<placeholder_shapes value="{'data': array([ 1,  3, 64, 64])}"/>
			<progress value="False"/>
			<remove_memory value="False"/>
			<remove_output_softmax value="False"/>
			<reverse_input_channels value="False"/>
			<save_params_from_nd value="False"/>
			<scale_values value="data[1.0]"/>
			<silent value="False"/>
			<stream_output value="False"/>
			<unset unset_cli_parameters="batch, counts, disable_fusing, disable_gfusing, finegrain_fusing, input_checkpoint, input_meta_graph, input_symbol, mean_file, mean_file_offsets, nd_prefix_name, pretrained_model_name, saved_model_dir, saved_model_tags, scale, tensorboard_logdir, tensorflow_custom_layer_libraries, tensorflow_custom_operations_config_update, tensorflow_object_detection_api_pipeline_config, tensorflow_operation_patterns, tensorflow_subgraph_patterns, tensorflow_use_custom_operations_config, transformations_config"/>
		</cli_parameters>
	</meta_data>
</net>
