<?xml version="1.0" ?>
<net name="face-detection-retail-0005" version="10">
	<layers>
		<layer id="0" name="input.1" type="Parameter" version="opset1">
			<data element_type="f32" shape="1,3,300,300"/>
			<output>
				<port id="0" precision="FP32">
					<dim>1</dim>
					<dim>3</dim>
					<dim>300</dim>
					<dim>300</dim>
				</port>
			</output>
		</layer>
		<layer id="1" name="17191723_const" type="Const" version="opset1">
			<data element_type="f32" offset="0" shape="" size="4"/>
			<output>
				<port id="1" precision="FP32"/>
			</output>
		</layer>
		<layer id="2" name="17201724_const" type="Const" version="opset1">
			<data element_type="f32" offset="4" shape="" size="4"/>
			<output>
				<port id="1" precision="FP32"/>
			</output>
		</layer>
		<layer id="3" name="17211725_const" type="Const" version="opset1">
			<data element_type="f32" offset="0" shape="" size="4"/>
			<output>
				<port id="1" precision="FP32"/>
			</output>
		</layer>
		<layer id="4" name="17221726_const" type="Const" version="opset1">
			<data element_type="f32" offset="4" shape="" size="4"/>
			<output>
				<port id="1" precision="FP32"/>
			</output>
		</layer>
		<layer id="5" name="Mul_/fq_input_0" type="FakeQuantize" version="opset1">
			<data levels="256"/>
			<input>
				<port id="0">
					<dim>1</dim>
					<dim>3</dim>
					<dim>300</dim>
					<dim>300</dim>
				</port>
				<port id="1"/>
				<port id="2"/>
				<port id="3"/>
				<port id="4"/>
			</input>
			<output>
				<port id="5" precision="FP32">
					<dim>1</dim>
					<dim>3</dim>
					<dim>300</dim>
					<dim>300</dim>
				</port>
			</output>
		</layer>
		<layer id="6" name="data_mul_/copy_const345_const" type="Const" version="opset1">
			<data element_type="f32" offset="8" shape="1,1,1,1" size="4"/>
			<output>
				<port id="1" precision="FP32">
					<dim>1</dim>
					<dim>1</dim>
					<dim>1</dim>
					<dim>1</dim>
				</port>
			</output>
		</layer>
		<layer id="7" name="17291733_const" type="Const" version="opset1">
			<data element_type="f32" offset="12" shape="1,1,1,1" size="4"/>
			<output>
				<port id="1" precision="FP32">
					<dim>1</dim>
					<dim>1</dim>
					<dim>1</dim>
					<dim>1</dim>
				</port>
			</output>
		</layer>
		<layer id="8" name="17301734_const" type="Const" version="opset1">
			<data element_type="f32" offset="8" shape="1,1,1,1" size="4"/>
			<output>
				<port id="1" precision="FP32">
					<dim>1</dim>
					<dim>1</dim>
					<dim>1</dim>
					<dim>1</dim>
				</port>
			</output>
		</layer>
		<layer id="9" name="17311735_const" type="Const" version="opset1">
			<data element_type="f32" offset="12" shape="1,1,1,1" size="4"/>
			<output>
				<port id="1" precision="FP32">
					<dim>1</dim>
					<dim>1</dim>
					<dim>1</dim>
					<dim>1</dim>
				</port>
			</output>
		</layer>
		<layer id="10" name="17321736_const" type="Const" version="opset1">
			<data element_type="f32" offset="8" shape="1,1,1,1" size="4"/>
			<output>
				<port id="1" precision="FP32">
					<dim>1</dim>
					<dim>1</dim>
					<dim>1</dim>
					<dim>1</dim>
				</port>
			</output>
		</layer>
		<layer id="11" name="Mul_/fq_input_1" type="FakeQuantize" version="opset1">
			<data levels="255"/>
			<input>
				<port id="0">
					<dim>1</dim>
					<dim>1</dim>
					<dim>1</dim>
					<dim>1</dim>
				</port>
				<port id="1">
					<dim>1</dim>
					<dim>1</dim>
					<dim>1</dim>
					<dim>1</dim>
				</port>
				<port id="2">
					<dim>1</dim>
					<dim>1</dim>
					<dim>1</dim>
					<dim>1</dim>
				</port>
				<port id="3">
					<dim>1</dim>
					<dim>1</dim>
					<dim>1</dim>
					<dim>1</dim>
				</port>
				<port id="4">
					<dim>1</dim>
					<dim>1</dim>
					<dim>1</dim>
					<dim>1</dim>
				</port>
			</input>
			<output>
				<port id="5" precision="FP32">
					<dim>1</dim>
					<dim>1</dim>
					<dim>1</dim>
					<dim>1</dim>
				</port>
			</output>
		</layer>
		<layer id="12" name="Mul_" type="Multiply" version="opset1">
			<input>
				<port id="0">
					<dim>1</dim>
					<dim>3</dim>
					<dim>300</dim>
					<dim>300</dim>
				</port>
				<port id="1">
					<dim>1</dim>
					<dim>1</dim>
					<dim>1</dim>
					<dim>1</dim>
				</port>
			</input>
			<output>
				<port id="2" precision="FP32">
					<dim>1</dim>
					<dim>3</dim>
					<dim>300</dim>
					<dim>300</dim>
				</port>
			</output>
		</layer>
		<layer id="13" name="17991803_const" type="Const" version="opset1">
			<data element_type="f32" offset="0" shape="" size="4"/>
			<output>
				<port id="1" precision="FP32"/>
			</output>
		</layer>
		<layer id="14" name="18001804_const" type="Const" version="opset1">
			<data element_type="f32" offset="16" shape="" size="4"/>
			<output>
				<port id="1" precision="FP32"/>
			</output>
		</layer>
		<layer id="15" name="18011805_const" type="Const" version="opset1">
			<data element_type="f32" offset="0" shape="" size="4"/>
			<output>
				<port id="1" precision="FP32"/>
			</output>
		</layer>
		<layer id="16" name="18021806_const" type="Const" version="opset1">
			<data element_type="f32" offset="16" shape="" size="4"/>
			<output>
				<port id="1" precision="FP32"/>
			</output>
		</layer>
		<layer id="17" name="Mul1_/Fused_Mul_/fq_input_0" type="FakeQuantize" version="opset1">
			<data levels="256"/>
			<input>
				<port id="0">
					<dim>1</dim>
					<dim>3</dim>
					<dim>300</dim>
					<dim>300</dim>
				</port>
				<port id="1"/>
				<port id="2"/>
				<port id="3"/>
				<port id="4"/>
			</input>
			<output>
				<port id="5" precision="FP32">
					<dim>1</dim>
					<dim>3</dim>
					<dim>300</dim>
					<dim>300</dim>
				</port>
			</output>
		</layer>
		<layer id="18" name="input.1/reverse_input_channels13842/Concat13861_const347_const" type="Const" version="opset1">
			<data element_type="f32" offset="20" shape="1,3,1,1" size="12"/>
			<output>
				<port id="1" precision="FP32">
					<dim>1</dim>
					<dim>3</dim>
					<dim>1</dim>
					<dim>1</dim>
				</port>
			</output>
		</layer>
		<layer id="19" name="Mul1_/Fused_Mul_" type="Multiply" version="opset1">
			<input>
				<port id="0">
					<dim>1</dim>
					<dim>3</dim>
					<dim>300</dim>
					<dim>300</dim>
				</port>
				<port id="1">
					<dim>1</dim>
					<dim>3</dim>
					<dim>1</dim>
					<dim>1</dim>
				</port>
			</input>
			<output>
				<port id="2" precision="FP32">
					<dim>1</dim>
					<dim>3</dim>
					<dim>300</dim>
					<dim>300</dim>
				</port>
			</output>
		</layer>
		<layer id="20" name="input.1/reverse_input_channels13844/Concat13869_const349_const" type="Const" version="opset1">
			<data element_type="f32" offset="32" shape="1,3,1,1" size="12"/>
			<output>
				<port id="1" precision="FP32">
					<dim>1</dim>
					<dim>3</dim>
					<dim>1</dim>
					<dim>1</dim>
				</port>
			</output>
		</layer>
		<layer id="21" name="Add1_/Fused_Add_" type="Add" version="opset1">
			<input>
				<port id="0">
					<dim>1</dim>
					<dim>3</dim>
					<dim>300</dim>
					<dim>300</dim>
				</port>
				<port id="1">
					<dim>1</dim>
					<dim>3</dim>
					<dim>1</dim>
					<dim>1</dim>
				</port>
			</input>
			<output>
				<port id="2" precision="FP32">
					<dim>1</dim>
					<dim>3</dim>
					<dim>300</dim>
					<dim>300</dim>
				</port>
			</output>
		</layer>
		<layer id="22" name="10591063_const" type="Const" version="opset1">
			<data element_type="f32" offset="44" shape="" size="4"/>
			<output>
				<port id="1" precision="FP32"/>
			</output>
		</layer>
		<layer id="23" name="10601064_const" type="Const" version="opset1">
			<data element_type="f32" offset="48" shape="" size="4"/>
			<output>
				<port id="1" precision="FP32"/>
			</output>
		</layer>
		<layer id="24" name="10611065_const" type="Const" version="opset1">
			<data element_type="f32" offset="44" shape="" size="4"/>
			<output>
				<port id="1" precision="FP32"/>
			</output>
		</layer>
		<layer id="25" name="10621066_const" type="Const" version="opset1">
			<data element_type="f32" offset="48" shape="" size="4"/>
			<output>
				<port id="1" precision="FP32"/>
			</output>
		</layer>
		<layer id="26" name="332/fq_input_0" type="FakeQuantize" version="opset1">
			<data levels="256"/>
			<input>
				<port id="0">
					<dim>1</dim>
					<dim>3</dim>
					<dim>300</dim>
					<dim>300</dim>
				</port>
				<port id="1"/>
				<port id="2"/>
				<port id="3"/>
				<port id="4"/>
			</input>
			<output>
				<port id="5" precision="FP32">
					<dim>1</dim>
					<dim>3</dim>
					<dim>300</dim>
					<dim>300</dim>
				</port>
			</output>
		</layer>
		<layer id="27" name="input.1/reverse_input_channels/Concat13853_const351_const" type="Const" version="opset1">
			<data element_type="f32" offset="52" shape="24,3,3,3" size="2592"/>
			<output>
				<port id="1" precision="FP32">
					<dim>24</dim>
					<dim>3</dim>
					<dim>3</dim>
					<dim>3</dim>
				</port>
			</output>
		</layer>
		<layer id="28" name="10691073_const" type="Const" version="opset1">
			<data element_type="f32" offset="2644" shape="24,1,1,1" size="96"/>
			<output>
				<port id="1" precision="FP32">
					<dim>24</dim>
					<dim>1</dim>
					<dim>1</dim>
					<dim>1</dim>
				</port>
			</output>
		</layer>
		<layer id="29" name="10701074_const" type="Const" version="opset1">
			<data element_type="f32" offset="2740" shape="24,1,1,1" size="96"/>
			<output>
				<port id="1" precision="FP32">
					<dim>24</dim>
					<dim>1</dim>
					<dim>1</dim>
					<dim>1</dim>
				</port>
			</output>
		</layer>
		<layer id="30" name="10711075_const" type="Const" version="opset1">
			<data element_type="f32" offset="2836" shape="24,1,1,1" size="96"/>
			<output>
				<port id="1" precision="FP32">
					<dim>24</dim>
					<dim>1</dim>
					<dim>1</dim>
					<dim>1</dim>
				</port>
			</output>
		</layer>
		<layer id="31" name="10721076_const" type="Const" version="opset1">
			<data element_type="f32" offset="2932" shape="24,1,1,1" size="96"/>
			<output>
				<port id="1" precision="FP32">
					<dim>24</dim>
					<dim>1</dim>
					<dim>1</dim>
					<dim>1</dim>
				</port>
			</output>
		</layer>
		<layer id="32" name="332/fq_weights_1" type="FakeQuantize" version="opset1">
			<data levels="255"/>
			<input>
				<port id="0">
					<dim>24</dim>
					<dim>3</dim>
					<dim>3</dim>
					<dim>3</dim>
				</port>
				<port id="1">
					<dim>24</dim>
					<dim>1</dim>
					<dim>1</dim>
					<dim>1</dim>
				</port>
				<port id="2">
					<dim>24</dim>
					<dim>1</dim>
					<dim>1</dim>
					<dim>1</dim>
				</port>
				<port id="3">
					<dim>24</dim>
					<dim>1</dim>
					<dim>1</dim>
					<dim>1</dim>
				</port>
				<port id="4">
					<dim>24</dim>
					<dim>1</dim>
					<dim>1</dim>
					<dim>1</dim>
				</port>
			</input>
			<output>
				<port id="5" precision="FP32">
					<dim>24</dim>
					<dim>3</dim>
					<dim>3</dim>
					<dim>3</dim>
				</port>
			</output>
		</layer>
		<layer id="33" name="332" type="Convolution" version="opset1">
			<data dilations="1,1" output_padding="0,0" pads_begin="1,1" pads_end="1,1" strides="2,2"/>
			<input>
				<port id="0">
					<dim>1</dim>
					<dim>3</dim>
					<dim>300</dim>
					<dim>300</dim>
				</port>
				<port id="1">
					<dim>24</dim>
					<dim>3</dim>
					<dim>3</dim>
					<dim>3</dim>
				</port>
			</input>
			<output>
				<port id="2" precision="FP32">
					<dim>1</dim>
					<dim>24</dim>
					<dim>150</dim>
					<dim>150</dim>
				</port>
			</output>
		</layer>
		<layer id="34" name="data_add_91069111/copy_const353_const" type="Const" version="opset1">
			<data element_type="f32" offset="3028" shape="1,24,1,1" size="96"/>
			<output>
				<port id="1" precision="FP32">
					<dim>1</dim>
					<dim>24</dim>
					<dim>1</dim>
					<dim>1</dim>
				</port>
			</output>
		</layer>
		<layer id="35" name="Add1_7898/Fused_Add_" type="Add" version="opset1">
			<input>
				<port id="0">
					<dim>1</dim>
					<dim>24</dim>
					<dim>150</dim>
					<dim>150</dim>
				</port>
				<port id="1">
					<dim>1</dim>
					<dim>24</dim>
					<dim>1</dim>
					<dim>1</dim>
				</port>
			</input>
			<output>
				<port id="2" precision="FP32">
					<dim>1</dim>
					<dim>24</dim>
					<dim>150</dim>
					<dim>150</dim>
				</port>
			</output>
		</layer>
		<layer id="36" name="334" type="ReLU" version="opset1">
			<input>
				<port id="0">
					<dim>1</dim>
					<dim>24</dim>
					<dim>150</dim>
					<dim>150</dim>
				</port>
			</input>
			<output>
				<port id="1" precision="FP32">
					<dim>1</dim>
					<dim>24</dim>
					<dim>150</dim>
					<dim>150</dim>
				</port>
			</output>
		</layer>
		<layer id="37" name="11991203_const" type="Const" version="opset1">
			<data element_type="f32" offset="3124" shape="1,24,1,1" size="96"/>
			<output>
				<port id="1" precision="FP32">
					<dim>1</dim>
					<dim>24</dim>
					<dim>1</dim>
					<dim>1</dim>
				</port>
			</output>
		</layer>
		<layer id="38" name="12001204_const" type="Const" version="opset1">
			<data element_type="f32" offset="3220" shape="1,24,1,1" size="96"/>
			<output>
				<port id="1" precision="FP32">
					<dim>1</dim>
					<dim>24</dim>
					<dim>1</dim>
					<dim>1</dim>
				</port>
			</output>
		</layer>
		<layer id="39" name="12011205_const" type="Const" version="opset1">
			<data element_type="f32" offset="3124" shape="1,24,1,1" size="96"/>
			<output>
				<port id="1" precision="FP32">
					<dim>1</dim>
					<dim>24</dim>
					<dim>1</dim>
					<dim>1</dim>
				</port>
			</output>
		</layer>
		<layer id="40" name="12021206_const" type="Const" version="opset1">
			<data element_type="f32" offset="3220" shape="1,24,1,1" size="96"/>
			<output>
				<port id="1" precision="FP32">
					<dim>1</dim>
					<dim>24</dim>
					<dim>1</dim>
					<dim>1</dim>
				</port>
			</output>
		</layer>
		<layer id="41" name="335/fq_input_0" type="FakeQuantize" version="opset1">
			<data levels="256"/>
			<input>
				<port id="0">
					<dim>1</dim>
					<dim>24</dim>
					<dim>150</dim>
					<dim>150</dim>
				</port>
				<port id="1">
					<dim>1</dim>
					<dim>24</dim>
					<dim>1</dim>
					<dim>1</dim>
				</port>
				<port id="2">
					<dim>1</dim>
					<dim>24</dim>
					<dim>1</dim>
					<dim>1</dim>
				</port>
				<port id="3">
					<dim>1</dim>
					<dim>24</dim>
					<dim>1</dim>
					<dim>1</dim>
				</port>
				<port id="4">
					<dim>1</dim>
					<dim>24</dim>
					<dim>1</dim>
					<dim>1</dim>
				</port>
			</input>
			<output>
				<port id="5" precision="FP32">
					<dim>1</dim>
					<dim>24</dim>
					<dim>150</dim>
					<dim>150</dim>
				</port>
			</output>
		</layer>
		<layer id="42" name="736648_const" type="Const" version="opset1">
			<data element_type="f32" offset="3316" shape="24,1,3,3" size="864"/>
			<output>
				<port id="1" precision="FP32">
					<dim>24</dim>
					<dim>1</dim>
					<dim>3</dim>
					<dim>3</dim>
				</port>
			</output>
		</layer>
		<layer id="43" name="12091213_const" type="Const" version="opset1">
			<data element_type="f32" offset="4180" shape="24,1,1,1" size="96"/>
			<output>
				<port id="1" precision="FP32">
					<dim>24</dim>
					<dim>1</dim>
					<dim>1</dim>
					<dim>1</dim>
				</port>
			</output>
		</layer>
		<layer id="44" name="12101214_const" type="Const" version="opset1">
			<data element_type="f32" offset="4276" shape="24,1,1,1" size="96"/>
			<output>
				<port id="1" precision="FP32">
					<dim>24</dim>
					<dim>1</dim>
					<dim>1</dim>
					<dim>1</dim>
				</port>
			</output>
		</layer>
		<layer id="45" name="12111215_const" type="Const" version="opset1">
			<data element_type="f32" offset="4180" shape="24,1,1,1" size="96"/>
			<output>
				<port id="1" precision="FP32">
					<dim>24</dim>
					<dim>1</dim>
					<dim>1</dim>
					<dim>1</dim>
				</port>
			</output>
		</layer>
		<layer id="46" name="12121216_const" type="Const" version="opset1">
			<data element_type="f32" offset="4276" shape="24,1,1,1" size="96"/>
			<output>
				<port id="1" precision="FP32">
					<dim>24</dim>
					<dim>1</dim>
					<dim>1</dim>
					<dim>1</dim>
				</port>
			</output>
		</layer>
		<layer id="47" name="335/fq_weights_1" type="FakeQuantize" version="opset1">
			<data levels="255"/>
			<input>
				<port id="0">
					<dim>24</dim>
					<dim>1</dim>
					<dim>3</dim>
					<dim>3</dim>
				</port>
				<port id="1">
					<dim>24</dim>
					<dim>1</dim>
					<dim>1</dim>
					<dim>1</dim>
				</port>
				<port id="2">
					<dim>24</dim>
					<dim>1</dim>
					<dim>1</dim>
					<dim>1</dim>
				</port>
				<port id="3">
					<dim>24</dim>
					<dim>1</dim>
					<dim>1</dim>
					<dim>1</dim>
				</port>
				<port id="4">
					<dim>24</dim>
					<dim>1</dim>
					<dim>1</dim>
					<dim>1</dim>
				</port>
			</input>
			<output>
				<port id="5" precision="FP32">
					<dim>24</dim>
					<dim>1</dim>
					<dim>3</dim>
					<dim>3</dim>
				</port>
			</output>
		</layer>
		<layer id="48" name="4242/value4244_const" type="Const" version="opset1">
			<data element_type="i64" offset="4372" shape="5" size="40"/>
			<output>
				<port id="1" precision="I64">
					<dim>5</dim>
				</port>
			</output>
		</layer>
		<layer id="49" name="4242" type="Reshape" version="opset1">
			<data special_zero="True"/>
			<input>
				<port id="0">
					<dim>24</dim>
					<dim>1</dim>
					<dim>3</dim>
					<dim>3</dim>
				</port>
				<port id="1">
					<dim>5</dim>
				</port>
			</input>
			<output>
				<port id="2" precision="FP32">
					<dim>24</dim>
					<dim>1</dim>
					<dim>1</dim>
					<dim>3</dim>
					<dim>3</dim>
				</port>
			</output>
		</layer>
		<layer id="50" name="335" type="GroupConvolution" version="opset1">
			<data dilations="1,1" output_padding="0,0" pads_begin="1,1" pads_end="1,1" strides="1,1"/>
			<input>
				<port id="0">
					<dim>1</dim>
					<dim>24</dim>
					<dim>150</dim>
					<dim>150</dim>
				</port>
				<port id="1">
					<dim>24</dim>
					<dim>1</dim>
					<dim>1</dim>
					<dim>3</dim>
					<dim>3</dim>
				</port>
			</input>
			<output>
				<port id="2" precision="FP32">
					<dim>1</dim>
					<dim>24</dim>
					<dim>150</dim>
					<dim>150</dim>
				</port>
			</output>
		</layer>
		<layer id="51" name="data_add_91149119/copy_const358_const" type="Const" version="opset1">
			<data element_type="f32" offset="4412" shape="1,24,1,1" size="96"/>
			<output>
				<port id="1" precision="FP32">
					<dim>1</dim>
					<dim>24</dim>
					<dim>1</dim>
					<dim>1</dim>
				</port>
			</output>
		</layer>
		<layer id="52" name="Add1_7910/Fused_Add_" type="Add" version="opset1">
			<input>
				<port id="0">
					<dim>1</dim>
					<dim>24</dim>
					<dim>150</dim>
					<dim>150</dim>
				</port>
				<port id="1">
					<dim>1</dim>
					<dim>24</dim>
					<dim>1</dim>
					<dim>1</dim>
				</port>
			</input>
			<output>
				<port id="2" precision="FP32">
					<dim>1</dim>
					<dim>24</dim>
					<dim>150</dim>
					<dim>150</dim>
				</port>
			</output>
		</layer>
		<layer id="53" name="337" type="ReLU" version="opset1">
			<input>
				<port id="0">
					<dim>1</dim>
					<dim>24</dim>
					<dim>150</dim>
					<dim>150</dim>
				</port>
			</input>
			<output>
				<port id="1" precision="FP32">
					<dim>1</dim>
					<dim>24</dim>
					<dim>150</dim>
					<dim>150</dim>
				</port>
			</output>
		</layer>
		<layer id="54" name="18691873_const" type="Const" version="opset1">
			<data element_type="f32" offset="0" shape="" size="4"/>
			<output>
				<port id="1" precision="FP32"/>
			</output>
		</layer>
		<layer id="55" name="18701874_const" type="Const" version="opset1">
			<data element_type="f32" offset="4508" shape="" size="4"/>
			<output>
				<port id="1" precision="FP32"/>
			</output>
		</layer>
		<layer id="56" name="18711875_const" type="Const" version="opset1">
			<data element_type="f32" offset="0" shape="" size="4"/>
			<output>
				<port id="1" precision="FP32"/>
			</output>
		</layer>
		<layer id="57" name="18721876_const" type="Const" version="opset1">
			<data element_type="f32" offset="4508" shape="" size="4"/>
			<output>
				<port id="1" precision="FP32"/>
			</output>
		</layer>
		<layer id="58" name="338/fq_input_0" type="FakeQuantize" version="opset1">
			<data levels="256"/>
			<input>
				<port id="0">
					<dim>1</dim>
					<dim>24</dim>
					<dim>150</dim>
					<dim>150</dim>
				</port>
				<port id="1"/>
				<port id="2"/>
				<port id="3"/>
				<port id="4"/>
			</input>
			<output>
				<port id="5" precision="FP32">
					<dim>1</dim>
					<dim>24</dim>
					<dim>150</dim>
					<dim>150</dim>
				</port>
			</output>
		</layer>
		<layer id="59" name="Mul1_7921/Fused_Mul_99939995_const361_const" type="Const" version="opset1">
			<data element_type="f32" offset="4512" shape="12,24,1,1" size="1152"/>
			<output>
				<port id="1" precision="FP32">
					<dim>12</dim>
					<dim>24</dim>
					<dim>1</dim>
					<dim>1</dim>
				</port>
			</output>
		</layer>
		<layer id="60" name="18791883_const" type="Const" version="opset1">
			<data element_type="f32" offset="5664" shape="12,1,1,1" size="48"/>
			<output>
				<port id="1" precision="FP32">
					<dim>12</dim>
					<dim>1</dim>
					<dim>1</dim>
					<dim>1</dim>
				</port>
			</output>
		</layer>
		<layer id="61" name="18801884_const" type="Const" version="opset1">
			<data element_type="f32" offset="5712" shape="12,1,1,1" size="48"/>
			<output>
				<port id="1" precision="FP32">
					<dim>12</dim>
					<dim>1</dim>
					<dim>1</dim>
					<dim>1</dim>
				</port>
			</output>
		</layer>
		<layer id="62" name="18811885_const" type="Const" version="opset1">
			<data element_type="f32" offset="5664" shape="12,1,1,1" size="48"/>
			<output>
				<port id="1" precision="FP32">
					<dim>12</dim>
					<dim>1</dim>
					<dim>1</dim>
					<dim>1</dim>
				</port>
			</output>
		</layer>
		<layer id="63" name="18821886_const" type="Const" version="opset1">
			<data element_type="f32" offset="5712" shape="12,1,1,1" size="48"/>
			<output>
				<port id="1" precision="FP32">
					<dim>12</dim>
					<dim>1</dim>
					<dim>1</dim>
					<dim>1</dim>
				</port>
			</output>
		</layer>
		<layer id="64" name="338/fq_weights_1" type="FakeQuantize" version="opset1">
			<data levels="255"/>
			<input>
				<port id="0">
					<dim>12</dim>
					<dim>24</dim>
					<dim>1</dim>
					<dim>1</dim>
				</port>
				<port id="1">
					<dim>12</dim>
					<dim>1</dim>
					<dim>1</dim>
					<dim>1</dim>
				</port>
				<port id="2">
					<dim>12</dim>
					<dim>1</dim>
					<dim>1</dim>
					<dim>1</dim>
				</port>
				<port id="3">
					<dim>12</dim>
					<dim>1</dim>
					<dim>1</dim>
					<dim>1</dim>
				</port>
				<port id="4">
					<dim>12</dim>
					<dim>1</dim>
					<dim>1</dim>
					<dim>1</dim>
				</port>
			</input>
			<output>
				<port id="5" precision="FP32">
					<dim>12</dim>
					<dim>24</dim>
					<dim>1</dim>
					<dim>1</dim>
				</port>
			</output>
		</layer>
		<layer id="65" name="338" type="Convolution" version="opset1">
			<data dilations="1,1" output_padding="0,0" pads_begin="0,0" pads_end="0,0" strides="1,1"/>
			<input>
				<port id="0">
					<dim>1</dim>
					<dim>24</dim>
					<dim>150</dim>
					<dim>150</dim>
				</port>
				<port id="1">
					<dim>12</dim>
					<dim>24</dim>
					<dim>1</dim>
					<dim>1</dim>
				</port>
			</input>
			<output>
				<port id="2" precision="FP32">
					<dim>1</dim>
					<dim>12</dim>
					<dim>150</dim>
					<dim>150</dim>
				</port>
			</output>
		</layer>
		<layer id="66" name="data_add_91229127/copy_const363_const" type="Const" version="opset1">
			<data element_type="f32" offset="5760" shape="1,12,1,1" size="48"/>
			<output>
				<port id="1" precision="FP32">
					<dim>1</dim>
					<dim>12</dim>
					<dim>1</dim>
					<dim>1</dim>
				</port>
			</output>
		</layer>
		<layer id="67" name="Add1_7922/Fused_Add_" type="Add" version="opset1">
			<input>
				<port id="0">
					<dim>1</dim>
					<dim>12</dim>
					<dim>150</dim>
					<dim>150</dim>
				</port>
				<port id="1">
					<dim>1</dim>
					<dim>12</dim>
					<dim>1</dim>
					<dim>1</dim>
				</port>
			</input>
			<output>
				<port id="2" precision="FP32">
					<dim>1</dim>
					<dim>12</dim>
					<dim>150</dim>
					<dim>150</dim>
				</port>
			</output>
		</layer>
		<layer id="68" name="16191623_const" type="Const" version="opset1">
			<data element_type="f32" offset="5808" shape="" size="4"/>
			<output>
				<port id="1" precision="FP32"/>
			</output>
		</layer>
		<layer id="69" name="16201624_const" type="Const" version="opset1">
			<data element_type="f32" offset="5812" shape="" size="4"/>
			<output>
				<port id="1" precision="FP32"/>
			</output>
		</layer>
		<layer id="70" name="16211625_const" type="Const" version="opset1">
			<data element_type="f32" offset="5808" shape="" size="4"/>
			<output>
				<port id="1" precision="FP32"/>
			</output>
		</layer>
		<layer id="71" name="16221626_const" type="Const" version="opset1">
			<data element_type="f32" offset="5812" shape="" size="4"/>
			<output>
				<port id="1" precision="FP32"/>
			</output>
		</layer>
		<layer id="72" name="340/fq_input_0" type="FakeQuantize" version="opset1">
			<data levels="256"/>
			<input>
				<port id="0">
					<dim>1</dim>
					<dim>12</dim>
					<dim>150</dim>
					<dim>150</dim>
				</port>
				<port id="1"/>
				<port id="2"/>
				<port id="3"/>
				<port id="4"/>
			</input>
			<output>
				<port id="5" precision="FP32">
					<dim>1</dim>
					<dim>12</dim>
					<dim>150</dim>
					<dim>150</dim>
				</port>
			</output>
		</layer>
		<layer id="73" name="Mul1_7933/Fused_Mul_99979999_const365_const" type="Const" version="opset1">
			<data element_type="f32" offset="5816" shape="72,12,1,1" size="3456"/>
			<output>
				<port id="1" precision="FP32">
					<dim>72</dim>
					<dim>12</dim>
					<dim>1</dim>
					<dim>1</dim>
				</port>
			</output>
		</layer>
		<layer id="74" name="16291633_const" type="Const" version="opset1">
			<data element_type="f32" offset="9272" shape="72,1,1,1" size="288"/>
			<output>
				<port id="1" precision="FP32">
					<dim>72</dim>
					<dim>1</dim>
					<dim>1</dim>
					<dim>1</dim>
				</port>
			</output>
		</layer>
		<layer id="75" name="16301634_const" type="Const" version="opset1">
			<data element_type="f32" offset="9560" shape="72,1,1,1" size="288"/>
			<output>
				<port id="1" precision="FP32">
					<dim>72</dim>
					<dim>1</dim>
					<dim>1</dim>
					<dim>1</dim>
				</port>
			</output>
		</layer>
		<layer id="76" name="16311635_const" type="Const" version="opset1">
			<data element_type="f32" offset="9272" shape="72,1,1,1" size="288"/>
			<output>
				<port id="1" precision="FP32">
					<dim>72</dim>
					<dim>1</dim>
					<dim>1</dim>
					<dim>1</dim>
				</port>
			</output>
		</layer>
		<layer id="77" name="16321636_const" type="Const" version="opset1">
			<data element_type="f32" offset="9560" shape="72,1,1,1" size="288"/>
			<output>
				<port id="1" precision="FP32">
					<dim>72</dim>
					<dim>1</dim>
					<dim>1</dim>
					<dim>1</dim>
				</port>
			</output>
		</layer>
		<layer id="78" name="340/fq_weights_1" type="FakeQuantize" version="opset1">
			<data levels="255"/>
			<input>
				<port id="0">
					<dim>72</dim>
					<dim>12</dim>
					<dim>1</dim>
					<dim>1</dim>
				</port>
				<port id="1">
					<dim>72</dim>
					<dim>1</dim>
					<dim>1</dim>
					<dim>1</dim>
				</port>
				<port id="2">
					<dim>72</dim>
					<dim>1</dim>
					<dim>1</dim>
					<dim>1</dim>
				</port>
				<port id="3">
					<dim>72</dim>
					<dim>1</dim>
					<dim>1</dim>
					<dim>1</dim>
				</port>
				<port id="4">
					<dim>72</dim>
					<dim>1</dim>
					<dim>1</dim>
					<dim>1</dim>
				</port>
			</input>
			<output>
				<port id="5" precision="FP32">
					<dim>72</dim>
					<dim>12</dim>
					<dim>1</dim>
					<dim>1</dim>
				</port>
			</output>
		</layer>
		<layer id="79" name="340" type="Convolution" version="opset1">
			<data dilations="1,1" output_padding="0,0" pads_begin="0,0" pads_end="0,0" strides="1,1"/>
			<input>
				<port id="0">
					<dim>1</dim>
					<dim>12</dim>
					<dim>150</dim>
					<dim>150</dim>
				</port>
				<port id="1">
					<dim>72</dim>
					<dim>12</dim>
					<dim>1</dim>
					<dim>1</dim>
				</port>
			</input>
			<output>
				<port id="2" precision="FP32">
					<dim>1</dim>
					<dim>72</dim>
					<dim>150</dim>
					<dim>150</dim>
				</port>
			</output>
		</layer>
		<layer id="80" name="data_add_91309135/copy_const367_const" type="Const" version="opset1">
			<data element_type="f32" offset="9848" shape="1,72,1,1" size="288"/>
			<output>
				<port id="1" precision="FP32">
					<dim>1</dim>
					<dim>72</dim>
					<dim>1</dim>
					<dim>1</dim>
				</port>
			</output>
		</layer>
		<layer id="81" name="Add1_7934/Fused_Add_" type="Add" version="opset1">
			<input>
				<port id="0">
					<dim>1</dim>
					<dim>72</dim>
					<dim>150</dim>
					<dim>150</dim>
				</port>
				<port id="1">
					<dim>1</dim>
					<dim>72</dim>
					<dim>1</dim>
					<dim>1</dim>
				</port>
			</input>
			<output>
				<port id="2" precision="FP32">
					<dim>1</dim>
					<dim>72</dim>
					<dim>150</dim>
					<dim>150</dim>
				</port>
			</output>
		</layer>
		<layer id="82" name="342" type="ReLU" version="opset1">
			<input>
				<port id="0">
					<dim>1</dim>
					<dim>72</dim>
					<dim>150</dim>
					<dim>150</dim>
				</port>
			</input>
			<output>
				<port id="1" precision="FP32">
					<dim>1</dim>
					<dim>72</dim>
					<dim>150</dim>
					<dim>150</dim>
				</port>
			</output>
		</layer>
		<layer id="83" name="16991703_const" type="Const" version="opset1">
			<data element_type="f32" offset="10136" shape="1,72,1,1" size="288"/>
			<output>
				<port id="1" precision="FP32">
					<dim>1</dim>
					<dim>72</dim>
					<dim>1</dim>
					<dim>1</dim>
				</port>
			</output>
		</layer>
		<layer id="84" name="17001704_const" type="Const" version="opset1">
			<data element_type="f32" offset="10424" shape="1,72,1,1" size="288"/>
			<output>
				<port id="1" precision="FP32">
					<dim>1</dim>
					<dim>72</dim>
					<dim>1</dim>
					<dim>1</dim>
				</port>
			</output>
		</layer>
		<layer id="85" name="17011705_const" type="Const" version="opset1">
			<data element_type="f32" offset="10136" shape="1,72,1,1" size="288"/>
			<output>
				<port id="1" precision="FP32">
					<dim>1</dim>
					<dim>72</dim>
					<dim>1</dim>
					<dim>1</dim>
				</port>
			</output>
		</layer>
		<layer id="86" name="17021706_const" type="Const" version="opset1">
			<data element_type="f32" offset="10424" shape="1,72,1,1" size="288"/>
			<output>
				<port id="1" precision="FP32">
					<dim>1</dim>
					<dim>72</dim>
					<dim>1</dim>
					<dim>1</dim>
				</port>
			</output>
		</layer>
		<layer id="87" name="343/fq_input_0" type="FakeQuantize" version="opset1">
			<data levels="256"/>
			<input>
				<port id="0">
					<dim>1</dim>
					<dim>72</dim>
					<dim>150</dim>
					<dim>150</dim>
				</port>
				<port id="1">
					<dim>1</dim>
					<dim>72</dim>
					<dim>1</dim>
					<dim>1</dim>
				</port>
				<port id="2">
					<dim>1</dim>
					<dim>72</dim>
					<dim>1</dim>
					<dim>1</dim>
				</port>
				<port id="3">
					<dim>1</dim>
					<dim>72</dim>
					<dim>1</dim>
					<dim>1</dim>
				</port>
				<port id="4">
					<dim>1</dim>
					<dim>72</dim>
					<dim>1</dim>
					<dim>1</dim>
				</port>
			</input>
			<output>
				<port id="5" precision="FP32">
					<dim>1</dim>
					<dim>72</dim>
					<dim>150</dim>
					<dim>150</dim>
				</port>
			</output>
		</layer>
		<layer id="88" name="740650_const" type="Const" version="opset1">
			<data element_type="f32" offset="10712" shape="72,1,3,3" size="2592"/>
			<output>
				<port id="1" precision="FP32">
					<dim>72</dim>
					<dim>1</dim>
					<dim>3</dim>
					<dim>3</dim>
				</port>
			</output>
		</layer>
		<layer id="89" name="17091713_const" type="Const" version="opset1">
			<data element_type="f32" offset="13304" shape="72,1,1,1" size="288"/>
			<output>
				<port id="1" precision="FP32">
					<dim>72</dim>
					<dim>1</dim>
					<dim>1</dim>
					<dim>1</dim>
				</port>
			</output>
		</layer>
		<layer id="90" name="17101714_const" type="Const" version="opset1">
			<data element_type="f32" offset="13592" shape="72,1,1,1" size="288"/>
			<output>
				<port id="1" precision="FP32">
					<dim>72</dim>
					<dim>1</dim>
					<dim>1</dim>
					<dim>1</dim>
				</port>
			</output>
		</layer>
		<layer id="91" name="17111715_const" type="Const" version="opset1">
			<data element_type="f32" offset="13304" shape="72,1,1,1" size="288"/>
			<output>
				<port id="1" precision="FP32">
					<dim>72</dim>
					<dim>1</dim>
					<dim>1</dim>
					<dim>1</dim>
				</port>
			</output>
		</layer>
		<layer id="92" name="17121716_const" type="Const" version="opset1">
			<data element_type="f32" offset="13592" shape="72,1,1,1" size="288"/>
			<output>
				<port id="1" precision="FP32">
					<dim>72</dim>
					<dim>1</dim>
					<dim>1</dim>
					<dim>1</dim>
				</port>
			</output>
		</layer>
		<layer id="93" name="343/fq_weights_1" type="FakeQuantize" version="opset1">
			<data levels="255"/>
			<input>
				<port id="0">
					<dim>72</dim>
					<dim>1</dim>
					<dim>3</dim>
					<dim>3</dim>
				</port>
				<port id="1">
					<dim>72</dim>
					<dim>1</dim>
					<dim>1</dim>
					<dim>1</dim>
				</port>
				<port id="2">
					<dim>72</dim>
					<dim>1</dim>
					<dim>1</dim>
					<dim>1</dim>
				</port>
				<port id="3">
					<dim>72</dim>
					<dim>1</dim>
					<dim>1</dim>
					<dim>1</dim>
				</port>
				<port id="4">
					<dim>72</dim>
					<dim>1</dim>
					<dim>1</dim>
					<dim>1</dim>
				</port>
			</input>
			<output>
				<port id="5" precision="FP32">
					<dim>72</dim>
					<dim>1</dim>
					<dim>3</dim>
					<dim>3</dim>
				</port>
			</output>
		</layer>
		<layer id="94" name="4250/value4252_const" type="Const" version="opset1">
			<data element_type="i64" offset="13880" shape="5" size="40"/>
			<output>
				<port id="1" precision="I64">
					<dim>5</dim>
				</port>
			</output>
		</layer>
		<layer id="95" name="4250" type="Reshape" version="opset1">
			<data special_zero="True"/>
			<input>
				<port id="0">
					<dim>72</dim>
					<dim>1</dim>
					<dim>3</dim>
					<dim>3</dim>
				</port>
				<port id="1">
					<dim>5</dim>
				</port>
			</input>
			<output>
				<port id="2" precision="FP32">
					<dim>72</dim>
					<dim>1</dim>
					<dim>1</dim>
					<dim>3</dim>
					<dim>3</dim>
				</port>
			</output>
		</layer>
		<layer id="96" name="343" type="GroupConvolution" version="opset1">
			<data dilations="1,1" output_padding="0,0" pads_begin="1,1" pads_end="1,1" strides="2,2"/>
			<input>
				<port id="0">
					<dim>1</dim>
					<dim>72</dim>
					<dim>150</dim>
					<dim>150</dim>
				</port>
				<port id="1">
					<dim>72</dim>
					<dim>1</dim>
					<dim>1</dim>
					<dim>3</dim>
					<dim>3</dim>
				</port>
			</input>
			<output>
				<port id="2" precision="FP32">
					<dim>1</dim>
					<dim>72</dim>
					<dim>75</dim>
					<dim>75</dim>
				</port>
			</output>
		</layer>
		<layer id="97" name="data_add_91389143/copy_const372_const" type="Const" version="opset1">
			<data element_type="f32" offset="13920" shape="1,72,1,1" size="288"/>
			<output>
				<port id="1" precision="FP32">
					<dim>1</dim>
					<dim>72</dim>
					<dim>1</dim>
					<dim>1</dim>
				</port>
			</output>
		</layer>
		<layer id="98" name="Add1_7946/Fused_Add_" type="Add" version="opset1">
			<input>
				<port id="0">
					<dim>1</dim>
					<dim>72</dim>
					<dim>75</dim>
					<dim>75</dim>
				</port>
				<port id="1">
					<dim>1</dim>
					<dim>72</dim>
					<dim>1</dim>
					<dim>1</dim>
				</port>
			</input>
			<output>
				<port id="2" precision="FP32">
					<dim>1</dim>
					<dim>72</dim>
					<dim>75</dim>
					<dim>75</dim>
				</port>
			</output>
		</layer>
		<layer id="99" name="345" type="ReLU" version="opset1">
			<input>
				<port id="0">
					<dim>1</dim>
					<dim>72</dim>
					<dim>75</dim>
					<dim>75</dim>
				</port>
			</input>
			<output>
				<port id="1" precision="FP32">
					<dim>1</dim>
					<dim>72</dim>
					<dim>75</dim>
					<dim>75</dim>
				</port>
			</output>
		</layer>
		<layer id="100" name="18091813_const" type="Const" version="opset1">
			<data element_type="f32" offset="0" shape="" size="4"/>
			<output>
				<port id="1" precision="FP32"/>
			</output>
		</layer>
		<layer id="101" name="18101814_const" type="Const" version="opset1">
			<data element_type="f32" offset="14208" shape="" size="4"/>
			<output>
				<port id="1" precision="FP32"/>
			</output>
		</layer>
		<layer id="102" name="18111815_const" type="Const" version="opset1">
			<data element_type="f32" offset="0" shape="" size="4"/>
			<output>
				<port id="1" precision="FP32"/>
			</output>
		</layer>
		<layer id="103" name="18121816_const" type="Const" version="opset1">
			<data element_type="f32" offset="14208" shape="" size="4"/>
			<output>
				<port id="1" precision="FP32"/>
			</output>
		</layer>
		<layer id="104" name="346/fq_input_0" type="FakeQuantize" version="opset1">
			<data levels="256"/>
			<input>
				<port id="0">
					<dim>1</dim>
					<dim>72</dim>
					<dim>75</dim>
					<dim>75</dim>
				</port>
				<port id="1"/>
				<port id="2"/>
				<port id="3"/>
				<port id="4"/>
			</input>
			<output>
				<port id="5" precision="FP32">
					<dim>1</dim>
					<dim>72</dim>
					<dim>75</dim>
					<dim>75</dim>
				</port>
			</output>
		</layer>
		<layer id="105" name="Mul1_7957/Fused_Mul_1000510007_const375_const" type="Const" version="opset1">
			<data element_type="f32" offset="14212" shape="18,72,1,1" size="5184"/>
			<output>
				<port id="1" precision="FP32">
					<dim>18</dim>
					<dim>72</dim>
					<dim>1</dim>
					<dim>1</dim>
				</port>
			</output>
		</layer>
		<layer id="106" name="18191823_const" type="Const" version="opset1">
			<data element_type="f32" offset="19396" shape="18,1,1,1" size="72"/>
			<output>
				<port id="1" precision="FP32">
					<dim>18</dim>
					<dim>1</dim>
					<dim>1</dim>
					<dim>1</dim>
				</port>
			</output>
		</layer>
		<layer id="107" name="18201824_const" type="Const" version="opset1">
			<data element_type="f32" offset="19468" shape="18,1,1,1" size="72"/>
			<output>
				<port id="1" precision="FP32">
					<dim>18</dim>
					<dim>1</dim>
					<dim>1</dim>
					<dim>1</dim>
				</port>
			</output>
		</layer>
		<layer id="108" name="18211825_const" type="Const" version="opset1">
			<data element_type="f32" offset="19396" shape="18,1,1,1" size="72"/>
			<output>
				<port id="1" precision="FP32">
					<dim>18</dim>
					<dim>1</dim>
					<dim>1</dim>
					<dim>1</dim>
				</port>
			</output>
		</layer>
		<layer id="109" name="18221826_const" type="Const" version="opset1">
			<data element_type="f32" offset="19468" shape="18,1,1,1" size="72"/>
			<output>
				<port id="1" precision="FP32">
					<dim>18</dim>
					<dim>1</dim>
					<dim>1</dim>
					<dim>1</dim>
				</port>
			</output>
		</layer>
		<layer id="110" name="346/fq_weights_1" type="FakeQuantize" version="opset1">
			<data levels="255"/>
			<input>
				<port id="0">
					<dim>18</dim>
					<dim>72</dim>
					<dim>1</dim>
					<dim>1</dim>
				</port>
				<port id="1">
					<dim>18</dim>
					<dim>1</dim>
					<dim>1</dim>
					<dim>1</dim>
				</port>
				<port id="2">
					<dim>18</dim>
					<dim>1</dim>
					<dim>1</dim>
					<dim>1</dim>
				</port>
				<port id="3">
					<dim>18</dim>
					<dim>1</dim>
					<dim>1</dim>
					<dim>1</dim>
				</port>
				<port id="4">
					<dim>18</dim>
					<dim>1</dim>
					<dim>1</dim>
					<dim>1</dim>
				</port>
			</input>
			<output>
				<port id="5" precision="FP32">
					<dim>18</dim>
					<dim>72</dim>
					<dim>1</dim>
					<dim>1</dim>
				</port>
			</output>
		</layer>
		<layer id="111" name="346" type="Convolution" version="opset1">
			<data dilations="1,1" output_padding="0,0" pads_begin="0,0" pads_end="0,0" strides="1,1"/>
			<input>
				<port id="0">
					<dim>1</dim>
					<dim>72</dim>
					<dim>75</dim>
					<dim>75</dim>
				</port>
				<port id="1">
					<dim>18</dim>
					<dim>72</dim>
					<dim>1</dim>
					<dim>1</dim>
				</port>
			</input>
			<output>
				<port id="2" precision="FP32">
					<dim>1</dim>
					<dim>18</dim>
					<dim>75</dim>
					<dim>75</dim>
				</port>
			</output>
		</layer>
		<layer id="112" name="data_add_91469151/copy_const377_const" type="Const" version="opset1">
			<data element_type="f32" offset="19540" shape="1,18,1,1" size="72"/>
			<output>
				<port id="1" precision="FP32">
					<dim>1</dim>
					<dim>18</dim>
					<dim>1</dim>
					<dim>1</dim>
				</port>
			</output>
		</layer>
		<layer id="113" name="Add1_7958/Fused_Add_" type="Add" version="opset1">
			<input>
				<port id="0">
					<dim>1</dim>
					<dim>18</dim>
					<dim>75</dim>
					<dim>75</dim>
				</port>
				<port id="1">
					<dim>1</dim>
					<dim>18</dim>
					<dim>1</dim>
					<dim>1</dim>
				</port>
			</input>
			<output>
				<port id="2" precision="FP32">
					<dim>1</dim>
					<dim>18</dim>
					<dim>75</dim>
					<dim>75</dim>
				</port>
			</output>
		</layer>
		<layer id="114" name="13191323_const" type="Const" version="opset1">
			<data element_type="f32" offset="19612" shape="" size="4"/>
			<output>
				<port id="1" precision="FP32"/>
			</output>
		</layer>
		<layer id="115" name="13201324_const" type="Const" version="opset1">
			<data element_type="f32" offset="19616" shape="" size="4"/>
			<output>
				<port id="1" precision="FP32"/>
			</output>
		</layer>
		<layer id="116" name="13211325_const" type="Const" version="opset1">
			<data element_type="f32" offset="19612" shape="" size="4"/>
			<output>
				<port id="1" precision="FP32"/>
			</output>
		</layer>
		<layer id="117" name="13221326_const" type="Const" version="opset1">
			<data element_type="f32" offset="19616" shape="" size="4"/>
			<output>
				<port id="1" precision="FP32"/>
			</output>
		</layer>
		<layer id="118" name="348/fq_input_0" type="FakeQuantize" version="opset1">
			<data levels="256"/>
			<input>
				<port id="0">
					<dim>1</dim>
					<dim>18</dim>
					<dim>75</dim>
					<dim>75</dim>
				</port>
				<port id="1"/>
				<port id="2"/>
				<port id="3"/>
				<port id="4"/>
			</input>
			<output>
				<port id="5" precision="FP32">
					<dim>1</dim>
					<dim>18</dim>
					<dim>75</dim>
					<dim>75</dim>
				</port>
			</output>
		</layer>
		<layer id="119" name="Mul1_7969/Fused_Mul_1000910011_const379_const" type="Const" version="opset1">
			<data element_type="f32" offset="19620" shape="108,18,1,1" size="7776"/>
			<output>
				<port id="1" precision="FP32">
					<dim>108</dim>
					<dim>18</dim>
					<dim>1</dim>
					<dim>1</dim>
				</port>
			</output>
		</layer>
		<layer id="120" name="13291333_const" type="Const" version="opset1">
			<data element_type="f32" offset="27396" shape="108,1,1,1" size="432"/>
			<output>
				<port id="1" precision="FP32">
					<dim>108</dim>
					<dim>1</dim>
					<dim>1</dim>
					<dim>1</dim>
				</port>
			</output>
		</layer>
		<layer id="121" name="13301334_const" type="Const" version="opset1">
			<data element_type="f32" offset="27828" shape="108,1,1,1" size="432"/>
			<output>
				<port id="1" precision="FP32">
					<dim>108</dim>
					<dim>1</dim>
					<dim>1</dim>
					<dim>1</dim>
				</port>
			</output>
		</layer>
		<layer id="122" name="13311335_const" type="Const" version="opset1">
			<data element_type="f32" offset="27396" shape="108,1,1,1" size="432"/>
			<output>
				<port id="1" precision="FP32">
					<dim>108</dim>
					<dim>1</dim>
					<dim>1</dim>
					<dim>1</dim>
				</port>
			</output>
		</layer>
		<layer id="123" name="13321336_const" type="Const" version="opset1">
			<data element_type="f32" offset="27828" shape="108,1,1,1" size="432"/>
			<output>
				<port id="1" precision="FP32">
					<dim>108</dim>
					<dim>1</dim>
					<dim>1</dim>
					<dim>1</dim>
				</port>
			</output>
		</layer>
		<layer id="124" name="348/fq_weights_1" type="FakeQuantize" version="opset1">
			<data levels="255"/>
			<input>
				<port id="0">
					<dim>108</dim>
					<dim>18</dim>
					<dim>1</dim>
					<dim>1</dim>
				</port>
				<port id="1">
					<dim>108</dim>
					<dim>1</dim>
					<dim>1</dim>
					<dim>1</dim>
				</port>
				<port id="2">
					<dim>108</dim>
					<dim>1</dim>
					<dim>1</dim>
					<dim>1</dim>
				</port>
				<port id="3">
					<dim>108</dim>
					<dim>1</dim>
					<dim>1</dim>
					<dim>1</dim>
				</port>
				<port id="4">
					<dim>108</dim>
					<dim>1</dim>
					<dim>1</dim>
					<dim>1</dim>
				</port>
			</input>
			<output>
				<port id="5" precision="FP32">
					<dim>108</dim>
					<dim>18</dim>
					<dim>1</dim>
					<dim>1</dim>
				</port>
			</output>
		</layer>
		<layer id="125" name="348" type="Convolution" version="opset1">
			<data dilations="1,1" output_padding="0,0" pads_begin="0,0" pads_end="0,0" strides="1,1"/>
			<input>
				<port id="0">
					<dim>1</dim>
					<dim>18</dim>
					<dim>75</dim>
					<dim>75</dim>
				</port>
				<port id="1">
					<dim>108</dim>
					<dim>18</dim>
					<dim>1</dim>
					<dim>1</dim>
				</port>
			</input>
			<output>
				<port id="2" precision="FP32">
					<dim>1</dim>
					<dim>108</dim>
					<dim>75</dim>
					<dim>75</dim>
				</port>
			</output>
		</layer>
		<layer id="126" name="data_add_91549159/copy_const381_const" type="Const" version="opset1">
			<data element_type="f32" offset="28260" shape="1,108,1,1" size="432"/>
			<output>
				<port id="1" precision="FP32">
					<dim>1</dim>
					<dim>108</dim>
					<dim>1</dim>
					<dim>1</dim>
				</port>
			</output>
		</layer>
		<layer id="127" name="Add1_7970/Fused_Add_" type="Add" version="opset1">
			<input>
				<port id="0">
					<dim>1</dim>
					<dim>108</dim>
					<dim>75</dim>
					<dim>75</dim>
				</port>
				<port id="1">
					<dim>1</dim>
					<dim>108</dim>
					<dim>1</dim>
					<dim>1</dim>
				</port>
			</input>
			<output>
				<port id="2" precision="FP32">
					<dim>1</dim>
					<dim>108</dim>
					<dim>75</dim>
					<dim>75</dim>
				</port>
			</output>
		</layer>
		<layer id="128" name="350" type="ReLU" version="opset1">
			<input>
				<port id="0">
					<dim>1</dim>
					<dim>108</dim>
					<dim>75</dim>
					<dim>75</dim>
				</port>
			</input>
			<output>
				<port id="1" precision="FP32">
					<dim>1</dim>
					<dim>108</dim>
					<dim>75</dim>
					<dim>75</dim>
				</port>
			</output>
		</layer>
		<layer id="129" name="19891993_const" type="Const" version="opset1">
			<data element_type="f32" offset="28692" shape="1,108,1,1" size="432"/>
			<output>
				<port id="1" precision="FP32">
					<dim>1</dim>
					<dim>108</dim>
					<dim>1</dim>
					<dim>1</dim>
				</port>
			</output>
		</layer>
		<layer id="130" name="19901994_const" type="Const" version="opset1">
			<data element_type="f32" offset="29124" shape="1,108,1,1" size="432"/>
			<output>
				<port id="1" precision="FP32">
					<dim>1</dim>
					<dim>108</dim>
					<dim>1</dim>
					<dim>1</dim>
				</port>
			</output>
		</layer>
		<layer id="131" name="19911995_const" type="Const" version="opset1">
			<data element_type="f32" offset="28692" shape="1,108,1,1" size="432"/>
			<output>
				<port id="1" precision="FP32">
					<dim>1</dim>
					<dim>108</dim>
					<dim>1</dim>
					<dim>1</dim>
				</port>
			</output>
		</layer>
		<layer id="132" name="19921996_const" type="Const" version="opset1">
			<data element_type="f32" offset="29124" shape="1,108,1,1" size="432"/>
			<output>
				<port id="1" precision="FP32">
					<dim>1</dim>
					<dim>108</dim>
					<dim>1</dim>
					<dim>1</dim>
				</port>
			</output>
		</layer>
		<layer id="133" name="351/fq_input_0" type="FakeQuantize" version="opset1">
			<data levels="256"/>
			<input>
				<port id="0">
					<dim>1</dim>
					<dim>108</dim>
					<dim>75</dim>
					<dim>75</dim>
				</port>
				<port id="1">
					<dim>1</dim>
					<dim>108</dim>
					<dim>1</dim>
					<dim>1</dim>
				</port>
				<port id="2">
					<dim>1</dim>
					<dim>108</dim>
					<dim>1</dim>
					<dim>1</dim>
				</port>
				<port id="3">
					<dim>1</dim>
					<dim>108</dim>
					<dim>1</dim>
					<dim>1</dim>
				</port>
				<port id="4">
					<dim>1</dim>
					<dim>108</dim>
					<dim>1</dim>
					<dim>1</dim>
				</port>
			</input>
			<output>
				<port id="5" precision="FP32">
					<dim>1</dim>
					<dim>108</dim>
					<dim>75</dim>
					<dim>75</dim>
				</port>
			</output>
		</layer>
		<layer id="134" name="744652_const" type="Const" version="opset1">
			<data element_type="f32" offset="29556" shape="108,1,3,3" size="3888"/>
			<output>
				<port id="1" precision="FP32">
					<dim>108</dim>
					<dim>1</dim>
					<dim>3</dim>
					<dim>3</dim>
				</port>
			</output>
		</layer>
		<layer id="135" name="19992003_const" type="Const" version="opset1">
			<data element_type="f32" offset="33444" shape="108,1,1,1" size="432"/>
			<output>
				<port id="1" precision="FP32">
					<dim>108</dim>
					<dim>1</dim>
					<dim>1</dim>
					<dim>1</dim>
				</port>
			</output>
		</layer>
		<layer id="136" name="20002004_const" type="Const" version="opset1">
			<data element_type="f32" offset="33876" shape="108,1,1,1" size="432"/>
			<output>
				<port id="1" precision="FP32">
					<dim>108</dim>
					<dim>1</dim>
					<dim>1</dim>
					<dim>1</dim>
				</port>
			</output>
		</layer>
		<layer id="137" name="20012005_const" type="Const" version="opset1">
			<data element_type="f32" offset="33444" shape="108,1,1,1" size="432"/>
			<output>
				<port id="1" precision="FP32">
					<dim>108</dim>
					<dim>1</dim>
					<dim>1</dim>
					<dim>1</dim>
				</port>
			</output>
		</layer>
		<layer id="138" name="20022006_const" type="Const" version="opset1">
			<data element_type="f32" offset="33876" shape="108,1,1,1" size="432"/>
			<output>
				<port id="1" precision="FP32">
					<dim>108</dim>
					<dim>1</dim>
					<dim>1</dim>
					<dim>1</dim>
				</port>
			</output>
		</layer>
		<layer id="139" name="351/fq_weights_1" type="FakeQuantize" version="opset1">
			<data levels="255"/>
			<input>
				<port id="0">
					<dim>108</dim>
					<dim>1</dim>
					<dim>3</dim>
					<dim>3</dim>
				</port>
				<port id="1">
					<dim>108</dim>
					<dim>1</dim>
					<dim>1</dim>
					<dim>1</dim>
				</port>
				<port id="2">
					<dim>108</dim>
					<dim>1</dim>
					<dim>1</dim>
					<dim>1</dim>
				</port>
				<port id="3">
					<dim>108</dim>
					<dim>1</dim>
					<dim>1</dim>
					<dim>1</dim>
				</port>
				<port id="4">
					<dim>108</dim>
					<dim>1</dim>
					<dim>1</dim>
					<dim>1</dim>
				</port>
			</input>
			<output>
				<port id="5" precision="FP32">
					<dim>108</dim>
					<dim>1</dim>
					<dim>3</dim>
					<dim>3</dim>
				</port>
			</output>
		</layer>
		<layer id="140" name="4206/value4208_const" type="Const" version="opset1">
			<data element_type="i64" offset="34308" shape="5" size="40"/>
			<output>
				<port id="1" precision="I64">
					<dim>5</dim>
				</port>
			</output>
		</layer>
		<layer id="141" name="4206" type="Reshape" version="opset1">
			<data special_zero="True"/>
			<input>
				<port id="0">
					<dim>108</dim>
					<dim>1</dim>
					<dim>3</dim>
					<dim>3</dim>
				</port>
				<port id="1">
					<dim>5</dim>
				</port>
			</input>
			<output>
				<port id="2" precision="FP32">
					<dim>108</dim>
					<dim>1</dim>
					<dim>1</dim>
					<dim>3</dim>
					<dim>3</dim>
				</port>
			</output>
		</layer>
		<layer id="142" name="351" type="GroupConvolution" version="opset1">
			<data dilations="1,1" output_padding="0,0" pads_begin="1,1" pads_end="1,1" strides="1,1"/>
			<input>
				<port id="0">
					<dim>1</dim>
					<dim>108</dim>
					<dim>75</dim>
					<dim>75</dim>
				</port>
				<port id="1">
					<dim>108</dim>
					<dim>1</dim>
					<dim>1</dim>
					<dim>3</dim>
					<dim>3</dim>
				</port>
			</input>
			<output>
				<port id="2" precision="FP32">
					<dim>1</dim>
					<dim>108</dim>
					<dim>75</dim>
					<dim>75</dim>
				</port>
			</output>
		</layer>
		<layer id="143" name="data_add_91629167/copy_const386_const" type="Const" version="opset1">
			<data element_type="f32" offset="34348" shape="1,108,1,1" size="432"/>
			<output>
				<port id="1" precision="FP32">
					<dim>1</dim>
					<dim>108</dim>
					<dim>1</dim>
					<dim>1</dim>
				</port>
			</output>
		</layer>
		<layer id="144" name="Add1_7982/Fused_Add_" type="Add" version="opset1">
			<input>
				<port id="0">
					<dim>1</dim>
					<dim>108</dim>
					<dim>75</dim>
					<dim>75</dim>
				</port>
				<port id="1">
					<dim>1</dim>
					<dim>108</dim>
					<dim>1</dim>
					<dim>1</dim>
				</port>
			</input>
			<output>
				<port id="2" precision="FP32">
					<dim>1</dim>
					<dim>108</dim>
					<dim>75</dim>
					<dim>75</dim>
				</port>
			</output>
		</layer>
		<layer id="145" name="353" type="ReLU" version="opset1">
			<input>
				<port id="0">
					<dim>1</dim>
					<dim>108</dim>
					<dim>75</dim>
					<dim>75</dim>
				</port>
			</input>
			<output>
				<port id="1" precision="FP32">
					<dim>1</dim>
					<dim>108</dim>
					<dim>75</dim>
					<dim>75</dim>
				</port>
			</output>
		</layer>
		<layer id="146" name="19691973_const" type="Const" version="opset1">
			<data element_type="f32" offset="0" shape="" size="4"/>
			<output>
				<port id="1" precision="FP32"/>
			</output>
		</layer>
		<layer id="147" name="19701974_const" type="Const" version="opset1">
			<data element_type="f32" offset="34780" shape="" size="4"/>
			<output>
				<port id="1" precision="FP32"/>
			</output>
		</layer>
		<layer id="148" name="19711975_const" type="Const" version="opset1">
			<data element_type="f32" offset="0" shape="" size="4"/>
			<output>
				<port id="1" precision="FP32"/>
			</output>
		</layer>
		<layer id="149" name="19721976_const" type="Const" version="opset1">
			<data element_type="f32" offset="34780" shape="" size="4"/>
			<output>
				<port id="1" precision="FP32"/>
			</output>
		</layer>
		<layer id="150" name="354/fq_input_0" type="FakeQuantize" version="opset1">
			<data levels="256"/>
			<input>
				<port id="0">
					<dim>1</dim>
					<dim>108</dim>
					<dim>75</dim>
					<dim>75</dim>
				</port>
				<port id="1"/>
				<port id="2"/>
				<port id="3"/>
				<port id="4"/>
			</input>
			<output>
				<port id="5" precision="FP32">
					<dim>1</dim>
					<dim>108</dim>
					<dim>75</dim>
					<dim>75</dim>
				</port>
			</output>
		</layer>
		<layer id="151" name="Mul1_7993/Fused_Mul_1001710019_const389_const" type="Const" version="opset1">
			<data element_type="f32" offset="34784" shape="18,108,1,1" size="7776"/>
			<output>
				<port id="1" precision="FP32">
					<dim>18</dim>
					<dim>108</dim>
					<dim>1</dim>
					<dim>1</dim>
				</port>
			</output>
		</layer>
		<layer id="152" name="19791983_const" type="Const" version="opset1">
			<data element_type="f32" offset="42560" shape="18,1,1,1" size="72"/>
			<output>
				<port id="1" precision="FP32">
					<dim>18</dim>
					<dim>1</dim>
					<dim>1</dim>
					<dim>1</dim>
				</port>
			</output>
		</layer>
		<layer id="153" name="19801984_const" type="Const" version="opset1">
			<data element_type="f32" offset="42632" shape="18,1,1,1" size="72"/>
			<output>
				<port id="1" precision="FP32">
					<dim>18</dim>
					<dim>1</dim>
					<dim>1</dim>
					<dim>1</dim>
				</port>
			</output>
		</layer>
		<layer id="154" name="19811985_const" type="Const" version="opset1">
			<data element_type="f32" offset="42560" shape="18,1,1,1" size="72"/>
			<output>
				<port id="1" precision="FP32">
					<dim>18</dim>
					<dim>1</dim>
					<dim>1</dim>
					<dim>1</dim>
				</port>
			</output>
		</layer>
		<layer id="155" name="19821986_const" type="Const" version="opset1">
			<data element_type="f32" offset="42632" shape="18,1,1,1" size="72"/>
			<output>
				<port id="1" precision="FP32">
					<dim>18</dim>
					<dim>1</dim>
					<dim>1</dim>
					<dim>1</dim>
				</port>
			</output>
		</layer>
		<layer id="156" name="354/fq_weights_1" type="FakeQuantize" version="opset1">
			<data levels="255"/>
			<input>
				<port id="0">
					<dim>18</dim>
					<dim>108</dim>
					<dim>1</dim>
					<dim>1</dim>
				</port>
				<port id="1">
					<dim>18</dim>
					<dim>1</dim>
					<dim>1</dim>
					<dim>1</dim>
				</port>
				<port id="2">
					<dim>18</dim>
					<dim>1</dim>
					<dim>1</dim>
					<dim>1</dim>
				</port>
				<port id="3">
					<dim>18</dim>
					<dim>1</dim>
					<dim>1</dim>
					<dim>1</dim>
				</port>
				<port id="4">
					<dim>18</dim>
					<dim>1</dim>
					<dim>1</dim>
					<dim>1</dim>
				</port>
			</input>
			<output>
				<port id="5" precision="FP32">
					<dim>18</dim>
					<dim>108</dim>
					<dim>1</dim>
					<dim>1</dim>
				</port>
			</output>
		</layer>
		<layer id="157" name="354" type="Convolution" version="opset1">
			<data dilations="1,1" output_padding="0,0" pads_begin="0,0" pads_end="0,0" strides="1,1"/>
			<input>
				<port id="0">
					<dim>1</dim>
					<dim>108</dim>
					<dim>75</dim>
					<dim>75</dim>
				</port>
				<port id="1">
					<dim>18</dim>
					<dim>108</dim>
					<dim>1</dim>
					<dim>1</dim>
				</port>
			</input>
			<output>
				<port id="2" precision="FP32">
					<dim>1</dim>
					<dim>18</dim>
					<dim>75</dim>
					<dim>75</dim>
				</port>
			</output>
		</layer>
		<layer id="158" name="data_add_91709175/copy_const391_const" type="Const" version="opset1">
			<data element_type="f32" offset="42704" shape="1,18,1,1" size="72"/>
			<output>
				<port id="1" precision="FP32">
					<dim>1</dim>
					<dim>18</dim>
					<dim>1</dim>
					<dim>1</dim>
				</port>
			</output>
		</layer>
		<layer id="159" name="Add1_7994/Fused_Add_" type="Add" version="opset1">
			<input>
				<port id="0">
					<dim>1</dim>
					<dim>18</dim>
					<dim>75</dim>
					<dim>75</dim>
				</port>
				<port id="1">
					<dim>1</dim>
					<dim>18</dim>
					<dim>1</dim>
					<dim>1</dim>
				</port>
			</input>
			<output>
				<port id="2" precision="FP32">
					<dim>1</dim>
					<dim>18</dim>
					<dim>75</dim>
					<dim>75</dim>
				</port>
			</output>
		</layer>
		<layer id="160" name="22192223_const" type="Const" version="opset1">
			<data element_type="f32" offset="42776" shape="" size="4"/>
			<output>
				<port id="1" precision="FP32"/>
			</output>
		</layer>
		<layer id="161" name="22202224_const" type="Const" version="opset1">
			<data element_type="f32" offset="42780" shape="" size="4"/>
			<output>
				<port id="1" precision="FP32"/>
			</output>
		</layer>
		<layer id="162" name="22212225_const" type="Const" version="opset1">
			<data element_type="f32" offset="42776" shape="" size="4"/>
			<output>
				<port id="1" precision="FP32"/>
			</output>
		</layer>
		<layer id="163" name="22222226_const" type="Const" version="opset1">
			<data element_type="f32" offset="42780" shape="" size="4"/>
			<output>
				<port id="1" precision="FP32"/>
			</output>
		</layer>
		<layer id="164" name="356/fq_input_1" type="FakeQuantize" version="opset1">
			<data levels="256"/>
			<input>
				<port id="0">
					<dim>1</dim>
					<dim>18</dim>
					<dim>75</dim>
					<dim>75</dim>
				</port>
				<port id="1"/>
				<port id="2"/>
				<port id="3"/>
				<port id="4"/>
			</input>
			<output>
				<port id="5" precision="FP32">
					<dim>1</dim>
					<dim>18</dim>
					<dim>75</dim>
					<dim>75</dim>
				</port>
			</output>
		</layer>
		<layer id="165" name="356" type="Add" version="opset1">
			<input>
				<port id="0">
					<dim>1</dim>
					<dim>18</dim>
					<dim>75</dim>
					<dim>75</dim>
				</port>
				<port id="1">
					<dim>1</dim>
					<dim>18</dim>
					<dim>75</dim>
					<dim>75</dim>
				</port>
			</input>
			<output>
				<port id="2" precision="FP32">
					<dim>1</dim>
					<dim>18</dim>
					<dim>75</dim>
					<dim>75</dim>
				</port>
			</output>
		</layer>
		<layer id="166" name="11391143_const" type="Const" version="opset1">
			<data element_type="f32" offset="42784" shape="" size="4"/>
			<output>
				<port id="1" precision="FP32"/>
			</output>
		</layer>
		<layer id="167" name="11401144_const" type="Const" version="opset1">
			<data element_type="f32" offset="42788" shape="" size="4"/>
			<output>
				<port id="1" precision="FP32"/>
			</output>
		</layer>
		<layer id="168" name="11411145_const" type="Const" version="opset1">
			<data element_type="f32" offset="42784" shape="" size="4"/>
			<output>
				<port id="1" precision="FP32"/>
			</output>
		</layer>
		<layer id="169" name="11421146_const" type="Const" version="opset1">
			<data element_type="f32" offset="42788" shape="" size="4"/>
			<output>
				<port id="1" precision="FP32"/>
			</output>
		</layer>
		<layer id="170" name="357/fq_input_0" type="FakeQuantize" version="opset1">
			<data levels="256"/>
			<input>
				<port id="0">
					<dim>1</dim>
					<dim>18</dim>
					<dim>75</dim>
					<dim>75</dim>
				</port>
				<port id="1"/>
				<port id="2"/>
				<port id="3"/>
				<port id="4"/>
			</input>
			<output>
				<port id="5" precision="FP32">
					<dim>1</dim>
					<dim>18</dim>
					<dim>75</dim>
					<dim>75</dim>
				</port>
			</output>
		</layer>
		<layer id="171" name="Mul1_8005/Fused_Mul_1002110023_const394_const" type="Const" version="opset1">
			<data element_type="f32" offset="42792" shape="108,18,1,1" size="7776"/>
			<output>
				<port id="1" precision="FP32">
					<dim>108</dim>
					<dim>18</dim>
					<dim>1</dim>
					<dim>1</dim>
				</port>
			</output>
		</layer>
		<layer id="172" name="11491153_const" type="Const" version="opset1">
			<data element_type="f32" offset="50568" shape="108,1,1,1" size="432"/>
			<output>
				<port id="1" precision="FP32">
					<dim>108</dim>
					<dim>1</dim>
					<dim>1</dim>
					<dim>1</dim>
				</port>
			</output>
		</layer>
		<layer id="173" name="11501154_const" type="Const" version="opset1">
			<data element_type="f32" offset="51000" shape="108,1,1,1" size="432"/>
			<output>
				<port id="1" precision="FP32">
					<dim>108</dim>
					<dim>1</dim>
					<dim>1</dim>
					<dim>1</dim>
				</port>
			</output>
		</layer>
		<layer id="174" name="11511155_const" type="Const" version="opset1">
			<data element_type="f32" offset="50568" shape="108,1,1,1" size="432"/>
			<output>
				<port id="1" precision="FP32">
					<dim>108</dim>
					<dim>1</dim>
					<dim>1</dim>
					<dim>1</dim>
				</port>
			</output>
		</layer>
		<layer id="175" name="11521156_const" type="Const" version="opset1">
			<data element_type="f32" offset="51000" shape="108,1,1,1" size="432"/>
			<output>
				<port id="1" precision="FP32">
					<dim>108</dim>
					<dim>1</dim>
					<dim>1</dim>
					<dim>1</dim>
				</port>
			</output>
		</layer>
		<layer id="176" name="357/fq_weights_1" type="FakeQuantize" version="opset1">
			<data levels="255"/>
			<input>
				<port id="0">
					<dim>108</dim>
					<dim>18</dim>
					<dim>1</dim>
					<dim>1</dim>
				</port>
				<port id="1">
					<dim>108</dim>
					<dim>1</dim>
					<dim>1</dim>
					<dim>1</dim>
				</port>
				<port id="2">
					<dim>108</dim>
					<dim>1</dim>
					<dim>1</dim>
					<dim>1</dim>
				</port>
				<port id="3">
					<dim>108</dim>
					<dim>1</dim>
					<dim>1</dim>
					<dim>1</dim>
				</port>
				<port id="4">
					<dim>108</dim>
					<dim>1</dim>
					<dim>1</dim>
					<dim>1</dim>
				</port>
			</input>
			<output>
				<port id="5" precision="FP32">
					<dim>108</dim>
					<dim>18</dim>
					<dim>1</dim>
					<dim>1</dim>
				</port>
			</output>
		</layer>
		<layer id="177" name="357" type="Convolution" version="opset1">
			<data dilations="1,1" output_padding="0,0" pads_begin="0,0" pads_end="0,0" strides="1,1"/>
			<input>
				<port id="0">
					<dim>1</dim>
					<dim>18</dim>
					<dim>75</dim>
					<dim>75</dim>
				</port>
				<port id="1">
					<dim>108</dim>
					<dim>18</dim>
					<dim>1</dim>
					<dim>1</dim>
				</port>
			</input>
			<output>
				<port id="2" precision="FP32">
					<dim>1</dim>
					<dim>108</dim>
					<dim>75</dim>
					<dim>75</dim>
				</port>
			</output>
		</layer>
		<layer id="178" name="data_add_91789183/copy_const396_const" type="Const" version="opset1">
			<data element_type="f32" offset="51432" shape="1,108,1,1" size="432"/>
			<output>
				<port id="1" precision="FP32">
					<dim>1</dim>
					<dim>108</dim>
					<dim>1</dim>
					<dim>1</dim>
				</port>
			</output>
		</layer>
		<layer id="179" name="Add1_8006/Fused_Add_" type="Add" version="opset1">
			<input>
				<port id="0">
					<dim>1</dim>
					<dim>108</dim>
					<dim>75</dim>
					<dim>75</dim>
				</port>
				<port id="1">
					<dim>1</dim>
					<dim>108</dim>
					<dim>1</dim>
					<dim>1</dim>
				</port>
			</input>
			<output>
				<port id="2" precision="FP32">
					<dim>1</dim>
					<dim>108</dim>
					<dim>75</dim>
					<dim>75</dim>
				</port>
			</output>
		</layer>
		<layer id="180" name="359" type="ReLU" version="opset1">
			<input>
				<port id="0">
					<dim>1</dim>
					<dim>108</dim>
					<dim>75</dim>
					<dim>75</dim>
				</port>
			</input>
			<output>
				<port id="1" precision="FP32">
					<dim>1</dim>
					<dim>108</dim>
					<dim>75</dim>
					<dim>75</dim>
				</port>
			</output>
		</layer>
		<layer id="181" name="14991503_const" type="Const" version="opset1">
			<data element_type="f32" offset="28692" shape="1,108,1,1" size="432"/>
			<output>
				<port id="1" precision="FP32">
					<dim>1</dim>
					<dim>108</dim>
					<dim>1</dim>
					<dim>1</dim>
				</port>
			</output>
		</layer>
		<layer id="182" name="15001504_const" type="Const" version="opset1">
			<data element_type="f32" offset="51864" shape="1,108,1,1" size="432"/>
			<output>
				<port id="1" precision="FP32">
					<dim>1</dim>
					<dim>108</dim>
					<dim>1</dim>
					<dim>1</dim>
				</port>
			</output>
		</layer>
		<layer id="183" name="15011505_const" type="Const" version="opset1">
			<data element_type="f32" offset="28692" shape="1,108,1,1" size="432"/>
			<output>
				<port id="1" precision="FP32">
					<dim>1</dim>
					<dim>108</dim>
					<dim>1</dim>
					<dim>1</dim>
				</port>
			</output>
		</layer>
		<layer id="184" name="15021506_const" type="Const" version="opset1">
			<data element_type="f32" offset="51864" shape="1,108,1,1" size="432"/>
			<output>
				<port id="1" precision="FP32">
					<dim>1</dim>
					<dim>108</dim>
					<dim>1</dim>
					<dim>1</dim>
				</port>
			</output>
		</layer>
		<layer id="185" name="360/fq_input_0" type="FakeQuantize" version="opset1">
			<data levels="256"/>
			<input>
				<port id="0">
					<dim>1</dim>
					<dim>108</dim>
					<dim>75</dim>
					<dim>75</dim>
				</port>
				<port id="1">
					<dim>1</dim>
					<dim>108</dim>
					<dim>1</dim>
					<dim>1</dim>
				</port>
				<port id="2">
					<dim>1</dim>
					<dim>108</dim>
					<dim>1</dim>
					<dim>1</dim>
				</port>
				<port id="3">
					<dim>1</dim>
					<dim>108</dim>
					<dim>1</dim>
					<dim>1</dim>
				</port>
				<port id="4">
					<dim>1</dim>
					<dim>108</dim>
					<dim>1</dim>
					<dim>1</dim>
				</port>
			</input>
			<output>
				<port id="5" precision="FP32">
					<dim>1</dim>
					<dim>108</dim>
					<dim>75</dim>
					<dim>75</dim>
				</port>
			</output>
		</layer>
		<layer id="186" name="748654_const" type="Const" version="opset1">
			<data element_type="f32" offset="52296" shape="108,1,3,3" size="3888"/>
			<output>
				<port id="1" precision="FP32">
					<dim>108</dim>
					<dim>1</dim>
					<dim>3</dim>
					<dim>3</dim>
				</port>
			</output>
		</layer>
		<layer id="187" name="15091513_const" type="Const" version="opset1">
			<data element_type="f32" offset="56184" shape="108,1,1,1" size="432"/>
			<output>
				<port id="1" precision="FP32">
					<dim>108</dim>
					<dim>1</dim>
					<dim>1</dim>
					<dim>1</dim>
				</port>
			</output>
		</layer>
		<layer id="188" name="15101514_const" type="Const" version="opset1">
			<data element_type="f32" offset="56616" shape="108,1,1,1" size="432"/>
			<output>
				<port id="1" precision="FP32">
					<dim>108</dim>
					<dim>1</dim>
					<dim>1</dim>
					<dim>1</dim>
				</port>
			</output>
		</layer>
		<layer id="189" name="15111515_const" type="Const" version="opset1">
			<data element_type="f32" offset="56184" shape="108,1,1,1" size="432"/>
			<output>
				<port id="1" precision="FP32">
					<dim>108</dim>
					<dim>1</dim>
					<dim>1</dim>
					<dim>1</dim>
				</port>
			</output>
		</layer>
		<layer id="190" name="15121516_const" type="Const" version="opset1">
			<data element_type="f32" offset="56616" shape="108,1,1,1" size="432"/>
			<output>
				<port id="1" precision="FP32">
					<dim>108</dim>
					<dim>1</dim>
					<dim>1</dim>
					<dim>1</dim>
				</port>
			</output>
		</layer>
		<layer id="191" name="360/fq_weights_1" type="FakeQuantize" version="opset1">
			<data levels="255"/>
			<input>
				<port id="0">
					<dim>108</dim>
					<dim>1</dim>
					<dim>3</dim>
					<dim>3</dim>
				</port>
				<port id="1">
					<dim>108</dim>
					<dim>1</dim>
					<dim>1</dim>
					<dim>1</dim>
				</port>
				<port id="2">
					<dim>108</dim>
					<dim>1</dim>
					<dim>1</dim>
					<dim>1</dim>
				</port>
				<port id="3">
					<dim>108</dim>
					<dim>1</dim>
					<dim>1</dim>
					<dim>1</dim>
				</port>
				<port id="4">
					<dim>108</dim>
					<dim>1</dim>
					<dim>1</dim>
					<dim>1</dim>
				</port>
			</input>
			<output>
				<port id="5" precision="FP32">
					<dim>108</dim>
					<dim>1</dim>
					<dim>3</dim>
					<dim>3</dim>
				</port>
			</output>
		</layer>
		<layer id="192" name="4198/value4200_const" type="Const" version="opset1">
			<data element_type="i64" offset="34308" shape="5" size="40"/>
			<output>
				<port id="1" precision="I64">
					<dim>5</dim>
				</port>
			</output>
		</layer>
		<layer id="193" name="4198" type="Reshape" version="opset1">
			<data special_zero="True"/>
			<input>
				<port id="0">
					<dim>108</dim>
					<dim>1</dim>
					<dim>3</dim>
					<dim>3</dim>
				</port>
				<port id="1">
					<dim>5</dim>
				</port>
			</input>
			<output>
				<port id="2" precision="FP32">
					<dim>108</dim>
					<dim>1</dim>
					<dim>1</dim>
					<dim>3</dim>
					<dim>3</dim>
				</port>
			</output>
		</layer>
		<layer id="194" name="360" type="GroupConvolution" version="opset1">
			<data dilations="1,1" output_padding="0,0" pads_begin="1,1" pads_end="1,1" strides="2,2"/>
			<input>
				<port id="0">
					<dim>1</dim>
					<dim>108</dim>
					<dim>75</dim>
					<dim>75</dim>
				</port>
				<port id="1">
					<dim>108</dim>
					<dim>1</dim>
					<dim>1</dim>
					<dim>3</dim>
					<dim>3</dim>
				</port>
			</input>
			<output>
				<port id="2" precision="FP32">
					<dim>1</dim>
					<dim>108</dim>
					<dim>38</dim>
					<dim>38</dim>
				</port>
			</output>
		</layer>
		<layer id="195" name="data_add_91869191/copy_const401_const" type="Const" version="opset1">
			<data element_type="f32" offset="57048" shape="1,108,1,1" size="432"/>
			<output>
				<port id="1" precision="FP32">
					<dim>1</dim>
					<dim>108</dim>
					<dim>1</dim>
					<dim>1</dim>
				</port>
			</output>
		</layer>
		<layer id="196" name="Add1_8018/Fused_Add_" type="Add" version="opset1">
			<input>
				<port id="0">
					<dim>1</dim>
					<dim>108</dim>
					<dim>38</dim>
					<dim>38</dim>
				</port>
				<port id="1">
					<dim>1</dim>
					<dim>108</dim>
					<dim>1</dim>
					<dim>1</dim>
				</port>
			</input>
			<output>
				<port id="2" precision="FP32">
					<dim>1</dim>
					<dim>108</dim>
					<dim>38</dim>
					<dim>38</dim>
				</port>
			</output>
		</layer>
		<layer id="197" name="362" type="ReLU" version="opset1">
			<input>
				<port id="0">
					<dim>1</dim>
					<dim>108</dim>
					<dim>38</dim>
					<dim>38</dim>
				</port>
			</input>
			<output>
				<port id="1" precision="FP32">
					<dim>1</dim>
					<dim>108</dim>
					<dim>38</dim>
					<dim>38</dim>
				</port>
			</output>
		</layer>
		<layer id="198" name="12191223_const" type="Const" version="opset1">
			<data element_type="f32" offset="0" shape="" size="4"/>
			<output>
				<port id="1" precision="FP32"/>
			</output>
		</layer>
		<layer id="199" name="12201224_const" type="Const" version="opset1">
			<data element_type="f32" offset="57480" shape="" size="4"/>
			<output>
				<port id="1" precision="FP32"/>
			</output>
		</layer>
		<layer id="200" name="12211225_const" type="Const" version="opset1">
			<data element_type="f32" offset="0" shape="" size="4"/>
			<output>
				<port id="1" precision="FP32"/>
			</output>
		</layer>
		<layer id="201" name="12221226_const" type="Const" version="opset1">
			<data element_type="f32" offset="57480" shape="" size="4"/>
			<output>
				<port id="1" precision="FP32"/>
			</output>
		</layer>
		<layer id="202" name="363/fq_input_0" type="FakeQuantize" version="opset1">
			<data levels="256"/>
			<input>
				<port id="0">
					<dim>1</dim>
					<dim>108</dim>
					<dim>38</dim>
					<dim>38</dim>
				</port>
				<port id="1"/>
				<port id="2"/>
				<port id="3"/>
				<port id="4"/>
			</input>
			<output>
				<port id="5" precision="FP32">
					<dim>1</dim>
					<dim>108</dim>
					<dim>38</dim>
					<dim>38</dim>
				</port>
			</output>
		</layer>
		<layer id="203" name="Mul1_8029/Fused_Mul_1002910031_const404_const" type="Const" version="opset1">
			<data element_type="f32" offset="57484" shape="24,108,1,1" size="10368"/>
			<output>
				<port id="1" precision="FP32">
					<dim>24</dim>
					<dim>108</dim>
					<dim>1</dim>
					<dim>1</dim>
				</port>
			</output>
		</layer>
		<layer id="204" name="12291233_const" type="Const" version="opset1">
			<data element_type="f32" offset="67852" shape="24,1,1,1" size="96"/>
			<output>
				<port id="1" precision="FP32">
					<dim>24</dim>
					<dim>1</dim>
					<dim>1</dim>
					<dim>1</dim>
				</port>
			</output>
		</layer>
		<layer id="205" name="12301234_const" type="Const" version="opset1">
			<data element_type="f32" offset="67948" shape="24,1,1,1" size="96"/>
			<output>
				<port id="1" precision="FP32">
					<dim>24</dim>
					<dim>1</dim>
					<dim>1</dim>
					<dim>1</dim>
				</port>
			</output>
		</layer>
		<layer id="206" name="12311235_const" type="Const" version="opset1">
			<data element_type="f32" offset="67852" shape="24,1,1,1" size="96"/>
			<output>
				<port id="1" precision="FP32">
					<dim>24</dim>
					<dim>1</dim>
					<dim>1</dim>
					<dim>1</dim>
				</port>
			</output>
		</layer>
		<layer id="207" name="12321236_const" type="Const" version="opset1">
			<data element_type="f32" offset="67948" shape="24,1,1,1" size="96"/>
			<output>
				<port id="1" precision="FP32">
					<dim>24</dim>
					<dim>1</dim>
					<dim>1</dim>
					<dim>1</dim>
				</port>
			</output>
		</layer>
		<layer id="208" name="363/fq_weights_1" type="FakeQuantize" version="opset1">
			<data levels="255"/>
			<input>
				<port id="0">
					<dim>24</dim>
					<dim>108</dim>
					<dim>1</dim>
					<dim>1</dim>
				</port>
				<port id="1">
					<dim>24</dim>
					<dim>1</dim>
					<dim>1</dim>
					<dim>1</dim>
				</port>
				<port id="2">
					<dim>24</dim>
					<dim>1</dim>
					<dim>1</dim>
					<dim>1</dim>
				</port>
				<port id="3">
					<dim>24</dim>
					<dim>1</dim>
					<dim>1</dim>
					<dim>1</dim>
				</port>
				<port id="4">
					<dim>24</dim>
					<dim>1</dim>
					<dim>1</dim>
					<dim>1</dim>
				</port>
			</input>
			<output>
				<port id="5" precision="FP32">
					<dim>24</dim>
					<dim>108</dim>
					<dim>1</dim>
					<dim>1</dim>
				</port>
			</output>
		</layer>
		<layer id="209" name="363" type="Convolution" version="opset1">
			<data dilations="1,1" output_padding="0,0" pads_begin="0,0" pads_end="0,0" strides="1,1"/>
			<input>
				<port id="0">
					<dim>1</dim>
					<dim>108</dim>
					<dim>38</dim>
					<dim>38</dim>
				</port>
				<port id="1">
					<dim>24</dim>
					<dim>108</dim>
					<dim>1</dim>
					<dim>1</dim>
				</port>
			</input>
			<output>
				<port id="2" precision="FP32">
					<dim>1</dim>
					<dim>24</dim>
					<dim>38</dim>
					<dim>38</dim>
				</port>
			</output>
		</layer>
		<layer id="210" name="data_add_91949199/copy_const406_const" type="Const" version="opset1">
			<data element_type="f32" offset="68044" shape="1,24,1,1" size="96"/>
			<output>
				<port id="1" precision="FP32">
					<dim>1</dim>
					<dim>24</dim>
					<dim>1</dim>
					<dim>1</dim>
				</port>
			</output>
		</layer>
		<layer id="211" name="Add1_8030/Fused_Add_" type="Add" version="opset1">
			<input>
				<port id="0">
					<dim>1</dim>
					<dim>24</dim>
					<dim>38</dim>
					<dim>38</dim>
				</port>
				<port id="1">
					<dim>1</dim>
					<dim>24</dim>
					<dim>1</dim>
					<dim>1</dim>
				</port>
			</input>
			<output>
				<port id="2" precision="FP32">
					<dim>1</dim>
					<dim>24</dim>
					<dim>38</dim>
					<dim>38</dim>
				</port>
			</output>
		</layer>
		<layer id="212" name="10791083_const" type="Const" version="opset1">
			<data element_type="f32" offset="68140" shape="" size="4"/>
			<output>
				<port id="1" precision="FP32"/>
			</output>
		</layer>
		<layer id="213" name="10801084_const" type="Const" version="opset1">
			<data element_type="f32" offset="68144" shape="" size="4"/>
			<output>
				<port id="1" precision="FP32"/>
			</output>
		</layer>
		<layer id="214" name="10811085_const" type="Const" version="opset1">
			<data element_type="f32" offset="68140" shape="" size="4"/>
			<output>
				<port id="1" precision="FP32"/>
			</output>
		</layer>
		<layer id="215" name="10821086_const" type="Const" version="opset1">
			<data element_type="f32" offset="68144" shape="" size="4"/>
			<output>
				<port id="1" precision="FP32"/>
			</output>
		</layer>
		<layer id="216" name="365/fq_input_0" type="FakeQuantize" version="opset1">
			<data levels="256"/>
			<input>
				<port id="0">
					<dim>1</dim>
					<dim>24</dim>
					<dim>38</dim>
					<dim>38</dim>
				</port>
				<port id="1"/>
				<port id="2"/>
				<port id="3"/>
				<port id="4"/>
			</input>
			<output>
				<port id="5" precision="FP32">
					<dim>1</dim>
					<dim>24</dim>
					<dim>38</dim>
					<dim>38</dim>
				</port>
			</output>
		</layer>
		<layer id="217" name="Mul1_8041/Fused_Mul_1003310035_const408_const" type="Const" version="opset1">
			<data element_type="f32" offset="68148" shape="144,24,1,1" size="13824"/>
			<output>
				<port id="1" precision="FP32">
					<dim>144</dim>
					<dim>24</dim>
					<dim>1</dim>
					<dim>1</dim>
				</port>
			</output>
		</layer>
		<layer id="218" name="10891093_const" type="Const" version="opset1">
			<data element_type="f32" offset="81972" shape="144,1,1,1" size="576"/>
			<output>
				<port id="1" precision="FP32">
					<dim>144</dim>
					<dim>1</dim>
					<dim>1</dim>
					<dim>1</dim>
				</port>
			</output>
		</layer>
		<layer id="219" name="10901094_const" type="Const" version="opset1">
			<data element_type="f32" offset="82548" shape="144,1,1,1" size="576"/>
			<output>
				<port id="1" precision="FP32">
					<dim>144</dim>
					<dim>1</dim>
					<dim>1</dim>
					<dim>1</dim>
				</port>
			</output>
		</layer>
		<layer id="220" name="10911095_const" type="Const" version="opset1">
			<data element_type="f32" offset="81972" shape="144,1,1,1" size="576"/>
			<output>
				<port id="1" precision="FP32">
					<dim>144</dim>
					<dim>1</dim>
					<dim>1</dim>
					<dim>1</dim>
				</port>
			</output>
		</layer>
		<layer id="221" name="10921096_const" type="Const" version="opset1">
			<data element_type="f32" offset="82548" shape="144,1,1,1" size="576"/>
			<output>
				<port id="1" precision="FP32">
					<dim>144</dim>
					<dim>1</dim>
					<dim>1</dim>
					<dim>1</dim>
				</port>
			</output>
		</layer>
		<layer id="222" name="365/fq_weights_1" type="FakeQuantize" version="opset1">
			<data levels="255"/>
			<input>
				<port id="0">
					<dim>144</dim>
					<dim>24</dim>
					<dim>1</dim>
					<dim>1</dim>
				</port>
				<port id="1">
					<dim>144</dim>
					<dim>1</dim>
					<dim>1</dim>
					<dim>1</dim>
				</port>
				<port id="2">
					<dim>144</dim>
					<dim>1</dim>
					<dim>1</dim>
					<dim>1</dim>
				</port>
				<port id="3">
					<dim>144</dim>
					<dim>1</dim>
					<dim>1</dim>
					<dim>1</dim>
				</port>
				<port id="4">
					<dim>144</dim>
					<dim>1</dim>
					<dim>1</dim>
					<dim>1</dim>
				</port>
			</input>
			<output>
				<port id="5" precision="FP32">
					<dim>144</dim>
					<dim>24</dim>
					<dim>1</dim>
					<dim>1</dim>
				</port>
			</output>
		</layer>
		<layer id="223" name="365" type="Convolution" version="opset1">
			<data dilations="1,1" output_padding="0,0" pads_begin="0,0" pads_end="0,0" strides="1,1"/>
			<input>
				<port id="0">
					<dim>1</dim>
					<dim>24</dim>
					<dim>38</dim>
					<dim>38</dim>
				</port>
				<port id="1">
					<dim>144</dim>
					<dim>24</dim>
					<dim>1</dim>
					<dim>1</dim>
				</port>
			</input>
			<output>
				<port id="2" precision="FP32">
					<dim>1</dim>
					<dim>144</dim>
					<dim>38</dim>
					<dim>38</dim>
				</port>
			</output>
		</layer>
		<layer id="224" name="data_add_92029207/copy_const410_const" type="Const" version="opset1">
			<data element_type="f32" offset="83124" shape="1,144,1,1" size="576"/>
			<output>
				<port id="1" precision="FP32">
					<dim>1</dim>
					<dim>144</dim>
					<dim>1</dim>
					<dim>1</dim>
				</port>
			</output>
		</layer>
		<layer id="225" name="Add1_8042/Fused_Add_" type="Add" version="opset1">
			<input>
				<port id="0">
					<dim>1</dim>
					<dim>144</dim>
					<dim>38</dim>
					<dim>38</dim>
				</port>
				<port id="1">
					<dim>1</dim>
					<dim>144</dim>
					<dim>1</dim>
					<dim>1</dim>
				</port>
			</input>
			<output>
				<port id="2" precision="FP32">
					<dim>1</dim>
					<dim>144</dim>
					<dim>38</dim>
					<dim>38</dim>
				</port>
			</output>
		</layer>
		<layer id="226" name="367" type="ReLU" version="opset1">
			<input>
				<port id="0">
					<dim>1</dim>
					<dim>144</dim>
					<dim>38</dim>
					<dim>38</dim>
				</port>
			</input>
			<output>
				<port id="1" precision="FP32">
					<dim>1</dim>
					<dim>144</dim>
					<dim>38</dim>
					<dim>38</dim>
				</port>
			</output>
		</layer>
		<layer id="227" name="11791183_const" type="Const" version="opset1">
			<data element_type="f32" offset="83700" shape="1,144,1,1" size="576"/>
			<output>
				<port id="1" precision="FP32">
					<dim>1</dim>
					<dim>144</dim>
					<dim>1</dim>
					<dim>1</dim>
				</port>
			</output>
		</layer>
		<layer id="228" name="11801184_const" type="Const" version="opset1">
			<data element_type="f32" offset="84276" shape="1,144,1,1" size="576"/>
			<output>
				<port id="1" precision="FP32">
					<dim>1</dim>
					<dim>144</dim>
					<dim>1</dim>
					<dim>1</dim>
				</port>
			</output>
		</layer>
		<layer id="229" name="11811185_const" type="Const" version="opset1">
			<data element_type="f32" offset="83700" shape="1,144,1,1" size="576"/>
			<output>
				<port id="1" precision="FP32">
					<dim>1</dim>
					<dim>144</dim>
					<dim>1</dim>
					<dim>1</dim>
				</port>
			</output>
		</layer>
		<layer id="230" name="11821186_const" type="Const" version="opset1">
			<data element_type="f32" offset="84276" shape="1,144,1,1" size="576"/>
			<output>
				<port id="1" precision="FP32">
					<dim>1</dim>
					<dim>144</dim>
					<dim>1</dim>
					<dim>1</dim>
				</port>
			</output>
		</layer>
		<layer id="231" name="368/fq_input_0" type="FakeQuantize" version="opset1">
			<data levels="256"/>
			<input>
				<port id="0">
					<dim>1</dim>
					<dim>144</dim>
					<dim>38</dim>
					<dim>38</dim>
				</port>
				<port id="1">
					<dim>1</dim>
					<dim>144</dim>
					<dim>1</dim>
					<dim>1</dim>
				</port>
				<port id="2">
					<dim>1</dim>
					<dim>144</dim>
					<dim>1</dim>
					<dim>1</dim>
				</port>
				<port id="3">
					<dim>1</dim>
					<dim>144</dim>
					<dim>1</dim>
					<dim>1</dim>
				</port>
				<port id="4">
					<dim>1</dim>
					<dim>144</dim>
					<dim>1</dim>
					<dim>1</dim>
				</port>
			</input>
			<output>
				<port id="5" precision="FP32">
					<dim>1</dim>
					<dim>144</dim>
					<dim>38</dim>
					<dim>38</dim>
				</port>
			</output>
		</layer>
		<layer id="232" name="752656_const" type="Const" version="opset1">
			<data element_type="f32" offset="84852" shape="144,1,3,3" size="5184"/>
			<output>
				<port id="1" precision="FP32">
					<dim>144</dim>
					<dim>1</dim>
					<dim>3</dim>
					<dim>3</dim>
				</port>
			</output>
		</layer>
		<layer id="233" name="11891193_const" type="Const" version="opset1">
			<data element_type="f32" offset="90036" shape="144,1,1,1" size="576"/>
			<output>
				<port id="1" precision="FP32">
					<dim>144</dim>
					<dim>1</dim>
					<dim>1</dim>
					<dim>1</dim>
				</port>
			</output>
		</layer>
		<layer id="234" name="11901194_const" type="Const" version="opset1">
			<data element_type="f32" offset="90612" shape="144,1,1,1" size="576"/>
			<output>
				<port id="1" precision="FP32">
					<dim>144</dim>
					<dim>1</dim>
					<dim>1</dim>
					<dim>1</dim>
				</port>
			</output>
		</layer>
		<layer id="235" name="11911195_const" type="Const" version="opset1">
			<data element_type="f32" offset="90036" shape="144,1,1,1" size="576"/>
			<output>
				<port id="1" precision="FP32">
					<dim>144</dim>
					<dim>1</dim>
					<dim>1</dim>
					<dim>1</dim>
				</port>
			</output>
		</layer>
		<layer id="236" name="11921196_const" type="Const" version="opset1">
			<data element_type="f32" offset="90612" shape="144,1,1,1" size="576"/>
			<output>
				<port id="1" precision="FP32">
					<dim>144</dim>
					<dim>1</dim>
					<dim>1</dim>
					<dim>1</dim>
				</port>
			</output>
		</layer>
		<layer id="237" name="368/fq_weights_1" type="FakeQuantize" version="opset1">
			<data levels="255"/>
			<input>
				<port id="0">
					<dim>144</dim>
					<dim>1</dim>
					<dim>3</dim>
					<dim>3</dim>
				</port>
				<port id="1">
					<dim>144</dim>
					<dim>1</dim>
					<dim>1</dim>
					<dim>1</dim>
				</port>
				<port id="2">
					<dim>144</dim>
					<dim>1</dim>
					<dim>1</dim>
					<dim>1</dim>
				</port>
				<port id="3">
					<dim>144</dim>
					<dim>1</dim>
					<dim>1</dim>
					<dim>1</dim>
				</port>
				<port id="4">
					<dim>144</dim>
					<dim>1</dim>
					<dim>1</dim>
					<dim>1</dim>
				</port>
			</input>
			<output>
				<port id="5" precision="FP32">
					<dim>144</dim>
					<dim>1</dim>
					<dim>3</dim>
					<dim>3</dim>
				</port>
			</output>
		</layer>
		<layer id="238" name="4258/value4260_const" type="Const" version="opset1">
			<data element_type="i64" offset="91188" shape="5" size="40"/>
			<output>
				<port id="1" precision="I64">
					<dim>5</dim>
				</port>
			</output>
		</layer>
		<layer id="239" name="4258" type="Reshape" version="opset1">
			<data special_zero="True"/>
			<input>
				<port id="0">
					<dim>144</dim>
					<dim>1</dim>
					<dim>3</dim>
					<dim>3</dim>
				</port>
				<port id="1">
					<dim>5</dim>
				</port>
			</input>
			<output>
				<port id="2" precision="FP32">
					<dim>144</dim>
					<dim>1</dim>
					<dim>1</dim>
					<dim>3</dim>
					<dim>3</dim>
				</port>
			</output>
		</layer>
		<layer id="240" name="368" type="GroupConvolution" version="opset1">
			<data dilations="1,1" output_padding="0,0" pads_begin="1,1" pads_end="1,1" strides="1,1"/>
			<input>
				<port id="0">
					<dim>1</dim>
					<dim>144</dim>
					<dim>38</dim>
					<dim>38</dim>
				</port>
				<port id="1">
					<dim>144</dim>
					<dim>1</dim>
					<dim>1</dim>
					<dim>3</dim>
					<dim>3</dim>
				</port>
			</input>
			<output>
				<port id="2" precision="FP32">
					<dim>1</dim>
					<dim>144</dim>
					<dim>38</dim>
					<dim>38</dim>
				</port>
			</output>
		</layer>
		<layer id="241" name="data_add_92109215/copy_const415_const" type="Const" version="opset1">
			<data element_type="f32" offset="91228" shape="1,144,1,1" size="576"/>
			<output>
				<port id="1" precision="FP32">
					<dim>1</dim>
					<dim>144</dim>
					<dim>1</dim>
					<dim>1</dim>
				</port>
			</output>
		</layer>
		<layer id="242" name="Add1_8054/Fused_Add_" type="Add" version="opset1">
			<input>
				<port id="0">
					<dim>1</dim>
					<dim>144</dim>
					<dim>38</dim>
					<dim>38</dim>
				</port>
				<port id="1">
					<dim>1</dim>
					<dim>144</dim>
					<dim>1</dim>
					<dim>1</dim>
				</port>
			</input>
			<output>
				<port id="2" precision="FP32">
					<dim>1</dim>
					<dim>144</dim>
					<dim>38</dim>
					<dim>38</dim>
				</port>
			</output>
		</layer>
		<layer id="243" name="370" type="ReLU" version="opset1">
			<input>
				<port id="0">
					<dim>1</dim>
					<dim>144</dim>
					<dim>38</dim>
					<dim>38</dim>
				</port>
			</input>
			<output>
				<port id="1" precision="FP32">
					<dim>1</dim>
					<dim>144</dim>
					<dim>38</dim>
					<dim>38</dim>
				</port>
			</output>
		</layer>
		<layer id="244" name="10391043_const" type="Const" version="opset1">
			<data element_type="f32" offset="0" shape="" size="4"/>
			<output>
				<port id="1" precision="FP32"/>
			</output>
		</layer>
		<layer id="245" name="10401044_const" type="Const" version="opset1">
			<data element_type="f32" offset="91804" shape="" size="4"/>
			<output>
				<port id="1" precision="FP32"/>
			</output>
		</layer>
		<layer id="246" name="10411045_const" type="Const" version="opset1">
			<data element_type="f32" offset="0" shape="" size="4"/>
			<output>
				<port id="1" precision="FP32"/>
			</output>
		</layer>
		<layer id="247" name="10421046_const" type="Const" version="opset1">
			<data element_type="f32" offset="91804" shape="" size="4"/>
			<output>
				<port id="1" precision="FP32"/>
			</output>
		</layer>
		<layer id="248" name="371/fq_input_0" type="FakeQuantize" version="opset1">
			<data levels="256"/>
			<input>
				<port id="0">
					<dim>1</dim>
					<dim>144</dim>
					<dim>38</dim>
					<dim>38</dim>
				</port>
				<port id="1"/>
				<port id="2"/>
				<port id="3"/>
				<port id="4"/>
			</input>
			<output>
				<port id="5" precision="FP32">
					<dim>1</dim>
					<dim>144</dim>
					<dim>38</dim>
					<dim>38</dim>
				</port>
			</output>
		</layer>
		<layer id="249" name="Mul1_8065/Fused_Mul_1004110043_const418_const" type="Const" version="opset1">
			<data element_type="f32" offset="91808" shape="24,144,1,1" size="13824"/>
			<output>
				<port id="1" precision="FP32">
					<dim>24</dim>
					<dim>144</dim>
					<dim>1</dim>
					<dim>1</dim>
				</port>
			</output>
		</layer>
		<layer id="250" name="10491053_const" type="Const" version="opset1">
			<data element_type="f32" offset="105632" shape="24,1,1,1" size="96"/>
			<output>
				<port id="1" precision="FP32">
					<dim>24</dim>
					<dim>1</dim>
					<dim>1</dim>
					<dim>1</dim>
				</port>
			</output>
		</layer>
		<layer id="251" name="10501054_const" type="Const" version="opset1">
			<data element_type="f32" offset="105728" shape="24,1,1,1" size="96"/>
			<output>
				<port id="1" precision="FP32">
					<dim>24</dim>
					<dim>1</dim>
					<dim>1</dim>
					<dim>1</dim>
				</port>
			</output>
		</layer>
		<layer id="252" name="10511055_const" type="Const" version="opset1">
			<data element_type="f32" offset="105632" shape="24,1,1,1" size="96"/>
			<output>
				<port id="1" precision="FP32">
					<dim>24</dim>
					<dim>1</dim>
					<dim>1</dim>
					<dim>1</dim>
				</port>
			</output>
		</layer>
		<layer id="253" name="10521056_const" type="Const" version="opset1">
			<data element_type="f32" offset="105728" shape="24,1,1,1" size="96"/>
			<output>
				<port id="1" precision="FP32">
					<dim>24</dim>
					<dim>1</dim>
					<dim>1</dim>
					<dim>1</dim>
				</port>
			</output>
		</layer>
		<layer id="254" name="371/fq_weights_1" type="FakeQuantize" version="opset1">
			<data levels="255"/>
			<input>
				<port id="0">
					<dim>24</dim>
					<dim>144</dim>
					<dim>1</dim>
					<dim>1</dim>
				</port>
				<port id="1">
					<dim>24</dim>
					<dim>1</dim>
					<dim>1</dim>
					<dim>1</dim>
				</port>
				<port id="2">
					<dim>24</dim>
					<dim>1</dim>
					<dim>1</dim>
					<dim>1</dim>
				</port>
				<port id="3">
					<dim>24</dim>
					<dim>1</dim>
					<dim>1</dim>
					<dim>1</dim>
				</port>
				<port id="4">
					<dim>24</dim>
					<dim>1</dim>
					<dim>1</dim>
					<dim>1</dim>
				</port>
			</input>
			<output>
				<port id="5" precision="FP32">
					<dim>24</dim>
					<dim>144</dim>
					<dim>1</dim>
					<dim>1</dim>
				</port>
			</output>
		</layer>
		<layer id="255" name="371" type="Convolution" version="opset1">
			<data dilations="1,1" output_padding="0,0" pads_begin="0,0" pads_end="0,0" strides="1,1"/>
			<input>
				<port id="0">
					<dim>1</dim>
					<dim>144</dim>
					<dim>38</dim>
					<dim>38</dim>
				</port>
				<port id="1">
					<dim>24</dim>
					<dim>144</dim>
					<dim>1</dim>
					<dim>1</dim>
				</port>
			</input>
			<output>
				<port id="2" precision="FP32">
					<dim>1</dim>
					<dim>24</dim>
					<dim>38</dim>
					<dim>38</dim>
				</port>
			</output>
		</layer>
		<layer id="256" name="data_add_92189223/copy_const420_const" type="Const" version="opset1">
			<data element_type="f32" offset="105824" shape="1,24,1,1" size="96"/>
			<output>
				<port id="1" precision="FP32">
					<dim>1</dim>
					<dim>24</dim>
					<dim>1</dim>
					<dim>1</dim>
				</port>
			</output>
		</layer>
		<layer id="257" name="Add1_8066/Fused_Add_" type="Add" version="opset1">
			<input>
				<port id="0">
					<dim>1</dim>
					<dim>24</dim>
					<dim>38</dim>
					<dim>38</dim>
				</port>
				<port id="1">
					<dim>1</dim>
					<dim>24</dim>
					<dim>1</dim>
					<dim>1</dim>
				</port>
			</input>
			<output>
				<port id="2" precision="FP32">
					<dim>1</dim>
					<dim>24</dim>
					<dim>38</dim>
					<dim>38</dim>
				</port>
			</output>
		</layer>
		<layer id="258" name="16691673_const" type="Const" version="opset1">
			<data element_type="f32" offset="105920" shape="" size="4"/>
			<output>
				<port id="1" precision="FP32"/>
			</output>
		</layer>
		<layer id="259" name="16701674_const" type="Const" version="opset1">
			<data element_type="f32" offset="105924" shape="" size="4"/>
			<output>
				<port id="1" precision="FP32"/>
			</output>
		</layer>
		<layer id="260" name="16711675_const" type="Const" version="opset1">
			<data element_type="f32" offset="105920" shape="" size="4"/>
			<output>
				<port id="1" precision="FP32"/>
			</output>
		</layer>
		<layer id="261" name="16721676_const" type="Const" version="opset1">
			<data element_type="f32" offset="105924" shape="" size="4"/>
			<output>
				<port id="1" precision="FP32"/>
			</output>
		</layer>
		<layer id="262" name="373/fq_input_1" type="FakeQuantize" version="opset1">
			<data levels="256"/>
			<input>
				<port id="0">
					<dim>1</dim>
					<dim>24</dim>
					<dim>38</dim>
					<dim>38</dim>
				</port>
				<port id="1"/>
				<port id="2"/>
				<port id="3"/>
				<port id="4"/>
			</input>
			<output>
				<port id="5" precision="FP32">
					<dim>1</dim>
					<dim>24</dim>
					<dim>38</dim>
					<dim>38</dim>
				</port>
			</output>
		</layer>
		<layer id="263" name="373" type="Add" version="opset1">
			<input>
				<port id="0">
					<dim>1</dim>
					<dim>24</dim>
					<dim>38</dim>
					<dim>38</dim>
				</port>
				<port id="1">
					<dim>1</dim>
					<dim>24</dim>
					<dim>38</dim>
					<dim>38</dim>
				</port>
			</input>
			<output>
				<port id="2" precision="FP32">
					<dim>1</dim>
					<dim>24</dim>
					<dim>38</dim>
					<dim>38</dim>
				</port>
			</output>
		</layer>
		<layer id="264" name="18291833_const" type="Const" version="opset1">
			<data element_type="f32" offset="105928" shape="" size="4"/>
			<output>
				<port id="1" precision="FP32"/>
			</output>
		</layer>
		<layer id="265" name="18301834_const" type="Const" version="opset1">
			<data element_type="f32" offset="105932" shape="" size="4"/>
			<output>
				<port id="1" precision="FP32"/>
			</output>
		</layer>
		<layer id="266" name="18311835_const" type="Const" version="opset1">
			<data element_type="f32" offset="105928" shape="" size="4"/>
			<output>
				<port id="1" precision="FP32"/>
			</output>
		</layer>
		<layer id="267" name="18321836_const" type="Const" version="opset1">
			<data element_type="f32" offset="105932" shape="" size="4"/>
			<output>
				<port id="1" precision="FP32"/>
			</output>
		</layer>
		<layer id="268" name="374/fq_input_0" type="FakeQuantize" version="opset1">
			<data levels="256"/>
			<input>
				<port id="0">
					<dim>1</dim>
					<dim>24</dim>
					<dim>38</dim>
					<dim>38</dim>
				</port>
				<port id="1"/>
				<port id="2"/>
				<port id="3"/>
				<port id="4"/>
			</input>
			<output>
				<port id="5" precision="FP32">
					<dim>1</dim>
					<dim>24</dim>
					<dim>38</dim>
					<dim>38</dim>
				</port>
			</output>
		</layer>
		<layer id="269" name="Mul1_8077/Fused_Mul_1004510047_const423_const" type="Const" version="opset1">
			<data element_type="f32" offset="105936" shape="144,24,1,1" size="13824"/>
			<output>
				<port id="1" precision="FP32">
					<dim>144</dim>
					<dim>24</dim>
					<dim>1</dim>
					<dim>1</dim>
				</port>
			</output>
		</layer>
		<layer id="270" name="18391843_const" type="Const" version="opset1">
			<data element_type="f32" offset="119760" shape="144,1,1,1" size="576"/>
			<output>
				<port id="1" precision="FP32">
					<dim>144</dim>
					<dim>1</dim>
					<dim>1</dim>
					<dim>1</dim>
				</port>
			</output>
		</layer>
		<layer id="271" name="18401844_const" type="Const" version="opset1">
			<data element_type="f32" offset="120336" shape="144,1,1,1" size="576"/>
			<output>
				<port id="1" precision="FP32">
					<dim>144</dim>
					<dim>1</dim>
					<dim>1</dim>
					<dim>1</dim>
				</port>
			</output>
		</layer>
		<layer id="272" name="18411845_const" type="Const" version="opset1">
			<data element_type="f32" offset="119760" shape="144,1,1,1" size="576"/>
			<output>
				<port id="1" precision="FP32">
					<dim>144</dim>
					<dim>1</dim>
					<dim>1</dim>
					<dim>1</dim>
				</port>
			</output>
		</layer>
		<layer id="273" name="18421846_const" type="Const" version="opset1">
			<data element_type="f32" offset="120336" shape="144,1,1,1" size="576"/>
			<output>
				<port id="1" precision="FP32">
					<dim>144</dim>
					<dim>1</dim>
					<dim>1</dim>
					<dim>1</dim>
				</port>
			</output>
		</layer>
		<layer id="274" name="374/fq_weights_1" type="FakeQuantize" version="opset1">
			<data levels="255"/>
			<input>
				<port id="0">
					<dim>144</dim>
					<dim>24</dim>
					<dim>1</dim>
					<dim>1</dim>
				</port>
				<port id="1">
					<dim>144</dim>
					<dim>1</dim>
					<dim>1</dim>
					<dim>1</dim>
				</port>
				<port id="2">
					<dim>144</dim>
					<dim>1</dim>
					<dim>1</dim>
					<dim>1</dim>
				</port>
				<port id="3">
					<dim>144</dim>
					<dim>1</dim>
					<dim>1</dim>
					<dim>1</dim>
				</port>
				<port id="4">
					<dim>144</dim>
					<dim>1</dim>
					<dim>1</dim>
					<dim>1</dim>
				</port>
			</input>
			<output>
				<port id="5" precision="FP32">
					<dim>144</dim>
					<dim>24</dim>
					<dim>1</dim>
					<dim>1</dim>
				</port>
			</output>
		</layer>
		<layer id="275" name="374" type="Convolution" version="opset1">
			<data dilations="1,1" output_padding="0,0" pads_begin="0,0" pads_end="0,0" strides="1,1"/>
			<input>
				<port id="0">
					<dim>1</dim>
					<dim>24</dim>
					<dim>38</dim>
					<dim>38</dim>
				</port>
				<port id="1">
					<dim>144</dim>
					<dim>24</dim>
					<dim>1</dim>
					<dim>1</dim>
				</port>
			</input>
			<output>
				<port id="2" precision="FP32">
					<dim>1</dim>
					<dim>144</dim>
					<dim>38</dim>
					<dim>38</dim>
				</port>
			</output>
		</layer>
		<layer id="276" name="data_add_92269231/copy_const425_const" type="Const" version="opset1">
			<data element_type="f32" offset="120912" shape="1,144,1,1" size="576"/>
			<output>
				<port id="1" precision="FP32">
					<dim>1</dim>
					<dim>144</dim>
					<dim>1</dim>
					<dim>1</dim>
				</port>
			</output>
		</layer>
		<layer id="277" name="Add1_8078/Fused_Add_" type="Add" version="opset1">
			<input>
				<port id="0">
					<dim>1</dim>
					<dim>144</dim>
					<dim>38</dim>
					<dim>38</dim>
				</port>
				<port id="1">
					<dim>1</dim>
					<dim>144</dim>
					<dim>1</dim>
					<dim>1</dim>
				</port>
			</input>
			<output>
				<port id="2" precision="FP32">
					<dim>1</dim>
					<dim>144</dim>
					<dim>38</dim>
					<dim>38</dim>
				</port>
			</output>
		</layer>
		<layer id="278" name="376" type="ReLU" version="opset1">
			<input>
				<port id="0">
					<dim>1</dim>
					<dim>144</dim>
					<dim>38</dim>
					<dim>38</dim>
				</port>
			</input>
			<output>
				<port id="1" precision="FP32">
					<dim>1</dim>
					<dim>144</dim>
					<dim>38</dim>
					<dim>38</dim>
				</port>
			</output>
		</layer>
		<layer id="279" name="21692173_const" type="Const" version="opset1">
			<data element_type="f32" offset="83700" shape="1,144,1,1" size="576"/>
			<output>
				<port id="1" precision="FP32">
					<dim>1</dim>
					<dim>144</dim>
					<dim>1</dim>
					<dim>1</dim>
				</port>
			</output>
		</layer>
		<layer id="280" name="21702174_const" type="Const" version="opset1">
			<data element_type="f32" offset="121488" shape="1,144,1,1" size="576"/>
			<output>
				<port id="1" precision="FP32">
					<dim>1</dim>
					<dim>144</dim>
					<dim>1</dim>
					<dim>1</dim>
				</port>
			</output>
		</layer>
		<layer id="281" name="21712175_const" type="Const" version="opset1">
			<data element_type="f32" offset="83700" shape="1,144,1,1" size="576"/>
			<output>
				<port id="1" precision="FP32">
					<dim>1</dim>
					<dim>144</dim>
					<dim>1</dim>
					<dim>1</dim>
				</port>
			</output>
		</layer>
		<layer id="282" name="21722176_const" type="Const" version="opset1">
			<data element_type="f32" offset="121488" shape="1,144,1,1" size="576"/>
			<output>
				<port id="1" precision="FP32">
					<dim>1</dim>
					<dim>144</dim>
					<dim>1</dim>
					<dim>1</dim>
				</port>
			</output>
		</layer>
		<layer id="283" name="377/fq_input_0" type="FakeQuantize" version="opset1">
			<data levels="256"/>
			<input>
				<port id="0">
					<dim>1</dim>
					<dim>144</dim>
					<dim>38</dim>
					<dim>38</dim>
				</port>
				<port id="1">
					<dim>1</dim>
					<dim>144</dim>
					<dim>1</dim>
					<dim>1</dim>
				</port>
				<port id="2">
					<dim>1</dim>
					<dim>144</dim>
					<dim>1</dim>
					<dim>1</dim>
				</port>
				<port id="3">
					<dim>1</dim>
					<dim>144</dim>
					<dim>1</dim>
					<dim>1</dim>
				</port>
				<port id="4">
					<dim>1</dim>
					<dim>144</dim>
					<dim>1</dim>
					<dim>1</dim>
				</port>
			</input>
			<output>
				<port id="5" precision="FP32">
					<dim>1</dim>
					<dim>144</dim>
					<dim>38</dim>
					<dim>38</dim>
				</port>
			</output>
		</layer>
		<layer id="284" name="756658_const" type="Const" version="opset1">
			<data element_type="f32" offset="122064" shape="144,1,3,3" size="5184"/>
			<output>
				<port id="1" precision="FP32">
					<dim>144</dim>
					<dim>1</dim>
					<dim>3</dim>
					<dim>3</dim>
				</port>
			</output>
		</layer>
		<layer id="285" name="21792183_const" type="Const" version="opset1">
			<data element_type="f32" offset="127248" shape="144,1,1,1" size="576"/>
			<output>
				<port id="1" precision="FP32">
					<dim>144</dim>
					<dim>1</dim>
					<dim>1</dim>
					<dim>1</dim>
				</port>
			</output>
		</layer>
		<layer id="286" name="21802184_const" type="Const" version="opset1">
			<data element_type="f32" offset="127824" shape="144,1,1,1" size="576"/>
			<output>
				<port id="1" precision="FP32">
					<dim>144</dim>
					<dim>1</dim>
					<dim>1</dim>
					<dim>1</dim>
				</port>
			</output>
		</layer>
		<layer id="287" name="21812185_const" type="Const" version="opset1">
			<data element_type="f32" offset="127248" shape="144,1,1,1" size="576"/>
			<output>
				<port id="1" precision="FP32">
					<dim>144</dim>
					<dim>1</dim>
					<dim>1</dim>
					<dim>1</dim>
				</port>
			</output>
		</layer>
		<layer id="288" name="21822186_const" type="Const" version="opset1">
			<data element_type="f32" offset="127824" shape="144,1,1,1" size="576"/>
			<output>
				<port id="1" precision="FP32">
					<dim>144</dim>
					<dim>1</dim>
					<dim>1</dim>
					<dim>1</dim>
				</port>
			</output>
		</layer>
		<layer id="289" name="377/fq_weights_1" type="FakeQuantize" version="opset1">
			<data levels="255"/>
			<input>
				<port id="0">
					<dim>144</dim>
					<dim>1</dim>
					<dim>3</dim>
					<dim>3</dim>
				</port>
				<port id="1">
					<dim>144</dim>
					<dim>1</dim>
					<dim>1</dim>
					<dim>1</dim>
				</port>
				<port id="2">
					<dim>144</dim>
					<dim>1</dim>
					<dim>1</dim>
					<dim>1</dim>
				</port>
				<port id="3">
					<dim>144</dim>
					<dim>1</dim>
					<dim>1</dim>
					<dim>1</dim>
				</port>
				<port id="4">
					<dim>144</dim>
					<dim>1</dim>
					<dim>1</dim>
					<dim>1</dim>
				</port>
			</input>
			<output>
				<port id="5" precision="FP32">
					<dim>144</dim>
					<dim>1</dim>
					<dim>3</dim>
					<dim>3</dim>
				</port>
			</output>
		</layer>
		<layer id="290" name="4218/value4220_const" type="Const" version="opset1">
			<data element_type="i64" offset="91188" shape="5" size="40"/>
			<output>
				<port id="1" precision="I64">
					<dim>5</dim>
				</port>
			</output>
		</layer>
		<layer id="291" name="4218" type="Reshape" version="opset1">
			<data special_zero="True"/>
			<input>
				<port id="0">
					<dim>144</dim>
					<dim>1</dim>
					<dim>3</dim>
					<dim>3</dim>
				</port>
				<port id="1">
					<dim>5</dim>
				</port>
			</input>
			<output>
				<port id="2" precision="FP32">
					<dim>144</dim>
					<dim>1</dim>
					<dim>1</dim>
					<dim>3</dim>
					<dim>3</dim>
				</port>
			</output>
		</layer>
		<layer id="292" name="377" type="GroupConvolution" version="opset1">
			<data dilations="1,1" output_padding="0,0" pads_begin="1,1" pads_end="1,1" strides="1,1"/>
			<input>
				<port id="0">
					<dim>1</dim>
					<dim>144</dim>
					<dim>38</dim>
					<dim>38</dim>
				</port>
				<port id="1">
					<dim>144</dim>
					<dim>1</dim>
					<dim>1</dim>
					<dim>3</dim>
					<dim>3</dim>
				</port>
			</input>
			<output>
				<port id="2" precision="FP32">
					<dim>1</dim>
					<dim>144</dim>
					<dim>38</dim>
					<dim>38</dim>
				</port>
			</output>
		</layer>
		<layer id="293" name="data_add_92349239/copy_const430_const" type="Const" version="opset1">
			<data element_type="f32" offset="128400" shape="1,144,1,1" size="576"/>
			<output>
				<port id="1" precision="FP32">
					<dim>1</dim>
					<dim>144</dim>
					<dim>1</dim>
					<dim>1</dim>
				</port>
			</output>
		</layer>
		<layer id="294" name="Add1_8090/Fused_Add_" type="Add" version="opset1">
			<input>
				<port id="0">
					<dim>1</dim>
					<dim>144</dim>
					<dim>38</dim>
					<dim>38</dim>
				</port>
				<port id="1">
					<dim>1</dim>
					<dim>144</dim>
					<dim>1</dim>
					<dim>1</dim>
				</port>
			</input>
			<output>
				<port id="2" precision="FP32">
					<dim>1</dim>
					<dim>144</dim>
					<dim>38</dim>
					<dim>38</dim>
				</port>
			</output>
		</layer>
		<layer id="295" name="379" type="ReLU" version="opset1">
			<input>
				<port id="0">
					<dim>1</dim>
					<dim>144</dim>
					<dim>38</dim>
					<dim>38</dim>
				</port>
			</input>
			<output>
				<port id="1" precision="FP32">
					<dim>1</dim>
					<dim>144</dim>
					<dim>38</dim>
					<dim>38</dim>
				</port>
			</output>
		</layer>
		<layer id="296" name="18891893_const" type="Const" version="opset1">
			<data element_type="f32" offset="0" shape="" size="4"/>
			<output>
				<port id="1" precision="FP32"/>
			</output>
		</layer>
		<layer id="297" name="18901894_const" type="Const" version="opset1">
			<data element_type="f32" offset="128976" shape="" size="4"/>
			<output>
				<port id="1" precision="FP32"/>
			</output>
		</layer>
		<layer id="298" name="18911895_const" type="Const" version="opset1">
			<data element_type="f32" offset="0" shape="" size="4"/>
			<output>
				<port id="1" precision="FP32"/>
			</output>
		</layer>
		<layer id="299" name="18921896_const" type="Const" version="opset1">
			<data element_type="f32" offset="128976" shape="" size="4"/>
			<output>
				<port id="1" precision="FP32"/>
			</output>
		</layer>
		<layer id="300" name="380/fq_input_0" type="FakeQuantize" version="opset1">
			<data levels="256"/>
			<input>
				<port id="0">
					<dim>1</dim>
					<dim>144</dim>
					<dim>38</dim>
					<dim>38</dim>
				</port>
				<port id="1"/>
				<port id="2"/>
				<port id="3"/>
				<port id="4"/>
			</input>
			<output>
				<port id="5" precision="FP32">
					<dim>1</dim>
					<dim>144</dim>
					<dim>38</dim>
					<dim>38</dim>
				</port>
			</output>
		</layer>
		<layer id="301" name="Mul1_8101/Fused_Mul_1005310055_const433_const" type="Const" version="opset1">
			<data element_type="f32" offset="128980" shape="24,144,1,1" size="13824"/>
			<output>
				<port id="1" precision="FP32">
					<dim>24</dim>
					<dim>144</dim>
					<dim>1</dim>
					<dim>1</dim>
				</port>
			</output>
		</layer>
		<layer id="302" name="18991903_const" type="Const" version="opset1">
			<data element_type="f32" offset="142804" shape="24,1,1,1" size="96"/>
			<output>
				<port id="1" precision="FP32">
					<dim>24</dim>
					<dim>1</dim>
					<dim>1</dim>
					<dim>1</dim>
				</port>
			</output>
		</layer>
		<layer id="303" name="19001904_const" type="Const" version="opset1">
			<data element_type="f32" offset="142900" shape="24,1,1,1" size="96"/>
			<output>
				<port id="1" precision="FP32">
					<dim>24</dim>
					<dim>1</dim>
					<dim>1</dim>
					<dim>1</dim>
				</port>
			</output>
		</layer>
		<layer id="304" name="19011905_const" type="Const" version="opset1">
			<data element_type="f32" offset="142804" shape="24,1,1,1" size="96"/>
			<output>
				<port id="1" precision="FP32">
					<dim>24</dim>
					<dim>1</dim>
					<dim>1</dim>
					<dim>1</dim>
				</port>
			</output>
		</layer>
		<layer id="305" name="19021906_const" type="Const" version="opset1">
			<data element_type="f32" offset="142900" shape="24,1,1,1" size="96"/>
			<output>
				<port id="1" precision="FP32">
					<dim>24</dim>
					<dim>1</dim>
					<dim>1</dim>
					<dim>1</dim>
				</port>
			</output>
		</layer>
		<layer id="306" name="380/fq_weights_1" type="FakeQuantize" version="opset1">
			<data levels="255"/>
			<input>
				<port id="0">
					<dim>24</dim>
					<dim>144</dim>
					<dim>1</dim>
					<dim>1</dim>
				</port>
				<port id="1">
					<dim>24</dim>
					<dim>1</dim>
					<dim>1</dim>
					<dim>1</dim>
				</port>
				<port id="2">
					<dim>24</dim>
					<dim>1</dim>
					<dim>1</dim>
					<dim>1</dim>
				</port>
				<port id="3">
					<dim>24</dim>
					<dim>1</dim>
					<dim>1</dim>
					<dim>1</dim>
				</port>
				<port id="4">
					<dim>24</dim>
					<dim>1</dim>
					<dim>1</dim>
					<dim>1</dim>
				</port>
			</input>
			<output>
				<port id="5" precision="FP32">
					<dim>24</dim>
					<dim>144</dim>
					<dim>1</dim>
					<dim>1</dim>
				</port>
			</output>
		</layer>
		<layer id="307" name="380" type="Convolution" version="opset1">
			<data dilations="1,1" output_padding="0,0" pads_begin="0,0" pads_end="0,0" strides="1,1"/>
			<input>
				<port id="0">
					<dim>1</dim>
					<dim>144</dim>
					<dim>38</dim>
					<dim>38</dim>
				</port>
				<port id="1">
					<dim>24</dim>
					<dim>144</dim>
					<dim>1</dim>
					<dim>1</dim>
				</port>
			</input>
			<output>
				<port id="2" precision="FP32">
					<dim>1</dim>
					<dim>24</dim>
					<dim>38</dim>
					<dim>38</dim>
				</port>
			</output>
		</layer>
		<layer id="308" name="data_add_92429247/copy_const435_const" type="Const" version="opset1">
			<data element_type="f32" offset="142996" shape="1,24,1,1" size="96"/>
			<output>
				<port id="1" precision="FP32">
					<dim>1</dim>
					<dim>24</dim>
					<dim>1</dim>
					<dim>1</dim>
				</port>
			</output>
		</layer>
		<layer id="309" name="Add1_8102/Fused_Add_" type="Add" version="opset1">
			<input>
				<port id="0">
					<dim>1</dim>
					<dim>24</dim>
					<dim>38</dim>
					<dim>38</dim>
				</port>
				<port id="1">
					<dim>1</dim>
					<dim>24</dim>
					<dim>1</dim>
					<dim>1</dim>
				</port>
			</input>
			<output>
				<port id="2" precision="FP32">
					<dim>1</dim>
					<dim>24</dim>
					<dim>38</dim>
					<dim>38</dim>
				</port>
			</output>
		</layer>
		<layer id="310" name="19591963_const" type="Const" version="opset1">
			<data element_type="f32" offset="143092" shape="" size="4"/>
			<output>
				<port id="1" precision="FP32"/>
			</output>
		</layer>
		<layer id="311" name="19601964_const" type="Const" version="opset1">
			<data element_type="f32" offset="143096" shape="" size="4"/>
			<output>
				<port id="1" precision="FP32"/>
			</output>
		</layer>
		<layer id="312" name="19611965_const" type="Const" version="opset1">
			<data element_type="f32" offset="143092" shape="" size="4"/>
			<output>
				<port id="1" precision="FP32"/>
			</output>
		</layer>
		<layer id="313" name="19621966_const" type="Const" version="opset1">
			<data element_type="f32" offset="143096" shape="" size="4"/>
			<output>
				<port id="1" precision="FP32"/>
			</output>
		</layer>
		<layer id="314" name="382/fq_input_1" type="FakeQuantize" version="opset1">
			<data levels="256"/>
			<input>
				<port id="0">
					<dim>1</dim>
					<dim>24</dim>
					<dim>38</dim>
					<dim>38</dim>
				</port>
				<port id="1"/>
				<port id="2"/>
				<port id="3"/>
				<port id="4"/>
			</input>
			<output>
				<port id="5" precision="FP32">
					<dim>1</dim>
					<dim>24</dim>
					<dim>38</dim>
					<dim>38</dim>
				</port>
			</output>
		</layer>
		<layer id="315" name="382" type="Add" version="opset1">
			<input>
				<port id="0">
					<dim>1</dim>
					<dim>24</dim>
					<dim>38</dim>
					<dim>38</dim>
				</port>
				<port id="1">
					<dim>1</dim>
					<dim>24</dim>
					<dim>38</dim>
					<dim>38</dim>
				</port>
			</input>
			<output>
				<port id="2" precision="FP32">
					<dim>1</dim>
					<dim>24</dim>
					<dim>38</dim>
					<dim>38</dim>
				</port>
			</output>
		</layer>
		<layer id="316" name="17391743_const" type="Const" version="opset1">
			<data element_type="f32" offset="143100" shape="" size="4"/>
			<output>
				<port id="1" precision="FP32"/>
			</output>
		</layer>
		<layer id="317" name="17401744_const" type="Const" version="opset1">
			<data element_type="f32" offset="143104" shape="" size="4"/>
			<output>
				<port id="1" precision="FP32"/>
			</output>
		</layer>
		<layer id="318" name="17411745_const" type="Const" version="opset1">
			<data element_type="f32" offset="143100" shape="" size="4"/>
			<output>
				<port id="1" precision="FP32"/>
			</output>
		</layer>
		<layer id="319" name="17421746_const" type="Const" version="opset1">
			<data element_type="f32" offset="143104" shape="" size="4"/>
			<output>
				<port id="1" precision="FP32"/>
			</output>
		</layer>
		<layer id="320" name="383/fq_input_0" type="FakeQuantize" version="opset1">
			<data levels="256"/>
			<input>
				<port id="0">
					<dim>1</dim>
					<dim>24</dim>
					<dim>38</dim>
					<dim>38</dim>
				</port>
				<port id="1"/>
				<port id="2"/>
				<port id="3"/>
				<port id="4"/>
			</input>
			<output>
				<port id="5" precision="FP32">
					<dim>1</dim>
					<dim>24</dim>
					<dim>38</dim>
					<dim>38</dim>
				</port>
			</output>
		</layer>
		<layer id="321" name="Mul1_8113/Fused_Mul_1005710059_const438_const" type="Const" version="opset1">
			<data element_type="f32" offset="143108" shape="144,24,1,1" size="13824"/>
			<output>
				<port id="1" precision="FP32">
					<dim>144</dim>
					<dim>24</dim>
					<dim>1</dim>
					<dim>1</dim>
				</port>
			</output>
		</layer>
		<layer id="322" name="17491753_const" type="Const" version="opset1">
			<data element_type="f32" offset="156932" shape="144,1,1,1" size="576"/>
			<output>
				<port id="1" precision="FP32">
					<dim>144</dim>
					<dim>1</dim>
					<dim>1</dim>
					<dim>1</dim>
				</port>
			</output>
		</layer>
		<layer id="323" name="17501754_const" type="Const" version="opset1">
			<data element_type="f32" offset="157508" shape="144,1,1,1" size="576"/>
			<output>
				<port id="1" precision="FP32">
					<dim>144</dim>
					<dim>1</dim>
					<dim>1</dim>
					<dim>1</dim>
				</port>
			</output>
		</layer>
		<layer id="324" name="17511755_const" type="Const" version="opset1">
			<data element_type="f32" offset="156932" shape="144,1,1,1" size="576"/>
			<output>
				<port id="1" precision="FP32">
					<dim>144</dim>
					<dim>1</dim>
					<dim>1</dim>
					<dim>1</dim>
				</port>
			</output>
		</layer>
		<layer id="325" name="17521756_const" type="Const" version="opset1">
			<data element_type="f32" offset="157508" shape="144,1,1,1" size="576"/>
			<output>
				<port id="1" precision="FP32">
					<dim>144</dim>
					<dim>1</dim>
					<dim>1</dim>
					<dim>1</dim>
				</port>
			</output>
		</layer>
		<layer id="326" name="383/fq_weights_1" type="FakeQuantize" version="opset1">
			<data levels="255"/>
			<input>
				<port id="0">
					<dim>144</dim>
					<dim>24</dim>
					<dim>1</dim>
					<dim>1</dim>
				</port>
				<port id="1">
					<dim>144</dim>
					<dim>1</dim>
					<dim>1</dim>
					<dim>1</dim>
				</port>
				<port id="2">
					<dim>144</dim>
					<dim>1</dim>
					<dim>1</dim>
					<dim>1</dim>
				</port>
				<port id="3">
					<dim>144</dim>
					<dim>1</dim>
					<dim>1</dim>
					<dim>1</dim>
				</port>
				<port id="4">
					<dim>144</dim>
					<dim>1</dim>
					<dim>1</dim>
					<dim>1</dim>
				</port>
			</input>
			<output>
				<port id="5" precision="FP32">
					<dim>144</dim>
					<dim>24</dim>
					<dim>1</dim>
					<dim>1</dim>
				</port>
			</output>
		</layer>
		<layer id="327" name="383" type="Convolution" version="opset1">
			<data dilations="1,1" output_padding="0,0" pads_begin="0,0" pads_end="0,0" strides="1,1"/>
			<input>
				<port id="0">
					<dim>1</dim>
					<dim>24</dim>
					<dim>38</dim>
					<dim>38</dim>
				</port>
				<port id="1">
					<dim>144</dim>
					<dim>24</dim>
					<dim>1</dim>
					<dim>1</dim>
				</port>
			</input>
			<output>
				<port id="2" precision="FP32">
					<dim>1</dim>
					<dim>144</dim>
					<dim>38</dim>
					<dim>38</dim>
				</port>
			</output>
		</layer>
		<layer id="328" name="data_add_92509255/copy_const440_const" type="Const" version="opset1">
			<data element_type="f32" offset="158084" shape="1,144,1,1" size="576"/>
			<output>
				<port id="1" precision="FP32">
					<dim>1</dim>
					<dim>144</dim>
					<dim>1</dim>
					<dim>1</dim>
				</port>
			</output>
		</layer>
		<layer id="329" name="Add1_8114/Fused_Add_" type="Add" version="opset1">
			<input>
				<port id="0">
					<dim>1</dim>
					<dim>144</dim>
					<dim>38</dim>
					<dim>38</dim>
				</port>
				<port id="1">
					<dim>1</dim>
					<dim>144</dim>
					<dim>1</dim>
					<dim>1</dim>
				</port>
			</input>
			<output>
				<port id="2" precision="FP32">
					<dim>1</dim>
					<dim>144</dim>
					<dim>38</dim>
					<dim>38</dim>
				</port>
			</output>
		</layer>
		<layer id="330" name="385" type="ReLU" version="opset1">
			<input>
				<port id="0">
					<dim>1</dim>
					<dim>144</dim>
					<dim>38</dim>
					<dim>38</dim>
				</port>
			</input>
			<output>
				<port id="1" precision="FP32">
					<dim>1</dim>
					<dim>144</dim>
					<dim>38</dim>
					<dim>38</dim>
				</port>
			</output>
		</layer>
		<layer id="331" name="11191123_const" type="Const" version="opset1">
			<data element_type="f32" offset="83700" shape="1,144,1,1" size="576"/>
			<output>
				<port id="1" precision="FP32">
					<dim>1</dim>
					<dim>144</dim>
					<dim>1</dim>
					<dim>1</dim>
				</port>
			</output>
		</layer>
		<layer id="332" name="11201124_const" type="Const" version="opset1">
			<data element_type="f32" offset="158660" shape="1,144,1,1" size="576"/>
			<output>
				<port id="1" precision="FP32">
					<dim>1</dim>
					<dim>144</dim>
					<dim>1</dim>
					<dim>1</dim>
				</port>
			</output>
		</layer>
		<layer id="333" name="11211125_const" type="Const" version="opset1">
			<data element_type="f32" offset="83700" shape="1,144,1,1" size="576"/>
			<output>
				<port id="1" precision="FP32">
					<dim>1</dim>
					<dim>144</dim>
					<dim>1</dim>
					<dim>1</dim>
				</port>
			</output>
		</layer>
		<layer id="334" name="11221126_const" type="Const" version="opset1">
			<data element_type="f32" offset="158660" shape="1,144,1,1" size="576"/>
			<output>
				<port id="1" precision="FP32">
					<dim>1</dim>
					<dim>144</dim>
					<dim>1</dim>
					<dim>1</dim>
				</port>
			</output>
		</layer>
		<layer id="335" name="386/fq_input_0" type="FakeQuantize" version="opset1">
			<data levels="256"/>
			<input>
				<port id="0">
					<dim>1</dim>
					<dim>144</dim>
					<dim>38</dim>
					<dim>38</dim>
				</port>
				<port id="1">
					<dim>1</dim>
					<dim>144</dim>
					<dim>1</dim>
					<dim>1</dim>
				</port>
				<port id="2">
					<dim>1</dim>
					<dim>144</dim>
					<dim>1</dim>
					<dim>1</dim>
				</port>
				<port id="3">
					<dim>1</dim>
					<dim>144</dim>
					<dim>1</dim>
					<dim>1</dim>
				</port>
				<port id="4">
					<dim>1</dim>
					<dim>144</dim>
					<dim>1</dim>
					<dim>1</dim>
				</port>
			</input>
			<output>
				<port id="5" precision="FP32">
					<dim>1</dim>
					<dim>144</dim>
					<dim>38</dim>
					<dim>38</dim>
				</port>
			</output>
		</layer>
		<layer id="336" name="760660_const" type="Const" version="opset1">
			<data element_type="f32" offset="159236" shape="144,1,3,3" size="5184"/>
			<output>
				<port id="1" precision="FP32">
					<dim>144</dim>
					<dim>1</dim>
					<dim>3</dim>
					<dim>3</dim>
				</port>
			</output>
		</layer>
		<layer id="337" name="11291133_const" type="Const" version="opset1">
			<data element_type="f32" offset="164420" shape="144,1,1,1" size="576"/>
			<output>
				<port id="1" precision="FP32">
					<dim>144</dim>
					<dim>1</dim>
					<dim>1</dim>
					<dim>1</dim>
				</port>
			</output>
		</layer>
		<layer id="338" name="11301134_const" type="Const" version="opset1">
			<data element_type="f32" offset="164996" shape="144,1,1,1" size="576"/>
			<output>
				<port id="1" precision="FP32">
					<dim>144</dim>
					<dim>1</dim>
					<dim>1</dim>
					<dim>1</dim>
				</port>
			</output>
		</layer>
		<layer id="339" name="11311135_const" type="Const" version="opset1">
			<data element_type="f32" offset="164420" shape="144,1,1,1" size="576"/>
			<output>
				<port id="1" precision="FP32">
					<dim>144</dim>
					<dim>1</dim>
					<dim>1</dim>
					<dim>1</dim>
				</port>
			</output>
		</layer>
		<layer id="340" name="11321136_const" type="Const" version="opset1">
			<data element_type="f32" offset="164996" shape="144,1,1,1" size="576"/>
			<output>
				<port id="1" precision="FP32">
					<dim>144</dim>
					<dim>1</dim>
					<dim>1</dim>
					<dim>1</dim>
				</port>
			</output>
		</layer>
		<layer id="341" name="386/fq_weights_1" type="FakeQuantize" version="opset1">
			<data levels="255"/>
			<input>
				<port id="0">
					<dim>144</dim>
					<dim>1</dim>
					<dim>3</dim>
					<dim>3</dim>
				</port>
				<port id="1">
					<dim>144</dim>
					<dim>1</dim>
					<dim>1</dim>
					<dim>1</dim>
				</port>
				<port id="2">
					<dim>144</dim>
					<dim>1</dim>
					<dim>1</dim>
					<dim>1</dim>
				</port>
				<port id="3">
					<dim>144</dim>
					<dim>1</dim>
					<dim>1</dim>
					<dim>1</dim>
				</port>
				<port id="4">
					<dim>144</dim>
					<dim>1</dim>
					<dim>1</dim>
					<dim>1</dim>
				</port>
			</input>
			<output>
				<port id="5" precision="FP32">
					<dim>144</dim>
					<dim>1</dim>
					<dim>3</dim>
					<dim>3</dim>
				</port>
			</output>
		</layer>
		<layer id="342" name="4234/value4236_const" type="Const" version="opset1">
			<data element_type="i64" offset="91188" shape="5" size="40"/>
			<output>
				<port id="1" precision="I64">
					<dim>5</dim>
				</port>
			</output>
		</layer>
		<layer id="343" name="4234" type="Reshape" version="opset1">
			<data special_zero="True"/>
			<input>
				<port id="0">
					<dim>144</dim>
					<dim>1</dim>
					<dim>3</dim>
					<dim>3</dim>
				</port>
				<port id="1">
					<dim>5</dim>
				</port>
			</input>
			<output>
				<port id="2" precision="FP32">
					<dim>144</dim>
					<dim>1</dim>
					<dim>1</dim>
					<dim>3</dim>
					<dim>3</dim>
				</port>
			</output>
		</layer>
		<layer id="344" name="386" type="GroupConvolution" version="opset1">
			<data dilations="1,1" output_padding="0,0" pads_begin="1,1" pads_end="1,1" strides="2,2"/>
			<input>
				<port id="0">
					<dim>1</dim>
					<dim>144</dim>
					<dim>38</dim>
					<dim>38</dim>
				</port>
				<port id="1">
					<dim>144</dim>
					<dim>1</dim>
					<dim>1</dim>
					<dim>3</dim>
					<dim>3</dim>
				</port>
			</input>
			<output>
				<port id="2" precision="FP32">
					<dim>1</dim>
					<dim>144</dim>
					<dim>19</dim>
					<dim>19</dim>
				</port>
			</output>
		</layer>
		<layer id="345" name="data_add_92589263/copy_const445_const" type="Const" version="opset1">
			<data element_type="f32" offset="165572" shape="1,144,1,1" size="576"/>
			<output>
				<port id="1" precision="FP32">
					<dim>1</dim>
					<dim>144</dim>
					<dim>1</dim>
					<dim>1</dim>
				</port>
			</output>
		</layer>
		<layer id="346" name="Add1_8126/Fused_Add_" type="Add" version="opset1">
			<input>
				<port id="0">
					<dim>1</dim>
					<dim>144</dim>
					<dim>19</dim>
					<dim>19</dim>
				</port>
				<port id="1">
					<dim>1</dim>
					<dim>144</dim>
					<dim>1</dim>
					<dim>1</dim>
				</port>
			</input>
			<output>
				<port id="2" precision="FP32">
					<dim>1</dim>
					<dim>144</dim>
					<dim>19</dim>
					<dim>19</dim>
				</port>
			</output>
		</layer>
		<layer id="347" name="388" type="ReLU" version="opset1">
			<input>
				<port id="0">
					<dim>1</dim>
					<dim>144</dim>
					<dim>19</dim>
					<dim>19</dim>
				</port>
			</input>
			<output>
				<port id="1" precision="FP32">
					<dim>1</dim>
					<dim>144</dim>
					<dim>19</dim>
					<dim>19</dim>
				</port>
			</output>
		</layer>
		<layer id="348" name="13591363_const" type="Const" version="opset1">
			<data element_type="f32" offset="0" shape="" size="4"/>
			<output>
				<port id="1" precision="FP32"/>
			</output>
		</layer>
		<layer id="349" name="13601364_const" type="Const" version="opset1">
			<data element_type="f32" offset="166148" shape="" size="4"/>
			<output>
				<port id="1" precision="FP32"/>
			</output>
		</layer>
		<layer id="350" name="13611365_const" type="Const" version="opset1">
			<data element_type="f32" offset="0" shape="" size="4"/>
			<output>
				<port id="1" precision="FP32"/>
			</output>
		</layer>
		<layer id="351" name="13621366_const" type="Const" version="opset1">
			<data element_type="f32" offset="166148" shape="" size="4"/>
			<output>
				<port id="1" precision="FP32"/>
			</output>
		</layer>
		<layer id="352" name="389/fq_input_0" type="FakeQuantize" version="opset1">
			<data levels="256"/>
			<input>
				<port id="0">
					<dim>1</dim>
					<dim>144</dim>
					<dim>19</dim>
					<dim>19</dim>
				</port>
				<port id="1"/>
				<port id="2"/>
				<port id="3"/>
				<port id="4"/>
			</input>
			<output>
				<port id="5" precision="FP32">
					<dim>1</dim>
					<dim>144</dim>
					<dim>19</dim>
					<dim>19</dim>
				</port>
			</output>
		</layer>
		<layer id="353" name="Mul1_8137/Fused_Mul_1006510067_const448_const" type="Const" version="opset1">
			<data element_type="f32" offset="166152" shape="48,144,1,1" size="27648"/>
			<output>
				<port id="1" precision="FP32">
					<dim>48</dim>
					<dim>144</dim>
					<dim>1</dim>
					<dim>1</dim>
				</port>
			</output>
		</layer>
		<layer id="354" name="13691373_const" type="Const" version="opset1">
			<data element_type="f32" offset="193800" shape="48,1,1,1" size="192"/>
			<output>
				<port id="1" precision="FP32">
					<dim>48</dim>
					<dim>1</dim>
					<dim>1</dim>
					<dim>1</dim>
				</port>
			</output>
		</layer>
		<layer id="355" name="13701374_const" type="Const" version="opset1">
			<data element_type="f32" offset="193992" shape="48,1,1,1" size="192"/>
			<output>
				<port id="1" precision="FP32">
					<dim>48</dim>
					<dim>1</dim>
					<dim>1</dim>
					<dim>1</dim>
				</port>
			</output>
		</layer>
		<layer id="356" name="13711375_const" type="Const" version="opset1">
			<data element_type="f32" offset="193800" shape="48,1,1,1" size="192"/>
			<output>
				<port id="1" precision="FP32">
					<dim>48</dim>
					<dim>1</dim>
					<dim>1</dim>
					<dim>1</dim>
				</port>
			</output>
		</layer>
		<layer id="357" name="13721376_const" type="Const" version="opset1">
			<data element_type="f32" offset="193992" shape="48,1,1,1" size="192"/>
			<output>
				<port id="1" precision="FP32">
					<dim>48</dim>
					<dim>1</dim>
					<dim>1</dim>
					<dim>1</dim>
				</port>
			</output>
		</layer>
		<layer id="358" name="389/fq_weights_1" type="FakeQuantize" version="opset1">
			<data levels="255"/>
			<input>
				<port id="0">
					<dim>48</dim>
					<dim>144</dim>
					<dim>1</dim>
					<dim>1</dim>
				</port>
				<port id="1">
					<dim>48</dim>
					<dim>1</dim>
					<dim>1</dim>
					<dim>1</dim>
				</port>
				<port id="2">
					<dim>48</dim>
					<dim>1</dim>
					<dim>1</dim>
					<dim>1</dim>
				</port>
				<port id="3">
					<dim>48</dim>
					<dim>1</dim>
					<dim>1</dim>
					<dim>1</dim>
				</port>
				<port id="4">
					<dim>48</dim>
					<dim>1</dim>
					<dim>1</dim>
					<dim>1</dim>
				</port>
			</input>
			<output>
				<port id="5" precision="FP32">
					<dim>48</dim>
					<dim>144</dim>
					<dim>1</dim>
					<dim>1</dim>
				</port>
			</output>
		</layer>
		<layer id="359" name="389" type="Convolution" version="opset1">
			<data dilations="1,1" output_padding="0,0" pads_begin="0,0" pads_end="0,0" strides="1,1"/>
			<input>
				<port id="0">
					<dim>1</dim>
					<dim>144</dim>
					<dim>19</dim>
					<dim>19</dim>
				</port>
				<port id="1">
					<dim>48</dim>
					<dim>144</dim>
					<dim>1</dim>
					<dim>1</dim>
				</port>
			</input>
			<output>
				<port id="2" precision="FP32">
					<dim>1</dim>
					<dim>48</dim>
					<dim>19</dim>
					<dim>19</dim>
				</port>
			</output>
		</layer>
		<layer id="360" name="data_add_92669271/copy_const450_const" type="Const" version="opset1">
			<data element_type="f32" offset="194184" shape="1,48,1,1" size="192"/>
			<output>
				<port id="1" precision="FP32">
					<dim>1</dim>
					<dim>48</dim>
					<dim>1</dim>
					<dim>1</dim>
				</port>
			</output>
		</layer>
		<layer id="361" name="Add1_8138/Fused_Add_" type="Add" version="opset1">
			<input>
				<port id="0">
					<dim>1</dim>
					<dim>48</dim>
					<dim>19</dim>
					<dim>19</dim>
				</port>
				<port id="1">
					<dim>1</dim>
					<dim>48</dim>
					<dim>1</dim>
					<dim>1</dim>
				</port>
			</input>
			<output>
				<port id="2" precision="FP32">
					<dim>1</dim>
					<dim>48</dim>
					<dim>19</dim>
					<dim>19</dim>
				</port>
			</output>
		</layer>
		<layer id="362" name="20292033_const" type="Const" version="opset1">
			<data element_type="f32" offset="194376" shape="" size="4"/>
			<output>
				<port id="1" precision="FP32"/>
			</output>
		</layer>
		<layer id="363" name="20302034_const" type="Const" version="opset1">
			<data element_type="f32" offset="194380" shape="" size="4"/>
			<output>
				<port id="1" precision="FP32"/>
			</output>
		</layer>
		<layer id="364" name="20312035_const" type="Const" version="opset1">
			<data element_type="f32" offset="194376" shape="" size="4"/>
			<output>
				<port id="1" precision="FP32"/>
			</output>
		</layer>
		<layer id="365" name="20322036_const" type="Const" version="opset1">
			<data element_type="f32" offset="194380" shape="" size="4"/>
			<output>
				<port id="1" precision="FP32"/>
			</output>
		</layer>
		<layer id="366" name="391/fq_input_0" type="FakeQuantize" version="opset1">
			<data levels="256"/>
			<input>
				<port id="0">
					<dim>1</dim>
					<dim>48</dim>
					<dim>19</dim>
					<dim>19</dim>
				</port>
				<port id="1"/>
				<port id="2"/>
				<port id="3"/>
				<port id="4"/>
			</input>
			<output>
				<port id="5" precision="FP32">
					<dim>1</dim>
					<dim>48</dim>
					<dim>19</dim>
					<dim>19</dim>
				</port>
			</output>
		</layer>
		<layer id="367" name="Mul1_8149/Fused_Mul_1006910071_const452_const" type="Const" version="opset1">
			<data element_type="f32" offset="194384" shape="288,48,1,1" size="55296"/>
			<output>
				<port id="1" precision="FP32">
					<dim>288</dim>
					<dim>48</dim>
					<dim>1</dim>
					<dim>1</dim>
				</port>
			</output>
		</layer>
		<layer id="368" name="20392043_const" type="Const" version="opset1">
			<data element_type="f32" offset="249680" shape="288,1,1,1" size="1152"/>
			<output>
				<port id="1" precision="FP32">
					<dim>288</dim>
					<dim>1</dim>
					<dim>1</dim>
					<dim>1</dim>
				</port>
			</output>
		</layer>
		<layer id="369" name="20402044_const" type="Const" version="opset1">
			<data element_type="f32" offset="250832" shape="288,1,1,1" size="1152"/>
			<output>
				<port id="1" precision="FP32">
					<dim>288</dim>
					<dim>1</dim>
					<dim>1</dim>
					<dim>1</dim>
				</port>
			</output>
		</layer>
		<layer id="370" name="20412045_const" type="Const" version="opset1">
			<data element_type="f32" offset="249680" shape="288,1,1,1" size="1152"/>
			<output>
				<port id="1" precision="FP32">
					<dim>288</dim>
					<dim>1</dim>
					<dim>1</dim>
					<dim>1</dim>
				</port>
			</output>
		</layer>
		<layer id="371" name="20422046_const" type="Const" version="opset1">
			<data element_type="f32" offset="250832" shape="288,1,1,1" size="1152"/>
			<output>
				<port id="1" precision="FP32">
					<dim>288</dim>
					<dim>1</dim>
					<dim>1</dim>
					<dim>1</dim>
				</port>
			</output>
		</layer>
		<layer id="372" name="391/fq_weights_1" type="FakeQuantize" version="opset1">
			<data levels="255"/>
			<input>
				<port id="0">
					<dim>288</dim>
					<dim>48</dim>
					<dim>1</dim>
					<dim>1</dim>
				</port>
				<port id="1">
					<dim>288</dim>
					<dim>1</dim>
					<dim>1</dim>
					<dim>1</dim>
				</port>
				<port id="2">
					<dim>288</dim>
					<dim>1</dim>
					<dim>1</dim>
					<dim>1</dim>
				</port>
				<port id="3">
					<dim>288</dim>
					<dim>1</dim>
					<dim>1</dim>
					<dim>1</dim>
				</port>
				<port id="4">
					<dim>288</dim>
					<dim>1</dim>
					<dim>1</dim>
					<dim>1</dim>
				</port>
			</input>
			<output>
				<port id="5" precision="FP32">
					<dim>288</dim>
					<dim>48</dim>
					<dim>1</dim>
					<dim>1</dim>
				</port>
			</output>
		</layer>
		<layer id="373" name="391" type="Convolution" version="opset1">
			<data dilations="1,1" output_padding="0,0" pads_begin="0,0" pads_end="0,0" strides="1,1"/>
			<input>
				<port id="0">
					<dim>1</dim>
					<dim>48</dim>
					<dim>19</dim>
					<dim>19</dim>
				</port>
				<port id="1">
					<dim>288</dim>
					<dim>48</dim>
					<dim>1</dim>
					<dim>1</dim>
				</port>
			</input>
			<output>
				<port id="2" precision="FP32">
					<dim>1</dim>
					<dim>288</dim>
					<dim>19</dim>
					<dim>19</dim>
				</port>
			</output>
		</layer>
		<layer id="374" name="data_add_92749279/copy_const454_const" type="Const" version="opset1">
			<data element_type="f32" offset="251984" shape="1,288,1,1" size="1152"/>
			<output>
				<port id="1" precision="FP32">
					<dim>1</dim>
					<dim>288</dim>
					<dim>1</dim>
					<dim>1</dim>
				</port>
			</output>
		</layer>
		<layer id="375" name="Add1_8150/Fused_Add_" type="Add" version="opset1">
			<input>
				<port id="0">
					<dim>1</dim>
					<dim>288</dim>
					<dim>19</dim>
					<dim>19</dim>
				</port>
				<port id="1">
					<dim>1</dim>
					<dim>288</dim>
					<dim>1</dim>
					<dim>1</dim>
				</port>
			</input>
			<output>
				<port id="2" precision="FP32">
					<dim>1</dim>
					<dim>288</dim>
					<dim>19</dim>
					<dim>19</dim>
				</port>
			</output>
		</layer>
		<layer id="376" name="393" type="ReLU" version="opset1">
			<input>
				<port id="0">
					<dim>1</dim>
					<dim>288</dim>
					<dim>19</dim>
					<dim>19</dim>
				</port>
			</input>
			<output>
				<port id="1" precision="FP32">
					<dim>1</dim>
					<dim>288</dim>
					<dim>19</dim>
					<dim>19</dim>
				</port>
			</output>
		</layer>
		<layer id="377" name="15391543_const" type="Const" version="opset1">
			<data element_type="f32" offset="253136" shape="1,288,1,1" size="1152"/>
			<output>
				<port id="1" precision="FP32">
					<dim>1</dim>
					<dim>288</dim>
					<dim>1</dim>
					<dim>1</dim>
				</port>
			</output>
		</layer>
		<layer id="378" name="15401544_const" type="Const" version="opset1">
			<data element_type="f32" offset="254288" shape="1,288,1,1" size="1152"/>
			<output>
				<port id="1" precision="FP32">
					<dim>1</dim>
					<dim>288</dim>
					<dim>1</dim>
					<dim>1</dim>
				</port>
			</output>
		</layer>
		<layer id="379" name="15411545_const" type="Const" version="opset1">
			<data element_type="f32" offset="253136" shape="1,288,1,1" size="1152"/>
			<output>
				<port id="1" precision="FP32">
					<dim>1</dim>
					<dim>288</dim>
					<dim>1</dim>
					<dim>1</dim>
				</port>
			</output>
		</layer>
		<layer id="380" name="15421546_const" type="Const" version="opset1">
			<data element_type="f32" offset="254288" shape="1,288,1,1" size="1152"/>
			<output>
				<port id="1" precision="FP32">
					<dim>1</dim>
					<dim>288</dim>
					<dim>1</dim>
					<dim>1</dim>
				</port>
			</output>
		</layer>
		<layer id="381" name="394/fq_input_0" type="FakeQuantize" version="opset1">
			<data levels="256"/>
			<input>
				<port id="0">
					<dim>1</dim>
					<dim>288</dim>
					<dim>19</dim>
					<dim>19</dim>
				</port>
				<port id="1">
					<dim>1</dim>
					<dim>288</dim>
					<dim>1</dim>
					<dim>1</dim>
				</port>
				<port id="2">
					<dim>1</dim>
					<dim>288</dim>
					<dim>1</dim>
					<dim>1</dim>
				</port>
				<port id="3">
					<dim>1</dim>
					<dim>288</dim>
					<dim>1</dim>
					<dim>1</dim>
				</port>
				<port id="4">
					<dim>1</dim>
					<dim>288</dim>
					<dim>1</dim>
					<dim>1</dim>
				</port>
			</input>
			<output>
				<port id="5" precision="FP32">
					<dim>1</dim>
					<dim>288</dim>
					<dim>19</dim>
					<dim>19</dim>
				</port>
			</output>
		</layer>
		<layer id="382" name="764662_const" type="Const" version="opset1">
			<data element_type="f32" offset="255440" shape="288,1,3,3" size="10368"/>
			<output>
				<port id="1" precision="FP32">
					<dim>288</dim>
					<dim>1</dim>
					<dim>3</dim>
					<dim>3</dim>
				</port>
			</output>
		</layer>
		<layer id="383" name="15491553_const" type="Const" version="opset1">
			<data element_type="f32" offset="265808" shape="288,1,1,1" size="1152"/>
			<output>
				<port id="1" precision="FP32">
					<dim>288</dim>
					<dim>1</dim>
					<dim>1</dim>
					<dim>1</dim>
				</port>
			</output>
		</layer>
		<layer id="384" name="15501554_const" type="Const" version="opset1">
			<data element_type="f32" offset="266960" shape="288,1,1,1" size="1152"/>
			<output>
				<port id="1" precision="FP32">
					<dim>288</dim>
					<dim>1</dim>
					<dim>1</dim>
					<dim>1</dim>
				</port>
			</output>
		</layer>
		<layer id="385" name="15511555_const" type="Const" version="opset1">
			<data element_type="f32" offset="265808" shape="288,1,1,1" size="1152"/>
			<output>
				<port id="1" precision="FP32">
					<dim>288</dim>
					<dim>1</dim>
					<dim>1</dim>
					<dim>1</dim>
				</port>
			</output>
		</layer>
		<layer id="386" name="15521556_const" type="Const" version="opset1">
			<data element_type="f32" offset="266960" shape="288,1,1,1" size="1152"/>
			<output>
				<port id="1" precision="FP32">
					<dim>288</dim>
					<dim>1</dim>
					<dim>1</dim>
					<dim>1</dim>
				</port>
			</output>
		</layer>
		<layer id="387" name="394/fq_weights_1" type="FakeQuantize" version="opset1">
			<data levels="255"/>
			<input>
				<port id="0">
					<dim>288</dim>
					<dim>1</dim>
					<dim>3</dim>
					<dim>3</dim>
				</port>
				<port id="1">
					<dim>288</dim>
					<dim>1</dim>
					<dim>1</dim>
					<dim>1</dim>
				</port>
				<port id="2">
					<dim>288</dim>
					<dim>1</dim>
					<dim>1</dim>
					<dim>1</dim>
				</port>
				<port id="3">
					<dim>288</dim>
					<dim>1</dim>
					<dim>1</dim>
					<dim>1</dim>
				</port>
				<port id="4">
					<dim>288</dim>
					<dim>1</dim>
					<dim>1</dim>
					<dim>1</dim>
				</port>
			</input>
			<output>
				<port id="5" precision="FP32">
					<dim>288</dim>
					<dim>1</dim>
					<dim>3</dim>
					<dim>3</dim>
				</port>
			</output>
		</layer>
		<layer id="388" name="4266/value4268_const" type="Const" version="opset1">
			<data element_type="i64" offset="268112" shape="5" size="40"/>
			<output>
				<port id="1" precision="I64">
					<dim>5</dim>
				</port>
			</output>
		</layer>
		<layer id="389" name="4266" type="Reshape" version="opset1">
			<data special_zero="True"/>
			<input>
				<port id="0">
					<dim>288</dim>
					<dim>1</dim>
					<dim>3</dim>
					<dim>3</dim>
				</port>
				<port id="1">
					<dim>5</dim>
				</port>
			</input>
			<output>
				<port id="2" precision="FP32">
					<dim>288</dim>
					<dim>1</dim>
					<dim>1</dim>
					<dim>3</dim>
					<dim>3</dim>
				</port>
			</output>
		</layer>
		<layer id="390" name="394" type="GroupConvolution" version="opset1">
			<data dilations="1,1" output_padding="0,0" pads_begin="1,1" pads_end="1,1" strides="1,1"/>
			<input>
				<port id="0">
					<dim>1</dim>
					<dim>288</dim>
					<dim>19</dim>
					<dim>19</dim>
				</port>
				<port id="1">
					<dim>288</dim>
					<dim>1</dim>
					<dim>1</dim>
					<dim>3</dim>
					<dim>3</dim>
				</port>
			</input>
			<output>
				<port id="2" precision="FP32">
					<dim>1</dim>
					<dim>288</dim>
					<dim>19</dim>
					<dim>19</dim>
				</port>
			</output>
		</layer>
		<layer id="391" name="data_add_92829287/copy_const459_const" type="Const" version="opset1">
			<data element_type="f32" offset="268152" shape="1,288,1,1" size="1152"/>
			<output>
				<port id="1" precision="FP32">
					<dim>1</dim>
					<dim>288</dim>
					<dim>1</dim>
					<dim>1</dim>
				</port>
			</output>
		</layer>
		<layer id="392" name="Add1_8162/Fused_Add_" type="Add" version="opset1">
			<input>
				<port id="0">
					<dim>1</dim>
					<dim>288</dim>
					<dim>19</dim>
					<dim>19</dim>
				</port>
				<port id="1">
					<dim>1</dim>
					<dim>288</dim>
					<dim>1</dim>
					<dim>1</dim>
				</port>
			</input>
			<output>
				<port id="2" precision="FP32">
					<dim>1</dim>
					<dim>288</dim>
					<dim>19</dim>
					<dim>19</dim>
				</port>
			</output>
		</layer>
		<layer id="393" name="396" type="ReLU" version="opset1">
			<input>
				<port id="0">
					<dim>1</dim>
					<dim>288</dim>
					<dim>19</dim>
					<dim>19</dim>
				</port>
			</input>
			<output>
				<port id="1" precision="FP32">
					<dim>1</dim>
					<dim>288</dim>
					<dim>19</dim>
					<dim>19</dim>
				</port>
			</output>
		</layer>
		<layer id="394" name="13991403_const" type="Const" version="opset1">
			<data element_type="f32" offset="0" shape="" size="4"/>
			<output>
				<port id="1" precision="FP32"/>
			</output>
		</layer>
		<layer id="395" name="14001404_const" type="Const" version="opset1">
			<data element_type="f32" offset="269304" shape="" size="4"/>
			<output>
				<port id="1" precision="FP32"/>
			</output>
		</layer>
		<layer id="396" name="14011405_const" type="Const" version="opset1">
			<data element_type="f32" offset="0" shape="" size="4"/>
			<output>
				<port id="1" precision="FP32"/>
			</output>
		</layer>
		<layer id="397" name="14021406_const" type="Const" version="opset1">
			<data element_type="f32" offset="269304" shape="" size="4"/>
			<output>
				<port id="1" precision="FP32"/>
			</output>
		</layer>
		<layer id="398" name="397/fq_input_0" type="FakeQuantize" version="opset1">
			<data levels="256"/>
			<input>
				<port id="0">
					<dim>1</dim>
					<dim>288</dim>
					<dim>19</dim>
					<dim>19</dim>
				</port>
				<port id="1"/>
				<port id="2"/>
				<port id="3"/>
				<port id="4"/>
			</input>
			<output>
				<port id="5" precision="FP32">
					<dim>1</dim>
					<dim>288</dim>
					<dim>19</dim>
					<dim>19</dim>
				</port>
			</output>
		</layer>
		<layer id="399" name="Mul1_8173/Fused_Mul_1007710079_const462_const" type="Const" version="opset1">
			<data element_type="f32" offset="269308" shape="48,288,1,1" size="55296"/>
			<output>
				<port id="1" precision="FP32">
					<dim>48</dim>
					<dim>288</dim>
					<dim>1</dim>
					<dim>1</dim>
				</port>
			</output>
		</layer>
		<layer id="400" name="14091413_const" type="Const" version="opset1">
			<data element_type="f32" offset="324604" shape="48,1,1,1" size="192"/>
			<output>
				<port id="1" precision="FP32">
					<dim>48</dim>
					<dim>1</dim>
					<dim>1</dim>
					<dim>1</dim>
				</port>
			</output>
		</layer>
		<layer id="401" name="14101414_const" type="Const" version="opset1">
			<data element_type="f32" offset="324796" shape="48,1,1,1" size="192"/>
			<output>
				<port id="1" precision="FP32">
					<dim>48</dim>
					<dim>1</dim>
					<dim>1</dim>
					<dim>1</dim>
				</port>
			</output>
		</layer>
		<layer id="402" name="14111415_const" type="Const" version="opset1">
			<data element_type="f32" offset="324604" shape="48,1,1,1" size="192"/>
			<output>
				<port id="1" precision="FP32">
					<dim>48</dim>
					<dim>1</dim>
					<dim>1</dim>
					<dim>1</dim>
				</port>
			</output>
		</layer>
		<layer id="403" name="14121416_const" type="Const" version="opset1">
			<data element_type="f32" offset="324796" shape="48,1,1,1" size="192"/>
			<output>
				<port id="1" precision="FP32">
					<dim>48</dim>
					<dim>1</dim>
					<dim>1</dim>
					<dim>1</dim>
				</port>
			</output>
		</layer>
		<layer id="404" name="397/fq_weights_1" type="FakeQuantize" version="opset1">
			<data levels="255"/>
			<input>
				<port id="0">
					<dim>48</dim>
					<dim>288</dim>
					<dim>1</dim>
					<dim>1</dim>
				</port>
				<port id="1">
					<dim>48</dim>
					<dim>1</dim>
					<dim>1</dim>
					<dim>1</dim>
				</port>
				<port id="2">
					<dim>48</dim>
					<dim>1</dim>
					<dim>1</dim>
					<dim>1</dim>
				</port>
				<port id="3">
					<dim>48</dim>
					<dim>1</dim>
					<dim>1</dim>
					<dim>1</dim>
				</port>
				<port id="4">
					<dim>48</dim>
					<dim>1</dim>
					<dim>1</dim>
					<dim>1</dim>
				</port>
			</input>
			<output>
				<port id="5" precision="FP32">
					<dim>48</dim>
					<dim>288</dim>
					<dim>1</dim>
					<dim>1</dim>
				</port>
			</output>
		</layer>
		<layer id="405" name="397" type="Convolution" version="opset1">
			<data dilations="1,1" output_padding="0,0" pads_begin="0,0" pads_end="0,0" strides="1,1"/>
			<input>
				<port id="0">
					<dim>1</dim>
					<dim>288</dim>
					<dim>19</dim>
					<dim>19</dim>
				</port>
				<port id="1">
					<dim>48</dim>
					<dim>288</dim>
					<dim>1</dim>
					<dim>1</dim>
				</port>
			</input>
			<output>
				<port id="2" precision="FP32">
					<dim>1</dim>
					<dim>48</dim>
					<dim>19</dim>
					<dim>19</dim>
				</port>
			</output>
		</layer>
		<layer id="406" name="data_add_92909295/copy_const464_const" type="Const" version="opset1">
			<data element_type="f32" offset="324988" shape="1,48,1,1" size="192"/>
			<output>
				<port id="1" precision="FP32">
					<dim>1</dim>
					<dim>48</dim>
					<dim>1</dim>
					<dim>1</dim>
				</port>
			</output>
		</layer>
		<layer id="407" name="Add1_8174/Fused_Add_" type="Add" version="opset1">
			<input>
				<port id="0">
					<dim>1</dim>
					<dim>48</dim>
					<dim>19</dim>
					<dim>19</dim>
				</port>
				<port id="1">
					<dim>1</dim>
					<dim>48</dim>
					<dim>1</dim>
					<dim>1</dim>
				</port>
			</input>
			<output>
				<port id="2" precision="FP32">
					<dim>1</dim>
					<dim>48</dim>
					<dim>19</dim>
					<dim>19</dim>
				</port>
			</output>
		</layer>
		<layer id="408" name="19191923_const" type="Const" version="opset1">
			<data element_type="f32" offset="325180" shape="" size="4"/>
			<output>
				<port id="1" precision="FP32"/>
			</output>
		</layer>
		<layer id="409" name="19201924_const" type="Const" version="opset1">
			<data element_type="f32" offset="325184" shape="" size="4"/>
			<output>
				<port id="1" precision="FP32"/>
			</output>
		</layer>
		<layer id="410" name="19211925_const" type="Const" version="opset1">
			<data element_type="f32" offset="325180" shape="" size="4"/>
			<output>
				<port id="1" precision="FP32"/>
			</output>
		</layer>
		<layer id="411" name="19221926_const" type="Const" version="opset1">
			<data element_type="f32" offset="325184" shape="" size="4"/>
			<output>
				<port id="1" precision="FP32"/>
			</output>
		</layer>
		<layer id="412" name="399/fq_input_1" type="FakeQuantize" version="opset1">
			<data levels="256"/>
			<input>
				<port id="0">
					<dim>1</dim>
					<dim>48</dim>
					<dim>19</dim>
					<dim>19</dim>
				</port>
				<port id="1"/>
				<port id="2"/>
				<port id="3"/>
				<port id="4"/>
			</input>
			<output>
				<port id="5" precision="FP32">
					<dim>1</dim>
					<dim>48</dim>
					<dim>19</dim>
					<dim>19</dim>
				</port>
			</output>
		</layer>
		<layer id="413" name="399" type="Add" version="opset1">
			<input>
				<port id="0">
					<dim>1</dim>
					<dim>48</dim>
					<dim>19</dim>
					<dim>19</dim>
				</port>
				<port id="1">
					<dim>1</dim>
					<dim>48</dim>
					<dim>19</dim>
					<dim>19</dim>
				</port>
…
		<edge from-layer="216" from-port="5" to-layer="263" to-port="0"/>
		<edge from-layer="262" from-port="5" to-layer="263" to-port="1"/>
		<edge from-layer="263" from-port="2" to-layer="268" to-port="0"/>
		<edge from-layer="264" from-port="1" to-layer="268" to-port="1"/>
		<edge from-layer="265" from-port="1" to-layer="268" to-port="2"/>
		<edge from-layer="266" from-port="1" to-layer="268" to-port="3"/>
		<edge from-layer="267" from-port="1" to-layer="268" to-port="4"/>
		<edge from-layer="269" from-port="1" to-layer="274" to-port="0"/>
		<edge from-layer="270" from-port="1" to-layer="274" to-port="1"/>
		<edge from-layer="271" from-port="1" to-layer="274" to-port="2"/>
		<edge from-layer="272" from-port="1" to-layer="274" to-port="3"/>
		<edge from-layer="273" from-port="1" to-layer="274" to-port="4"/>
		<edge from-layer="268" from-port="5" to-layer="275" to-port="0"/>
		<edge from-layer="274" from-port="5" to-layer="275" to-port="1"/>
		<edge from-layer="275" from-port="2" to-layer="277" to-port="0"/>
		<edge from-layer="276" from-port="1" to-layer="277" to-port="1"/>
		<edge from-layer="277" from-port="2" to-layer="278" to-port="0"/>
		<edge from-layer="278" from-port="1" to-layer="283" to-port="0"/>
		<edge from-layer="279" from-port="1" to-layer="283" to-port="1"/>
		<edge from-layer="280" from-port="1" to-layer="283" to-port="2"/>
		<edge from-layer="281" from-port="1" to-layer="283" to-port="3"/>
		<edge from-layer="282" from-port="1" to-layer="283" to-port="4"/>
		<edge from-layer="284" from-port="1" to-layer="289" to-port="0"/>
		<edge from-layer="285" from-port="1" to-layer="289" to-port="1"/>
		<edge from-layer="286" from-port="1" to-layer="289" to-port="2"/>
		<edge from-layer="287" from-port="1" to-layer="289" to-port="3"/>
		<edge from-layer="288" from-port="1" to-layer="289" to-port="4"/>
		<edge from-layer="289" from-port="5" to-layer="291" to-port="0"/>
		<edge from-layer="290" from-port="1" to-layer="291" to-port="1"/>
		<edge from-layer="283" from-port="5" to-layer="292" to-port="0"/>
		<edge from-layer="291" from-port="2" to-layer="292" to-port="1"/>
		<edge from-layer="292" from-port="2" to-layer="294" to-port="0"/>
		<edge from-layer="293" from-port="1" to-layer="294" to-port="1"/>
		<edge from-layer="294" from-port="2" to-layer="295" to-port="0"/>
		<edge from-layer="295" from-port="1" to-layer="300" to-port="0"/>
		<edge from-layer="296" from-port="1" to-layer="300" to-port="1"/>
		<edge from-layer="297" from-port="1" to-layer="300" to-port="2"/>
		<edge from-layer="298" from-port="1" to-layer="300" to-port="3"/>
		<edge from-layer="299" from-port="1" to-layer="300" to-port="4"/>
		<edge from-layer="301" from-port="1" to-layer="306" to-port="0"/>
		<edge from-layer="302" from-port="1" to-layer="306" to-port="1"/>
		<edge from-layer="303" from-port="1" to-layer="306" to-port="2"/>
		<edge from-layer="304" from-port="1" to-layer="306" to-port="3"/>
		<edge from-layer="305" from-port="1" to-layer="306" to-port="4"/>
		<edge from-layer="300" from-port="5" to-layer="307" to-port="0"/>
		<edge from-layer="306" from-port="5" to-layer="307" to-port="1"/>
		<edge from-layer="307" from-port="2" to-layer="309" to-port="0"/>
		<edge from-layer="308" from-port="1" to-layer="309" to-port="1"/>
		<edge from-layer="309" from-port="2" to-layer="314" to-port="0"/>
		<edge from-layer="310" from-port="1" to-layer="314" to-port="1"/>
		<edge from-layer="311" from-port="1" to-layer="314" to-port="2"/>
		<edge from-layer="312" from-port="1" to-layer="314" to-port="3"/>
		<edge from-layer="313" from-port="1" to-layer="314" to-port="4"/>
		<edge from-layer="268" from-port="5" to-layer="315" to-port="0"/>
		<edge from-layer="314" from-port="5" to-layer="315" to-port="1"/>
		<edge from-layer="315" from-port="2" to-layer="320" to-port="0"/>
		<edge from-layer="316" from-port="1" to-layer="320" to-port="1"/>
		<edge from-layer="317" from-port="1" to-layer="320" to-port="2"/>
		<edge from-layer="318" from-port="1" to-layer="320" to-port="3"/>
		<edge from-layer="319" from-port="1" to-layer="320" to-port="4"/>
		<edge from-layer="321" from-port="1" to-layer="326" to-port="0"/>
		<edge from-layer="322" from-port="1" to-layer="326" to-port="1"/>
		<edge from-layer="323" from-port="1" to-layer="326" to-port="2"/>
		<edge from-layer="324" from-port="1" to-layer="326" to-port="3"/>
		<edge from-layer="325" from-port="1" to-layer="326" to-port="4"/>
		<edge from-layer="320" from-port="5" to-layer="327" to-port="0"/>
		<edge from-layer="326" from-port="5" to-layer="327" to-port="1"/>
		<edge from-layer="327" from-port="2" to-layer="329" to-port="0"/>
		<edge from-layer="328" from-port="1" to-layer="329" to-port="1"/>
		<edge from-layer="329" from-port="2" to-layer="330" to-port="0"/>
		<edge from-layer="330" from-port="1" to-layer="335" to-port="0"/>
		<edge from-layer="331" from-port="1" to-layer="335" to-port="1"/>
		<edge from-layer="332" from-port="1" to-layer="335" to-port="2"/>
		<edge from-layer="333" from-port="1" to-layer="335" to-port="3"/>
		<edge from-layer="334" from-port="1" to-layer="335" to-port="4"/>
		<edge from-layer="336" from-port="1" to-layer="341" to-port="0"/>
		<edge from-layer="337" from-port="1" to-layer="341" to-port="1"/>
		<edge from-layer="338" from-port="1" to-layer="341" to-port="2"/>
		<edge from-layer="339" from-port="1" to-layer="341" to-port="3"/>
		<edge from-layer="340" from-port="1" to-layer="341" to-port="4"/>
		<edge from-layer="341" from-port="5" to-layer="343" to-port="0"/>
		<edge from-layer="342" from-port="1" to-layer="343" to-port="1"/>
		<edge from-layer="335" from-port="5" to-layer="344" to-port="0"/>
		<edge from-layer="343" from-port="2" to-layer="344" to-port="1"/>
		<edge from-layer="344" from-port="2" to-layer="346" to-port="0"/>
		<edge from-layer="345" from-port="1" to-layer="346" to-port="1"/>
		<edge from-layer="346" from-port="2" to-layer="347" to-port="0"/>
		<edge from-layer="347" from-port="1" to-layer="352" to-port="0"/>
		<edge from-layer="348" from-port="1" to-layer="352" to-port="1"/>
		<edge from-layer="349" from-port="1" to-layer="352" to-port="2"/>
		<edge from-layer="350" from-port="1" to-layer="352" to-port="3"/>
		<edge from-layer="351" from-port="1" to-layer="352" to-port="4"/>
		<edge from-layer="353" from-port="1" to-layer="358" to-port="0"/>
		<edge from-layer="354" from-port="1" to-layer="358" to-port="1"/>
		<edge from-layer="355" from-port="1" to-layer="358" to-port="2"/>
		<edge from-layer="356" from-port="1" to-layer="358" to-port="3"/>
		<edge from-layer="357" from-port="1" to-layer="358" to-port="4"/>
		<edge from-layer="352" from-port="5" to-layer="359" to-port="0"/>
		<edge from-layer="358" from-port="5" to-layer="359" to-port="1"/>
		<edge from-layer="359" from-port="2" to-layer="361" to-port="0"/>
		<edge from-layer="360" from-port="1" to-layer="361" to-port="1"/>
		<edge from-layer="361" from-port="2" to-layer="366" to-port="0"/>
		<edge from-layer="362" from-port="1" to-layer="366" to-port="1"/>
		<edge from-layer="363" from-port="1" to-layer="366" to-port="2"/>
		<edge from-layer="364" from-port="1" to-layer="366" to-port="3"/>
		<edge from-layer="365" from-port="1" to-layer="366" to-port="4"/>
		<edge from-layer="367" from-port="1" to-layer="372" to-port="0"/>
		<edge from-layer="368" from-port="1" to-layer="372" to-port="1"/>
		<edge from-layer="369" from-port="1" to-layer="372" to-port="2"/>
		<edge from-layer="370" from-port="1" to-layer="372" to-port="3"/>
		<edge from-layer="371" from-port="1" to-layer="372" to-port="4"/>
		<edge from-layer="366" from-port="5" to-layer="373" to-port="0"/>
		<edge from-layer="372" from-port="5" to-layer="373" to-port="1"/>
		<edge from-layer="373" from-port="2" to-layer="375" to-port="0"/>
		<edge from-layer="374" from-port="1" to-layer="375" to-port="1"/>
		<edge from-layer="375" from-port="2" to-layer="376" to-port="0"/>
		<edge from-layer="376" from-port="1" to-layer="381" to-port="0"/>
		<edge from-layer="377" from-port="1" to-layer="381" to-port="1"/>
		<edge from-layer="378" from-port="1" to-layer="381" to-port="2"/>
		<edge from-layer="379" from-port="1" to-layer="381" to-port="3"/>
		<edge from-layer="380" from-port="1" to-layer="381" to-port="4"/>
		<edge from-layer="382" from-port="1" to-layer="387" to-port="0"/>
		<edge from-layer="383" from-port="1" to-layer="387" to-port="1"/>
		<edge from-layer="384" from-port="1" to-layer="387" to-port="2"/>
		<edge from-layer="385" from-port="1" to-layer="387" to-port="3"/>
		<edge from-layer="386" from-port="1" to-layer="387" to-port="4"/>
		<edge from-layer="387" from-port="5" to-layer="389" to-port="0"/>
		<edge from-layer="388" from-port="1" to-layer="389" to-port="1"/>
		<edge from-layer="381" from-port="5" to-layer="390" to-port="0"/>
		<edge from-layer="389" from-port="2" to-layer="390" to-port="1"/>
		<edge from-layer="390" from-port="2" to-layer="392" to-port="0"/>
		<edge from-layer="391" from-port="1" to-layer="392" to-port="1"/>
		<edge from-layer="392" from-port="2" to-layer="393" to-port="0"/>
		<edge from-layer="393" from-port="1" to-layer="398" to-port="0"/>
		<edge from-layer="394" from-port="1" to-layer="398" to-port="1"/>
		<edge from-layer="395" from-port="1" to-layer="398" to-port="2"/>
		<edge from-layer="396" from-port="1" to-layer="398" to-port="3"/>
		<edge from-layer="397" from-port="1" to-layer="398" to-port="4"/>
		<edge from-layer="399" from-port="1" to-layer="404" to-port="0"/>
		<edge from-layer="400" from-port="1" to-layer="404" to-port="1"/>
		<edge from-layer="401" from-port="1" to-layer="404" to-port="2"/>
		<edge from-layer="402" from-port="1" to-layer="404" to-port="3"/>
		<edge from-layer="403" from-port="1" to-layer="404" to-port="4"/>
		<edge from-layer="398" from-port="5" to-layer="405" to-port="0"/>
		<edge from-layer="404" from-port="5" to-layer="405" to-port="1"/>
		<edge from-layer="405" from-port="2" to-layer="407" to-port="0"/>
		<edge from-layer="406" from-port="1" to-layer="407" to-port="1"/>
		<edge from-layer="407" from-port="2" to-layer="412" to-port="0"/>
		<edge from-layer="408" from-port="1" to-layer="412" to-port="1"/>
		<edge from-layer="409" from-port="1" to-layer="412" to-port="2"/>
		<edge from-layer="410" from-port="1" to-layer="412" to-port="3"/>
		<edge from-layer="411" from-port="1" to-layer="412" to-port="4"/>
		<edge from-layer="366" from-port="5" to-layer="413" to-port="0"/>
		<edge from-layer="412" from-port="5" to-layer="413" to-port="1"/>
		<edge from-layer="413" from-port="2" to-layer="418" to-port="0"/>
		<edge from-layer="414" from-port="1" to-layer="418" to-port="1"/>
		<edge from-layer="415" from-port="1" to-layer="418" to-port="2"/>
		<edge from-layer="416" from-port="1" to-layer="418" to-port="3"/>
		<edge from-layer="417" from-port="1" to-layer="418" to-port="4"/>
		<edge from-layer="419" from-port="1" to-layer="424" to-port="0"/>
		<edge from-layer="420" from-port="1" to-layer="424" to-port="1"/>
		<edge from-layer="421" from-port="1" to-layer="424" to-port="2"/>
		<edge from-layer="422" from-port="1" to-layer="424" to-port="3"/>
		<edge from-layer="423" from-port="1" to-layer="424" to-port="4"/>
		<edge from-layer="418" from-port="5" to-layer="425" to-port="0"/>
		<edge from-layer="424" from-port="5" to-layer="425" to-port="1"/>
		<edge from-layer="425" from-port="2" to-layer="427" to-port="0"/>
		<edge from-layer="426" from-port="1" to-layer="427" to-port="1"/>
		<edge from-layer="427" from-port="2" to-layer="428" to-port="0"/>
		<edge from-layer="428" from-port="1" to-layer="433" to-port="0"/>
		<edge from-layer="429" from-port="1" to-layer="433" to-port="1"/>
		<edge from-layer="430" from-port="1" to-layer="433" to-port="2"/>
		<edge from-layer="431" from-port="1" to-layer="433" to-port="3"/>
		<edge from-layer="432" from-port="1" to-layer="433" to-port="4"/>
		<edge from-layer="434" from-port="1" to-layer="439" to-port="0"/>
		<edge from-layer="435" from-port="1" to-layer="439" to-port="1"/>
		<edge from-layer="436" from-port="1" to-layer="439" to-port="2"/>
		<edge from-layer="437" from-port="1" to-layer="439" to-port="3"/>
		<edge from-layer="438" from-port="1" to-layer="439" to-port="4"/>
		<edge from-layer="439" from-port="5" to-layer="441" to-port="0"/>
		<edge from-layer="440" from-port="1" to-layer="441" to-port="1"/>
		<edge from-layer="433" from-port="5" to-layer="442" to-port="0"/>
		<edge from-layer="441" from-port="2" to-layer="442" to-port="1"/>
		<edge from-layer="442" from-port="2" to-layer="444" to-port="0"/>
		<edge from-layer="443" from-port="1" to-layer="444" to-port="1"/>
		<edge from-layer="444" from-port="2" to-layer="445" to-port="0"/>
		<edge from-layer="445" from-port="1" to-layer="450" to-port="0"/>
		<edge from-layer="446" from-port="1" to-layer="450" to-port="1"/>
		<edge from-layer="447" from-port="1" to-layer="450" to-port="2"/>
		<edge from-layer="448" from-port="1" to-layer="450" to-port="3"/>
		<edge from-layer="449" from-port="1" to-layer="450" to-port="4"/>
		<edge from-layer="451" from-port="1" to-layer="456" to-port="0"/>
		<edge from-layer="452" from-port="1" to-layer="456" to-port="1"/>
		<edge from-layer="453" from-port="1" to-layer="456" to-port="2"/>
		<edge from-layer="454" from-port="1" to-layer="456" to-port="3"/>
		<edge from-layer="455" from-port="1" to-layer="456" to-port="4"/>
		<edge from-layer="450" from-port="5" to-layer="457" to-port="0"/>
		<edge from-layer="456" from-port="5" to-layer="457" to-port="1"/>
		<edge from-layer="457" from-port="2" to-layer="459" to-port="0"/>
		<edge from-layer="458" from-port="1" to-layer="459" to-port="1"/>
		<edge from-layer="459" from-port="2" to-layer="464" to-port="0"/>
		<edge from-layer="460" from-port="1" to-layer="464" to-port="1"/>
		<edge from-layer="461" from-port="1" to-layer="464" to-port="2"/>
		<edge from-layer="462" from-port="1" to-layer="464" to-port="3"/>
		<edge from-layer="463" from-port="1" to-layer="464" to-port="4"/>
		<edge from-layer="418" from-port="5" to-layer="465" to-port="0"/>
		<edge from-layer="464" from-port="5" to-layer="465" to-port="1"/>
		<edge from-layer="465" from-port="2" to-layer="470" to-port="0"/>
		<edge from-layer="466" from-port="1" to-layer="470" to-port="1"/>
		<edge from-layer="467" from-port="1" to-layer="470" to-port="2"/>
		<edge from-layer="468" from-port="1" to-layer="470" to-port="3"/>
		<edge from-layer="469" from-port="1" to-layer="470" to-port="4"/>
		<edge from-layer="471" from-port="1" to-layer="476" to-port="0"/>
		<edge from-layer="472" from-port="1" to-layer="476" to-port="1"/>
		<edge from-layer="473" from-port="1" to-layer="476" to-port="2"/>
		<edge from-layer="474" from-port="1" to-layer="476" to-port="3"/>
		<edge from-layer="475" from-port="1" to-layer="476" to-port="4"/>
		<edge from-layer="470" from-port="5" to-layer="477" to-port="0"/>
		<edge from-layer="476" from-port="5" to-layer="477" to-port="1"/>
		<edge from-layer="477" from-port="2" to-layer="479" to-port="0"/>
		<edge from-layer="478" from-port="1" to-layer="479" to-port="1"/>
		<edge from-layer="479" from-port="2" to-layer="480" to-port="0"/>
		<edge from-layer="480" from-port="1" to-layer="485" to-port="0"/>
		<edge from-layer="481" from-port="1" to-layer="485" to-port="1"/>
		<edge from-layer="482" from-port="1" to-layer="485" to-port="2"/>
		<edge from-layer="483" from-port="1" to-layer="485" to-port="3"/>
		<edge from-layer="484" from-port="1" to-layer="485" to-port="4"/>
		<edge from-layer="486" from-port="1" to-layer="491" to-port="0"/>
		<edge from-layer="487" from-port="1" to-layer="491" to-port="1"/>
		<edge from-layer="488" from-port="1" to-layer="491" to-port="2"/>
		<edge from-layer="489" from-port="1" to-layer="491" to-port="3"/>
		<edge from-layer="490" from-port="1" to-layer="491" to-port="4"/>
		<edge from-layer="491" from-port="5" to-layer="493" to-port="0"/>
		<edge from-layer="492" from-port="1" to-layer="493" to-port="1"/>
		<edge from-layer="485" from-port="5" to-layer="494" to-port="0"/>
		<edge from-layer="493" from-port="2" to-layer="494" to-port="1"/>
		<edge from-layer="494" from-port="2" to-layer="496" to-port="0"/>
		<edge from-layer="495" from-port="1" to-layer="496" to-port="1"/>
		<edge from-layer="496" from-port="2" to-layer="497" to-port="0"/>
		<edge from-layer="497" from-port="1" to-layer="502" to-port="0"/>
		<edge from-layer="498" from-port="1" to-layer="502" to-port="1"/>
		<edge from-layer="499" from-port="1" to-layer="502" to-port="2"/>
		<edge from-layer="500" from-port="1" to-layer="502" to-port="3"/>
		<edge from-layer="501" from-port="1" to-layer="502" to-port="4"/>
		<edge from-layer="503" from-port="1" to-layer="508" to-port="0"/>
		<edge from-layer="504" from-port="1" to-layer="508" to-port="1"/>
		<edge from-layer="505" from-port="1" to-layer="508" to-port="2"/>
		<edge from-layer="506" from-port="1" to-layer="508" to-port="3"/>
		<edge from-layer="507" from-port="1" to-layer="508" to-port="4"/>
		<edge from-layer="502" from-port="5" to-layer="509" to-port="0"/>
		<edge from-layer="508" from-port="5" to-layer="509" to-port="1"/>
		<edge from-layer="509" from-port="2" to-layer="511" to-port="0"/>
		<edge from-layer="510" from-port="1" to-layer="511" to-port="1"/>
		<edge from-layer="511" from-port="2" to-layer="516" to-port="0"/>
		<edge from-layer="512" from-port="1" to-layer="516" to-port="1"/>
		<edge from-layer="513" from-port="1" to-layer="516" to-port="2"/>
		<edge from-layer="514" from-port="1" to-layer="516" to-port="3"/>
		<edge from-layer="515" from-port="1" to-layer="516" to-port="4"/>
		<edge from-layer="470" from-port="5" to-layer="517" to-port="0"/>
		<edge from-layer="516" from-port="5" to-layer="517" to-port="1"/>
		<edge from-layer="517" from-port="2" to-layer="522" to-port="0"/>
		<edge from-layer="518" from-port="1" to-layer="522" to-port="1"/>
		<edge from-layer="519" from-port="1" to-layer="522" to-port="2"/>
		<edge from-layer="520" from-port="1" to-layer="522" to-port="3"/>
		<edge from-layer="521" from-port="1" to-layer="522" to-port="4"/>
		<edge from-layer="523" from-port="1" to-layer="528" to-port="0"/>
		<edge from-layer="524" from-port="1" to-layer="528" to-port="1"/>
		<edge from-layer="525" from-port="1" to-layer="528" to-port="2"/>
		<edge from-layer="526" from-port="1" to-layer="528" to-port="3"/>
		<edge from-layer="527" from-port="1" to-layer="528" to-port="4"/>
		<edge from-layer="522" from-port="5" to-layer="529" to-port="0"/>
		<edge from-layer="528" from-port="5" to-layer="529" to-port="1"/>
		<edge from-layer="529" from-port="2" to-layer="531" to-port="0"/>
		<edge from-layer="530" from-port="1" to-layer="531" to-port="1"/>
		<edge from-layer="531" from-port="2" to-layer="532" to-port="0"/>
		<edge from-layer="532" from-port="1" to-layer="537" to-port="0"/>
		<edge from-layer="533" from-port="1" to-layer="537" to-port="1"/>
		<edge from-layer="534" from-port="1" to-layer="537" to-port="2"/>
		<edge from-layer="535" from-port="1" to-layer="537" to-port="3"/>
		<edge from-layer="536" from-port="1" to-layer="537" to-port="4"/>
		<edge from-layer="538" from-port="1" to-layer="543" to-port="0"/>
		<edge from-layer="539" from-port="1" to-layer="543" to-port="1"/>
		<edge from-layer="540" from-port="1" to-layer="543" to-port="2"/>
		<edge from-layer="541" from-port="1" to-layer="543" to-port="3"/>
		<edge from-layer="542" from-port="1" to-layer="543" to-port="4"/>
		<edge from-layer="543" from-port="5" to-layer="545" to-port="0"/>
		<edge from-layer="544" from-port="1" to-layer="545" to-port="1"/>
		<edge from-layer="537" from-port="5" to-layer="546" to-port="0"/>
		<edge from-layer="545" from-port="2" to-layer="546" to-port="1"/>
		<edge from-layer="546" from-port="2" to-layer="548" to-port="0"/>
		<edge from-layer="547" from-port="1" to-layer="548" to-port="1"/>
		<edge from-layer="548" from-port="2" to-layer="549" to-port="0"/>
		<edge from-layer="549" from-port="1" to-layer="554" to-port="0"/>
		<edge from-layer="550" from-port="1" to-layer="554" to-port="1"/>
		<edge from-layer="551" from-port="1" to-layer="554" to-port="2"/>
		<edge from-layer="552" from-port="1" to-layer="554" to-port="3"/>
		<edge from-layer="553" from-port="1" to-layer="554" to-port="4"/>
		<edge from-layer="555" from-port="1" to-layer="560" to-port="0"/>
		<edge from-layer="556" from-port="1" to-layer="560" to-port="1"/>
		<edge from-layer="557" from-port="1" to-layer="560" to-port="2"/>
		<edge from-layer="558" from-port="1" to-layer="560" to-port="3"/>
		<edge from-layer="559" from-port="1" to-layer="560" to-port="4"/>
		<edge from-layer="554" from-port="5" to-layer="561" to-port="0"/>
		<edge from-layer="560" from-port="5" to-layer="561" to-port="1"/>
		<edge from-layer="561" from-port="2" to-layer="563" to-port="0"/>
		<edge from-layer="562" from-port="1" to-layer="563" to-port="1"/>
		<edge from-layer="563" from-port="2" to-layer="568" to-port="0"/>
		<edge from-layer="564" from-port="1" to-layer="568" to-port="1"/>
		<edge from-layer="565" from-port="1" to-layer="568" to-port="2"/>
		<edge from-layer="566" from-port="1" to-layer="568" to-port="3"/>
		<edge from-layer="567" from-port="1" to-layer="568" to-port="4"/>
		<edge from-layer="569" from-port="1" to-layer="574" to-port="0"/>
		<edge from-layer="570" from-port="1" to-layer="574" to-port="1"/>
		<edge from-layer="571" from-port="1" to-layer="574" to-port="2"/>
		<edge from-layer="572" from-port="1" to-layer="574" to-port="3"/>
		<edge from-layer="573" from-port="1" to-layer="574" to-port="4"/>
		<edge from-layer="568" from-port="5" to-layer="575" to-port="0"/>
		<edge from-layer="574" from-port="5" to-layer="575" to-port="1"/>
		<edge from-layer="575" from-port="2" to-layer="577" to-port="0"/>
		<edge from-layer="576" from-port="1" to-layer="577" to-port="1"/>
		<edge from-layer="577" from-port="2" to-layer="578" to-port="0"/>
		<edge from-layer="578" from-port="1" to-layer="583" to-port="0"/>
		<edge from-layer="579" from-port="1" to-layer="583" to-port="1"/>
		<edge from-layer="580" from-port="1" to-layer="583" to-port="2"/>
		<edge from-layer="581" from-port="1" to-layer="583" to-port="3"/>
		<edge from-layer="582" from-port="1" to-layer="583" to-port="4"/>
		<edge from-layer="584" from-port="1" to-layer="589" to-port="0"/>
		<edge from-layer="585" from-port="1" to-layer="589" to-port="1"/>
		<edge from-layer="586" from-port="1" to-layer="589" to-port="2"/>
		<edge from-layer="587" from-port="1" to-layer="589" to-port="3"/>
		<edge from-layer="588" from-port="1" to-layer="589" to-port="4"/>
		<edge from-layer="589" from-port="5" to-layer="591" to-port="0"/>
		<edge from-layer="590" from-port="1" to-layer="591" to-port="1"/>
		<edge from-layer="583" from-port="5" to-layer="592" to-port="0"/>
		<edge from-layer="591" from-port="2" to-layer="592" to-port="1"/>
		<edge from-layer="592" from-port="2" to-layer="594" to-port="0"/>
		<edge from-layer="593" from-port="1" to-layer="594" to-port="1"/>
		<edge from-layer="594" from-port="2" to-layer="595" to-port="0"/>
		<edge from-layer="595" from-port="1" to-layer="600" to-port="0"/>
		<edge from-layer="596" from-port="1" to-layer="600" to-port="1"/>
		<edge from-layer="597" from-port="1" to-layer="600" to-port="2"/>
		<edge from-layer="598" from-port="1" to-layer="600" to-port="3"/>
		<edge from-layer="599" from-port="1" to-layer="600" to-port="4"/>
		<edge from-layer="601" from-port="1" to-layer="606" to-port="0"/>
		<edge from-layer="602" from-port="1" to-layer="606" to-port="1"/>
		<edge from-layer="603" from-port="1" to-layer="606" to-port="2"/>
		<edge from-layer="604" from-port="1" to-layer="606" to-port="3"/>
		<edge from-layer="605" from-port="1" to-layer="606" to-port="4"/>
		<edge from-layer="600" from-port="5" to-layer="607" to-port="0"/>
		<edge from-layer="606" from-port="5" to-layer="607" to-port="1"/>
		<edge from-layer="607" from-port="2" to-layer="609" to-port="0"/>
		<edge from-layer="608" from-port="1" to-layer="609" to-port="1"/>
		<edge from-layer="609" from-port="2" to-layer="614" to-port="0"/>
		<edge from-layer="610" from-port="1" to-layer="614" to-port="1"/>
		<edge from-layer="611" from-port="1" to-layer="614" to-port="2"/>
		<edge from-layer="612" from-port="1" to-layer="614" to-port="3"/>
		<edge from-layer="613" from-port="1" to-layer="614" to-port="4"/>
		<edge from-layer="568" from-port="5" to-layer="615" to-port="0"/>
		<edge from-layer="614" from-port="5" to-layer="615" to-port="1"/>
		<edge from-layer="615" from-port="2" to-layer="620" to-port="0"/>
		<edge from-layer="616" from-port="1" to-layer="620" to-port="1"/>
		<edge from-layer="617" from-port="1" to-layer="620" to-port="2"/>
		<edge from-layer="618" from-port="1" to-layer="620" to-port="3"/>
		<edge from-layer="619" from-port="1" to-layer="620" to-port="4"/>
		<edge from-layer="621" from-port="1" to-layer="626" to-port="0"/>
		<edge from-layer="622" from-port="1" to-layer="626" to-port="1"/>
		<edge from-layer="623" from-port="1" to-layer="626" to-port="2"/>
		<edge from-layer="624" from-port="1" to-layer="626" to-port="3"/>
		<edge from-layer="625" from-port="1" to-layer="626" to-port="4"/>
		<edge from-layer="620" from-port="5" to-layer="627" to-port="0"/>
		<edge from-layer="626" from-port="5" to-layer="627" to-port="1"/>
		<edge from-layer="627" from-port="2" to-layer="629" to-port="0"/>
		<edge from-layer="628" from-port="1" to-layer="629" to-port="1"/>
		<edge from-layer="629" from-port="2" to-layer="630" to-port="0"/>
		<edge from-layer="630" from-port="1" to-layer="635" to-port="0"/>
		<edge from-layer="631" from-port="1" to-layer="635" to-port="1"/>
		<edge from-layer="632" from-port="1" to-layer="635" to-port="2"/>
		<edge from-layer="633" from-port="1" to-layer="635" to-port="3"/>
		<edge from-layer="634" from-port="1" to-layer="635" to-port="4"/>
		<edge from-layer="636" from-port="1" to-layer="641" to-port="0"/>
		<edge from-layer="637" from-port="1" to-layer="641" to-port="1"/>
		<edge from-layer="638" from-port="1" to-layer="641" to-port="2"/>
		<edge from-layer="639" from-port="1" to-layer="641" to-port="3"/>
		<edge from-layer="640" from-port="1" to-layer="641" to-port="4"/>
		<edge from-layer="641" from-port="5" to-layer="643" to-port="0"/>
		<edge from-layer="642" from-port="1" to-layer="643" to-port="1"/>
		<edge from-layer="635" from-port="5" to-layer="644" to-port="0"/>
		<edge from-layer="643" from-port="2" to-layer="644" to-port="1"/>
		<edge from-layer="644" from-port="2" to-layer="646" to-port="0"/>
		<edge from-layer="645" from-port="1" to-layer="646" to-port="1"/>
		<edge from-layer="646" from-port="2" to-layer="647" to-port="0"/>
		<edge from-layer="647" from-port="1" to-layer="652" to-port="0"/>
		<edge from-layer="648" from-port="1" to-layer="652" to-port="1"/>
		<edge from-layer="649" from-port="1" to-layer="652" to-port="2"/>
		<edge from-layer="650" from-port="1" to-layer="652" to-port="3"/>
		<edge from-layer="651" from-port="1" to-layer="652" to-port="4"/>
		<edge from-layer="653" from-port="1" to-layer="658" to-port="0"/>
		<edge from-layer="654" from-port="1" to-layer="658" to-port="1"/>
		<edge from-layer="655" from-port="1" to-layer="658" to-port="2"/>
		<edge from-layer="656" from-port="1" to-layer="658" to-port="3"/>
		<edge from-layer="657" from-port="1" to-layer="658" to-port="4"/>
		<edge from-layer="652" from-port="5" to-layer="659" to-port="0"/>
		<edge from-layer="658" from-port="5" to-layer="659" to-port="1"/>
		<edge from-layer="659" from-port="2" to-layer="661" to-port="0"/>
		<edge from-layer="660" from-port="1" to-layer="661" to-port="1"/>
		<edge from-layer="661" from-port="2" to-layer="666" to-port="0"/>
		<edge from-layer="662" from-port="1" to-layer="666" to-port="1"/>
		<edge from-layer="663" from-port="1" to-layer="666" to-port="2"/>
		<edge from-layer="664" from-port="1" to-layer="666" to-port="3"/>
		<edge from-layer="665" from-port="1" to-layer="666" to-port="4"/>
		<edge from-layer="620" from-port="5" to-layer="667" to-port="0"/>
		<edge from-layer="666" from-port="5" to-layer="667" to-port="1"/>
		<edge from-layer="667" from-port="2" to-layer="672" to-port="0"/>
		<edge from-layer="668" from-port="1" to-layer="672" to-port="1"/>
		<edge from-layer="669" from-port="1" to-layer="672" to-port="2"/>
		<edge from-layer="670" from-port="1" to-layer="672" to-port="3"/>
		<edge from-layer="671" from-port="1" to-layer="672" to-port="4"/>
		<edge from-layer="673" from-port="1" to-layer="678" to-port="0"/>
		<edge from-layer="674" from-port="1" to-layer="678" to-port="1"/>
		<edge from-layer="675" from-port="1" to-layer="678" to-port="2"/>
		<edge from-layer="676" from-port="1" to-layer="678" to-port="3"/>
		<edge from-layer="677" from-port="1" to-layer="678" to-port="4"/>
		<edge from-layer="672" from-port="5" to-layer="679" to-port="0"/>
		<edge from-layer="678" from-port="5" to-layer="679" to-port="1"/>
		<edge from-layer="679" from-port="2" to-layer="681" to-port="0"/>
		<edge from-layer="680" from-port="1" to-layer="681" to-port="1"/>
		<edge from-layer="681" from-port="2" to-layer="682" to-port="0"/>
		<edge from-layer="682" from-port="1" to-layer="687" to-port="0"/>
		<edge from-layer="683" from-port="1" to-layer="687" to-port="1"/>
		<edge from-layer="684" from-port="1" to-layer="687" to-port="2"/>
		<edge from-layer="685" from-port="1" to-layer="687" to-port="3"/>
		<edge from-layer="686" from-port="1" to-layer="687" to-port="4"/>
		<edge from-layer="688" from-port="1" to-layer="693" to-port="0"/>
		<edge from-layer="689" from-port="1" to-layer="693" to-port="1"/>
		<edge from-layer="690" from-port="1" to-layer="693" to-port="2"/>
		<edge from-layer="691" from-port="1" to-layer="693" to-port="3"/>
		<edge from-layer="692" from-port="1" to-layer="693" to-port="4"/>
		<edge from-layer="693" from-port="5" to-layer="695" to-port="0"/>
		<edge from-layer="694" from-port="1" to-layer="695" to-port="1"/>
		<edge from-layer="687" from-port="5" to-layer="696" to-port="0"/>
		<edge from-layer="695" from-port="2" to-layer="696" to-port="1"/>
		<edge from-layer="696" from-port="2" to-layer="698" to-port="0"/>
		<edge from-layer="697" from-port="1" to-layer="698" to-port="1"/>
		<edge from-layer="698" from-port="2" to-layer="699" to-port="0"/>
		<edge from-layer="699" from-port="1" to-layer="704" to-port="0"/>
		<edge from-layer="700" from-port="1" to-layer="704" to-port="1"/>
		<edge from-layer="701" from-port="1" to-layer="704" to-port="2"/>
		<edge from-layer="702" from-port="1" to-layer="704" to-port="3"/>
		<edge from-layer="703" from-port="1" to-layer="704" to-port="4"/>
		<edge from-layer="705" from-port="1" to-layer="710" to-port="0"/>
		<edge from-layer="706" from-port="1" to-layer="710" to-port="1"/>
		<edge from-layer="707" from-port="1" to-layer="710" to-port="2"/>
		<edge from-layer="708" from-port="1" to-layer="710" to-port="3"/>
		<edge from-layer="709" from-port="1" to-layer="710" to-port="4"/>
		<edge from-layer="704" from-port="5" to-layer="711" to-port="0"/>
		<edge from-layer="710" from-port="5" to-layer="711" to-port="1"/>
		<edge from-layer="711" from-port="2" to-layer="713" to-port="0"/>
		<edge from-layer="712" from-port="1" to-layer="713" to-port="1"/>
		<edge from-layer="713" from-port="2" to-layer="718" to-port="0"/>
		<edge from-layer="714" from-port="1" to-layer="718" to-port="1"/>
		<edge from-layer="715" from-port="1" to-layer="718" to-port="2"/>
		<edge from-layer="716" from-port="1" to-layer="718" to-port="3"/>
		<edge from-layer="717" from-port="1" to-layer="718" to-port="4"/>
		<edge from-layer="719" from-port="1" to-layer="724" to-port="0"/>
		<edge from-layer="720" from-port="1" to-layer="724" to-port="1"/>
		<edge from-layer="721" from-port="1" to-layer="724" to-port="2"/>
		<edge from-layer="722" from-port="1" to-layer="724" to-port="3"/>
		<edge from-layer="723" from-port="1" to-layer="724" to-port="4"/>
		<edge from-layer="718" from-port="5" to-layer="725" to-port="0"/>
		<edge from-layer="724" from-port="5" to-layer="725" to-port="1"/>
		<edge from-layer="725" from-port="2" to-layer="727" to-port="0"/>
		<edge from-layer="726" from-port="1" to-layer="727" to-port="1"/>
		<edge from-layer="727" from-port="2" to-layer="728" to-port="0"/>
		<edge from-layer="728" from-port="1" to-layer="733" to-port="0"/>
		<edge from-layer="729" from-port="1" to-layer="733" to-port="1"/>
		<edge from-layer="730" from-port="1" to-layer="733" to-port="2"/>
		<edge from-layer="731" from-port="1" to-layer="733" to-port="3"/>
		<edge from-layer="732" from-port="1" to-layer="733" to-port="4"/>
		<edge from-layer="734" from-port="1" to-layer="739" to-port="0"/>
		<edge from-layer="735" from-port="1" to-layer="739" to-port="1"/>
		<edge from-layer="736" from-port="1" to-layer="739" to-port="2"/>
		<edge from-layer="737" from-port="1" to-layer="739" to-port="3"/>
		<edge from-layer="738" from-port="1" to-layer="739" to-port="4"/>
		<edge from-layer="739" from-port="5" to-layer="741" to-port="0"/>
		<edge from-layer="740" from-port="1" to-layer="741" to-port="1"/>
		<edge from-layer="733" from-port="5" to-layer="742" to-port="0"/>
		<edge from-layer="741" from-port="2" to-layer="742" to-port="1"/>
		<edge from-layer="742" from-port="2" to-layer="744" to-port="0"/>
		<edge from-layer="743" from-port="1" to-layer="744" to-port="1"/>
		<edge from-layer="744" from-port="2" to-layer="745" to-port="0"/>
		<edge from-layer="745" from-port="1" to-layer="750" to-port="0"/>
		<edge from-layer="746" from-port="1" to-layer="750" to-port="1"/>
		<edge from-layer="747" from-port="1" to-layer="750" to-port="2"/>
		<edge from-layer="748" from-port="1" to-layer="750" to-port="3"/>
		<edge from-layer="749" from-port="1" to-layer="750" to-port="4"/>
		<edge from-layer="751" from-port="1" to-layer="756" to-port="0"/>
		<edge from-layer="752" from-port="1" to-layer="756" to-port="1"/>
		<edge from-layer="753" from-port="1" to-layer="756" to-port="2"/>
		<edge from-layer="754" from-port="1" to-layer="756" to-port="3"/>
		<edge from-layer="755" from-port="1" to-layer="756" to-port="4"/>
		<edge from-layer="750" from-port="5" to-layer="757" to-port="0"/>
		<edge from-layer="756" from-port="5" to-layer="757" to-port="1"/>
		<edge from-layer="757" from-port="2" to-layer="759" to-port="0"/>
		<edge from-layer="758" from-port="1" to-layer="759" to-port="1"/>
		<edge from-layer="759" from-port="2" to-layer="764" to-port="0"/>
		<edge from-layer="760" from-port="1" to-layer="764" to-port="1"/>
		<edge from-layer="761" from-port="1" to-layer="764" to-port="2"/>
		<edge from-layer="762" from-port="1" to-layer="764" to-port="3"/>
		<edge from-layer="763" from-port="1" to-layer="764" to-port="4"/>
		<edge from-layer="718" from-port="5" to-layer="765" to-port="0"/>
		<edge from-layer="764" from-port="5" to-layer="765" to-port="1"/>
		<edge from-layer="765" from-port="2" to-layer="770" to-port="0"/>
		<edge from-layer="766" from-port="1" to-layer="770" to-port="1"/>
		<edge from-layer="767" from-port="1" to-layer="770" to-port="2"/>
		<edge from-layer="768" from-port="1" to-layer="770" to-port="3"/>
		<edge from-layer="769" from-port="1" to-layer="770" to-port="4"/>
		<edge from-layer="771" from-port="1" to-layer="776" to-port="0"/>
		<edge from-layer="772" from-port="1" to-layer="776" to-port="1"/>
		<edge from-layer="773" from-port="1" to-layer="776" to-port="2"/>
		<edge from-layer="774" from-port="1" to-layer="776" to-port="3"/>
		<edge from-layer="775" from-port="1" to-layer="776" to-port="4"/>
		<edge from-layer="770" from-port="5" to-layer="777" to-port="0"/>
		<edge from-layer="776" from-port="5" to-layer="777" to-port="1"/>
		<edge from-layer="777" from-port="2" to-layer="779" to-port="0"/>
		<edge from-layer="778" from-port="1" to-layer="779" to-port="1"/>
		<edge from-layer="779" from-port="2" to-layer="780" to-port="0"/>
		<edge from-layer="780" from-port="1" to-layer="785" to-port="0"/>
		<edge from-layer="781" from-port="1" to-layer="785" to-port="1"/>
		<edge from-layer="782" from-port="1" to-layer="785" to-port="2"/>
		<edge from-layer="783" from-port="1" to-layer="785" to-port="3"/>
		<edge from-layer="784" from-port="1" to-layer="785" to-port="4"/>
		<edge from-layer="786" from-port="1" to-layer="791" to-port="0"/>
		<edge from-layer="787" from-port="1" to-layer="791" to-port="1"/>
		<edge from-layer="788" from-port="1" to-layer="791" to-port="2"/>
		<edge from-layer="789" from-port="1" to-layer="791" to-port="3"/>
		<edge from-layer="790" from-port="1" to-layer="791" to-port="4"/>
		<edge from-layer="791" from-port="5" to-layer="793" to-port="0"/>
		<edge from-layer="792" from-port="1" to-layer="793" to-port="1"/>
		<edge from-layer="785" from-port="5" to-layer="794" to-port="0"/>
		<edge from-layer="793" from-port="2" to-layer="794" to-port="1"/>
		<edge from-layer="794" from-port="2" to-layer="796" to-port="0"/>
		<edge from-layer="795" from-port="1" to-layer="796" to-port="1"/>
		<edge from-layer="796" from-port="2" to-layer="797" to-port="0"/>
		<edge from-layer="797" from-port="1" to-layer="802" to-port="0"/>
		<edge from-layer="798" from-port="1" to-layer="802" to-port="1"/>
		<edge from-layer="799" from-port="1" to-layer="802" to-port="2"/>
		<edge from-layer="800" from-port="1" to-layer="802" to-port="3"/>
		<edge from-layer="801" from-port="1" to-layer="802" to-port="4"/>
		<edge from-layer="803" from-port="1" to-layer="808" to-port="0"/>
		<edge from-layer="804" from-port="1" to-layer="808" to-port="1"/>
		<edge from-layer="805" from-port="1" to-layer="808" to-port="2"/>
		<edge from-layer="806" from-port="1" to-layer="808" to-port="3"/>
		<edge from-layer="807" from-port="1" to-layer="808" to-port="4"/>
		<edge from-layer="802" from-port="5" to-layer="809" to-port="0"/>
		<edge from-layer="808" from-port="5" to-layer="809" to-port="1"/>
		<edge from-layer="809" from-port="2" to-layer="811" to-port="0"/>
		<edge from-layer="810" from-port="1" to-layer="811" to-port="1"/>
		<edge from-layer="811" from-port="2" to-layer="816" to-port="0"/>
		<edge from-layer="812" from-port="1" to-layer="816" to-port="1"/>
		<edge from-layer="813" from-port="1" to-layer="816" to-port="2"/>
		<edge from-layer="814" from-port="1" to-layer="816" to-port="3"/>
		<edge from-layer="815" from-port="1" to-layer="816" to-port="4"/>
		<edge from-layer="770" from-port="5" to-layer="817" to-port="0"/>
		<edge from-layer="816" from-port="5" to-layer="817" to-port="1"/>
		<edge from-layer="817" from-port="2" to-layer="822" to-port="0"/>
		<edge from-layer="818" from-port="1" to-layer="822" to-port="1"/>
		<edge from-layer="819" from-port="1" to-layer="822" to-port="2"/>
		<edge from-layer="820" from-port="1" to-layer="822" to-port="3"/>
		<edge from-layer="821" from-port="1" to-layer="822" to-port="4"/>
		<edge from-layer="823" from-port="1" to-layer="828" to-port="0"/>
		<edge from-layer="824" from-port="1" to-layer="828" to-port="1"/>
		<edge from-layer="825" from-port="1" to-layer="828" to-port="2"/>
		<edge from-layer="826" from-port="1" to-layer="828" to-port="3"/>
		<edge from-layer="827" from-port="1" to-layer="828" to-port="4"/>
		<edge from-layer="822" from-port="5" to-layer="829" to-port="0"/>
		<edge from-layer="828" from-port="5" to-layer="829" to-port="1"/>
		<edge from-layer="829" from-port="2" to-layer="831" to-port="0"/>
		<edge from-layer="830" from-port="1" to-layer="831" to-port="1"/>
		<edge from-layer="831" from-port="2" to-layer="832" to-port="0"/>
		<edge from-layer="832" from-port="1" to-layer="837" to-port="0"/>
		<edge from-layer="833" from-port="1" to-layer="837" to-port="1"/>
		<edge from-layer="834" from-port="1" to-layer="837" to-port="2"/>
		<edge from-layer="835" from-port="1" to-layer="837" to-port="3"/>
		<edge from-layer="836" from-port="1" to-layer="837" to-port="4"/>
		<edge from-layer="838" from-port="1" to-layer="843" to-port="0"/>
		<edge from-layer="839" from-port="1" to-layer="843" to-port="1"/>
		<edge from-layer="840" from-port="1" to-layer="843" to-port="2"/>
		<edge from-layer="841" from-port="1" to-layer="843" to-port="3"/>
		<edge from-layer="842" from-port="1" to-layer="843" to-port="4"/>
		<edge from-layer="843" from-port="5" to-layer="845" to-port="0"/>
		<edge from-layer="844" from-port="1" to-layer="845" to-port="1"/>
		<edge from-layer="837" from-port="5" to-layer="846" to-port="0"/>
		<edge from-layer="845" from-port="2" to-layer="846" to-port="1"/>
		<edge from-layer="846" from-port="2" to-layer="848" to-port="0"/>
		<edge from-layer="847" from-port="1" to-layer="848" to-port="1"/>
		<edge from-layer="848" from-port="2" to-layer="849" to-port="0"/>
		<edge from-layer="849" from-port="1" to-layer="854" to-port="0"/>
		<edge from-layer="850" from-port="1" to-layer="854" to-port="1"/>
		<edge from-layer="851" from-port="1" to-layer="854" to-port="2"/>
		<edge from-layer="852" from-port="1" to-layer="854" to-port="3"/>
		<edge from-layer="853" from-port="1" to-layer="854" to-port="4"/>
		<edge from-layer="855" from-port="1" to-layer="860" to-port="0"/>
		<edge from-layer="856" from-port="1" to-layer="860" to-port="1"/>
		<edge from-layer="857" from-port="1" to-layer="860" to-port="2"/>
		<edge from-layer="858" from-port="1" to-layer="860" to-port="3"/>
		<edge from-layer="859" from-port="1" to-layer="860" to-port="4"/>
		<edge from-layer="854" from-port="5" to-layer="861" to-port="0"/>
		<edge from-layer="860" from-port="5" to-layer="861" to-port="1"/>
		<edge from-layer="861" from-port="2" to-layer="863" to-port="0"/>
		<edge from-layer="862" from-port="1" to-layer="863" to-port="1"/>
		<edge from-layer="863" from-port="2" to-layer="868" to-port="0"/>
		<edge from-layer="864" from-port="1" to-layer="868" to-port="1"/>
		<edge from-layer="865" from-port="1" to-layer="868" to-port="2"/>
		<edge from-layer="866" from-port="1" to-layer="868" to-port="3"/>
		<edge from-layer="867" from-port="1" to-layer="868" to-port="4"/>
		<edge from-layer="869" from-port="1" to-layer="874" to-port="0"/>
		<edge from-layer="870" from-port="1" to-layer="874" to-port="1"/>
		<edge from-layer="871" from-port="1" to-layer="874" to-port="2"/>
		<edge from-layer="872" from-port="1" to-layer="874" to-port="3"/>
		<edge from-layer="873" from-port="1" to-layer="874" to-port="4"/>
		<edge from-layer="874" from-port="5" to-layer="876" to-port="0"/>
		<edge from-layer="875" from-port="1" to-layer="876" to-port="1"/>
		<edge from-layer="868" from-port="5" to-layer="877" to-port="0"/>
		<edge from-layer="876" from-port="2" to-layer="877" to-port="1"/>
		<edge from-layer="877" from-port="2" to-layer="879" to-port="0"/>
		<edge from-layer="878" from-port="1" to-layer="879" to-port="1"/>
		<edge from-layer="879" from-port="2" to-layer="880" to-port="0"/>
		<edge from-layer="880" from-port="1" to-layer="885" to-port="0"/>
		<edge from-layer="881" from-port="1" to-layer="885" to-port="1"/>
		<edge from-layer="882" from-port="1" to-layer="885" to-port="2"/>
		<edge from-layer="883" from-port="1" to-layer="885" to-port="3"/>
		<edge from-layer="884" from-port="1" to-layer="885" to-port="4"/>
		<edge from-layer="886" from-port="1" to-layer="891" to-port="0"/>
		<edge from-layer="887" from-port="1" to-layer="891" to-port="1"/>
		<edge from-layer="888" from-port="1" to-layer="891" to-port="2"/>
		<edge from-layer="889" from-port="1" to-layer="891" to-port="3"/>
		<edge from-layer="890" from-port="1" to-layer="891" to-port="4"/>
		<edge from-layer="885" from-port="5" to-layer="892" to-port="0"/>
		<edge from-layer="891" from-port="5" to-layer="892" to-port="1"/>
		<edge from-layer="892" from-port="2" to-layer="894" to-port="0"/>
		<edge from-layer="893" from-port="1" to-layer="894" to-port="1"/>
		<edge from-layer="894" from-port="2" to-layer="896" to-port="0"/>
		<edge from-layer="895" from-port="1" to-layer="896" to-port="1"/>
		<edge from-layer="896" from-port="2" to-layer="898" to-port="0"/>
		<edge from-layer="897" from-port="1" to-layer="898" to-port="1"/>
		<edge from-layer="899" from-port="1" to-layer="904" to-port="0"/>
		<edge from-layer="900" from-port="1" to-layer="904" to-port="1"/>
		<edge from-layer="901" from-port="1" to-layer="904" to-port="2"/>
		<edge from-layer="902" from-port="1" to-layer="904" to-port="3"/>
		<edge from-layer="903" from-port="1" to-layer="904" to-port="4"/>
		<edge from-layer="904" from-port="5" to-layer="906" to-port="0"/>
		<edge from-layer="905" from-port="1" to-layer="906" to-port="1"/>
		<edge from-layer="868" from-port="5" to-layer="907" to-port="0"/>
		<edge from-layer="906" from-port="2" to-layer="907" to-port="1"/>
		<edge from-layer="907" from-port="2" to-layer="909" to-port="0"/>
		<edge from-layer="908" from-port="1" to-layer="909" to-port="1"/>
		<edge from-layer="909" from-port="2" to-layer="910" to-port="0"/>
		<edge from-layer="910" from-port="1" to-layer="915" to-port="0"/>
		<edge from-layer="911" from-port="1" to-layer="915" to-port="1"/>
		<edge from-layer="912" from-port="1" to-layer="915" to-port="2"/>
		<edge from-layer="913" from-port="1" to-layer="915" to-port="3"/>
		<edge from-layer="914" from-port="1" to-layer="915" to-port="4"/>
		<edge from-layer="916" from-port="1" to-layer="921" to-port="0"/>
		<edge from-layer="917" from-port="1" to-layer="921" to-port="1"/>
		<edge from-layer="918" from-port="1" to-layer="921" to-port="2"/>
		<edge from-layer="919" from-port="1" to-layer="921" to-port="3"/>
		<edge from-layer="920" from-port="1" to-layer="921" to-port="4"/>
		<edge from-layer="915" from-port="5" to-layer="922" to-port="0"/>
		<edge from-layer="921" from-port="5" to-layer="922" to-port="1"/>
		<edge from-layer="922" from-port="2" to-layer="924" to-port="0"/>
		<edge from-layer="923" from-port="1" to-layer="924" to-port="1"/>
		<edge from-layer="924" from-port="2" to-layer="926" to-port="0"/>
		<edge from-layer="925" from-port="1" to-layer="926" to-port="1"/>
		<edge from-layer="926" from-port="2" to-layer="928" to-port="0"/>
		<edge from-layer="927" from-port="1" to-layer="928" to-port="1"/>
		<edge from-layer="928" from-port="2" to-layer="930" to-port="0"/>
		<edge from-layer="929" from-port="1" to-layer="930" to-port="1"/>
		<edge from-layer="930" from-port="2" to-layer="931" to-port="0"/>
		<edge from-layer="931" from-port="1" to-layer="933" to-port="0"/>
		<edge from-layer="932" from-port="1" to-layer="933" to-port="1"/>
		<edge from-layer="863" from-port="2" to-layer="934" to-port="0"/>
		<edge from-layer="934" from-port="1" to-layer="935" to-port="0"/>
		<edge from-layer="935" from-port="1" to-layer="939" to-port="0"/>
		<edge from-layer="936" from-port="1" to-layer="939" to-port="1"/>
		<edge from-layer="937" from-port="1" to-layer="939" to-port="2"/>
		<edge from-layer="938" from-port="1" to-layer="939" to-port="3"/>
		<edge from-layer="939" from-port="4" to-layer="940" to-port="0"/>
		<edge from-layer="12" from-port="2" to-layer="941" to-port="0"/>
		<edge from-layer="941" from-port="1" to-layer="942" to-port="0"/>
		<edge from-layer="942" from-port="1" to-layer="946" to-port="0"/>
		<edge from-layer="943" from-port="1" to-layer="946" to-port="1"/>
		<edge from-layer="944" from-port="1" to-layer="946" to-port="2"/>
		<edge from-layer="945" from-port="1" to-layer="946" to-port="3"/>
		<edge from-layer="946" from-port="4" to-layer="947" to-port="0"/>
		<edge from-layer="940" from-port="1" to-layer="948" to-port="0"/>
		<edge from-layer="947" from-port="1" to-layer="948" to-port="1"/>
		<edge from-layer="948" from-port="2" to-layer="950" to-port="0"/>
		<edge from-layer="949" from-port="1" to-layer="950" to-port="1"/>
		<edge from-layer="898" from-port="2" to-layer="951" to-port="0"/>
		<edge from-layer="933" from-port="2" to-layer="951" to-port="1"/>
		<edge from-layer="950" from-port="2" to-layer="951" to-port="2"/>
		<edge from-layer="951" from-port="3" to-layer="952" to-port="0"/>
	</edges>
	<meta_data>
		<MO_version value="unknown version"/>
		<cli_parameters>
			<blobs_as_inputs value="True"/>
			<caffe_parser_path value="DIR"/>
			<data_type value="FP32"/>
			<disable_nhwc_to_nchw value="False"/>
			<disable_omitting_optional value="False"/>
			<disable_resnet_optimization value="False"/>
			<enable_concat_optimization value="False"/>
			<enable_flattening_nested_params value="False"/>
			<enable_ssd_gluoncv value="False"/>
			<extensions value="DIR"/>
			<framework value="onnx"/>
			<freeze_placeholder_with_value value="{}"/>
			<generate_deprecated_IR_V2 value="False"/>
			<generate_deprecated_IR_V7 value="False"/>
			<generate_experimental_IR_V10 value="True"/>
			<input value="input.1"/>
			<input_model value="DIR/mobilenetv2_fd_single_head.onnx"/>
			<input_model_is_text value="False"/>
			<input_shape value="[1,3,300,300]"/>
			<k value="DIR/CustomLayersMapping.xml"/>
			<keep_quantize_ops_in_IR value="True"/>
			<keep_shape_ops value="True"/>
			<legacy_mxnet_model value="False"/>
			<log_level value="ERROR"/>
			<mean_scale_values value="{'input.1': {'mean': None, 'scale': array([254.99991075])}}"/>
			<mean_values value="()"/>
			<model_name value="face-detection-retail-0005"/>
			<move_to_preprocess value="False"/>
			<output_dir value="DIR"/>
			<placeholder_data_types value="{}"/>
			<placeholder_shapes value="{'input.1': array([  1,   3, 300, 300])}"/>
			<progress value="False"/>
			<remove_memory value="False"/>
			<remove_output_softmax value="False"/>
			<reverse_input_channels value="True"/>
			<save_params_from_nd value="False"/>
			<scale_values value="input.1[254.99991075003123]"/>
			<silent value="False"/>
			<stream_output value="False"/>
			<unset unset_cli_parameters="batch, counts, disable_fusing, disable_gfusing, finegrain_fusing, input_checkpoint, input_meta_graph, input_proto, input_symbol, mean_file, mean_file_offsets, nd_prefix_name, output, pretrained_model_name, saved_model_dir, saved_model_tags, scale, tensorboard_logdir, tensorflow_custom_layer_libraries, tensorflow_custom_operations_config_update, tensorflow_object_detection_api_pipeline_config, tensorflow_operation_patterns, tensorflow_subgraph_patterns, tensorflow_use_custom_operations_config, transformations_config"/>
		</cli_parameters>
	</meta_data>
</net>
