<?xml version="1.0" ?>
<net name="face-reidentification-retail-0095" version="10">
	<layers>
		<layer id="0" name="0" type="Parameter" version="opset1">
			<data element_type="f32" shape="1,3,128,128"/>
			<output>
				<port id="0" precision="FP32">
					<dim>1</dim>
					<dim>3</dim>
					<dim>128</dim>
					<dim>128</dim>
				</port>
			</output>
		</layer>
		<layer id="1" name="0/reverse_input_channels18946/Concat18965_const513_const" type="Const" version="opset1">
			<data element_type="f32" offset="0" shape="1,3,1,1" size="12"/>
			<output>
				<port id="1" precision="FP32">
					<dim>1</dim>
					<dim>3</dim>
					<dim>1</dim>
					<dim>1</dim>
				</port>
			</output>
		</layer>
		<layer id="2" name="Mul_/Fused_Mul_" type="Multiply" version="opset1">
			<input>
				<port id="0">
					<dim>1</dim>
					<dim>3</dim>
					<dim>128</dim>
					<dim>128</dim>
				</port>
				<port id="1">
					<dim>1</dim>
					<dim>3</dim>
					<dim>1</dim>
					<dim>1</dim>
				</port>
			</input>
			<output>
				<port id="2" precision="FP32">
					<dim>1</dim>
					<dim>3</dim>
					<dim>128</dim>
					<dim>128</dim>
				</port>
			</output>
		</layer>
		<layer id="3" name="0/reverse_input_channels18948/Concat18973_const515_const" type="Const" version="opset1">
			<data element_type="f32" offset="12" shape="1,3,1,1" size="12"/>
			<output>
				<port id="1" precision="FP32">
					<dim>1</dim>
					<dim>3</dim>
					<dim>1</dim>
					<dim>1</dim>
				</port>
			</output>
		</layer>
		<layer id="4" name="Add1_/Fused_Add_" type="Add" version="opset1">
			<input>
				<port id="0">
					<dim>1</dim>
					<dim>3</dim>
					<dim>128</dim>
					<dim>128</dim>
				</port>
				<port id="1">
					<dim>1</dim>
					<dim>3</dim>
					<dim>1</dim>
					<dim>1</dim>
				</port>
			</input>
			<output>
				<port id="2" precision="FP32">
					<dim>1</dim>
					<dim>3</dim>
					<dim>128</dim>
					<dim>128</dim>
				</port>
			</output>
		</layer>
		<layer id="5" name="26612665_const" type="Const" version="opset1">
			<data element_type="f32" offset="24" shape="" size="4"/>
			<output>
				<port id="1" precision="FP32"/>
			</output>
		</layer>
		<layer id="6" name="26622666_const" type="Const" version="opset1">
			<data element_type="f32" offset="28" shape="" size="4"/>
			<output>
				<port id="1" precision="FP32"/>
			</output>
		</layer>
		<layer id="7" name="26632667_const" type="Const" version="opset1">
			<data element_type="f32" offset="24" shape="" size="4"/>
			<output>
				<port id="1" precision="FP32"/>
			</output>
		</layer>
		<layer id="8" name="26642668_const" type="Const" version="opset1">
			<data element_type="f32" offset="28" shape="" size="4"/>
			<output>
				<port id="1" precision="FP32"/>
			</output>
		</layer>
		<layer id="9" name="410/fq_input_0" type="FakeQuantize" version="opset1">
			<data levels="256"/>
			<input>
				<port id="0">
					<dim>1</dim>
					<dim>3</dim>
					<dim>128</dim>
					<dim>128</dim>
				</port>
				<port id="1"/>
				<port id="2"/>
				<port id="3"/>
				<port id="4"/>
			</input>
			<output>
				<port id="5" precision="FP32">
					<dim>1</dim>
					<dim>3</dim>
					<dim>128</dim>
					<dim>128</dim>
				</port>
			</output>
		</layer>
		<layer id="10" name="0/reverse_input_channels/Concat18957_const517_const" type="Const" version="opset1">
			<data element_type="f32" offset="32" shape="64,3,3,3" size="6912"/>
			<output>
				<port id="1" precision="FP32">
					<dim>64</dim>
					<dim>3</dim>
					<dim>3</dim>
					<dim>3</dim>
				</port>
			</output>
		</layer>
		<layer id="11" name="26712675_const" type="Const" version="opset1">
			<data element_type="f32" offset="6944" shape="64,1,1,1" size="256"/>
			<output>
				<port id="1" precision="FP32">
					<dim>64</dim>
					<dim>1</dim>
					<dim>1</dim>
					<dim>1</dim>
				</port>
			</output>
		</layer>
		<layer id="12" name="26722676_const" type="Const" version="opset1">
			<data element_type="f32" offset="7200" shape="64,1,1,1" size="256"/>
			<output>
				<port id="1" precision="FP32">
					<dim>64</dim>
					<dim>1</dim>
					<dim>1</dim>
					<dim>1</dim>
				</port>
			</output>
		</layer>
		<layer id="13" name="26732677_const" type="Const" version="opset1">
			<data element_type="f32" offset="7456" shape="64,1,1,1" size="256"/>
			<output>
				<port id="1" precision="FP32">
					<dim>64</dim>
					<dim>1</dim>
					<dim>1</dim>
					<dim>1</dim>
				</port>
			</output>
		</layer>
		<layer id="14" name="26742678_const" type="Const" version="opset1">
			<data element_type="f32" offset="7712" shape="64,1,1,1" size="256"/>
			<output>
				<port id="1" precision="FP32">
					<dim>64</dim>
					<dim>1</dim>
					<dim>1</dim>
					<dim>1</dim>
				</port>
			</output>
		</layer>
		<layer id="15" name="410/fq_weights_1" type="FakeQuantize" version="opset1">
			<data levels="255"/>
			<input>
				<port id="0">
					<dim>64</dim>
					<dim>3</dim>
					<dim>3</dim>
					<dim>3</dim>
				</port>
				<port id="1">
					<dim>64</dim>
					<dim>1</dim>
					<dim>1</dim>
					<dim>1</dim>
				</port>
				<port id="2">
					<dim>64</dim>
					<dim>1</dim>
					<dim>1</dim>
					<dim>1</dim>
				</port>
				<port id="3">
					<dim>64</dim>
					<dim>1</dim>
					<dim>1</dim>
					<dim>1</dim>
				</port>
				<port id="4">
					<dim>64</dim>
					<dim>1</dim>
					<dim>1</dim>
					<dim>1</dim>
				</port>
			</input>
			<output>
				<port id="5" precision="FP32">
					<dim>64</dim>
					<dim>3</dim>
					<dim>3</dim>
					<dim>3</dim>
				</port>
			</output>
		</layer>
		<layer id="16" name="410" type="Convolution" version="opset1">
			<data dilations="1,1" output_padding="0,0" pads_begin="1,1" pads_end="1,1" strides="2,2"/>
			<input>
				<port id="0">
					<dim>1</dim>
					<dim>3</dim>
					<dim>128</dim>
					<dim>128</dim>
				</port>
				<port id="1">
					<dim>64</dim>
					<dim>3</dim>
					<dim>3</dim>
					<dim>3</dim>
				</port>
			</input>
			<output>
				<port id="2" precision="FP32">
					<dim>1</dim>
					<dim>64</dim>
					<dim>64</dim>
					<dim>64</dim>
				</port>
			</output>
		</layer>
		<layer id="17" name="data_add_1144111446/copy_const519_const" type="Const" version="opset1">
			<data element_type="f32" offset="7968" shape="1,64,1,1" size="256"/>
			<output>
				<port id="1" precision="FP32">
					<dim>1</dim>
					<dim>64</dim>
					<dim>1</dim>
					<dim>1</dim>
				</port>
			</output>
		</layer>
		<layer id="18" name="Add1_10127/Fused_Add_" type="Add" version="opset1">
			<input>
				<port id="0">
					<dim>1</dim>
					<dim>64</dim>
					<dim>64</dim>
					<dim>64</dim>
				</port>
				<port id="1">
					<dim>1</dim>
					<dim>64</dim>
					<dim>1</dim>
					<dim>1</dim>
				</port>
			</input>
			<output>
				<port id="2" precision="FP32">
					<dim>1</dim>
					<dim>64</dim>
					<dim>64</dim>
					<dim>64</dim>
				</port>
			</output>
		</layer>
		<layer id="19" name="412/Cast_120124_const521_const" type="Const" version="opset1">
			<data element_type="f32" offset="8224" shape="1" size="4"/>
			<output>
				<port id="1" precision="FP32">
					<dim>1</dim>
				</port>
			</output>
		</layer>
		<layer id="20" name="412" type="PReLU" version="opset1">
			<input>
				<port id="0">
					<dim>1</dim>
					<dim>64</dim>
					<dim>64</dim>
					<dim>64</dim>
				</port>
				<port id="1">
					<dim>1</dim>
				</port>
			</input>
			<output>
				<port id="2" precision="FP32">
					<dim>1</dim>
					<dim>64</dim>
					<dim>64</dim>
					<dim>64</dim>
				</port>
			</output>
		</layer>
		<layer id="21" name="16311635_const" type="Const" version="opset1">
			<data element_type="f32" offset="8228" shape="1,64,1,1" size="256"/>
			<output>
				<port id="1" precision="FP32">
					<dim>1</dim>
					<dim>64</dim>
					<dim>1</dim>
					<dim>1</dim>
				</port>
			</output>
		</layer>
		<layer id="22" name="16321636_const" type="Const" version="opset1">
			<data element_type="f32" offset="8484" shape="1,64,1,1" size="256"/>
			<output>
				<port id="1" precision="FP32">
					<dim>1</dim>
					<dim>64</dim>
					<dim>1</dim>
					<dim>1</dim>
				</port>
			</output>
		</layer>
		<layer id="23" name="16331637_const" type="Const" version="opset1">
			<data element_type="f32" offset="8228" shape="1,64,1,1" size="256"/>
			<output>
				<port id="1" precision="FP32">
					<dim>1</dim>
					<dim>64</dim>
					<dim>1</dim>
					<dim>1</dim>
				</port>
			</output>
		</layer>
		<layer id="24" name="16341638_const" type="Const" version="opset1">
			<data element_type="f32" offset="8484" shape="1,64,1,1" size="256"/>
			<output>
				<port id="1" precision="FP32">
					<dim>1</dim>
					<dim>64</dim>
					<dim>1</dim>
					<dim>1</dim>
				</port>
			</output>
		</layer>
		<layer id="25" name="413/fq_input_0" type="FakeQuantize" version="opset1">
			<data levels="256"/>
			<input>
				<port id="0">
					<dim>1</dim>
					<dim>64</dim>
					<dim>64</dim>
					<dim>64</dim>
				</port>
				<port id="1">
					<dim>1</dim>
					<dim>64</dim>
					<dim>1</dim>
					<dim>1</dim>
				</port>
				<port id="2">
					<dim>1</dim>
					<dim>64</dim>
					<dim>1</dim>
					<dim>1</dim>
				</port>
				<port id="3">
					<dim>1</dim>
					<dim>64</dim>
					<dim>1</dim>
					<dim>1</dim>
				</port>
				<port id="4">
					<dim>1</dim>
					<dim>64</dim>
					<dim>1</dim>
					<dim>1</dim>
				</port>
			</input>
			<output>
				<port id="5" precision="FP32">
					<dim>1</dim>
					<dim>64</dim>
					<dim>64</dim>
					<dim>64</dim>
				</port>
			</output>
		</layer>
		<layer id="26" name="1163988_const" type="Const" version="opset1">
			<data element_type="f32" offset="8740" shape="64,1,3,3" size="2304"/>
			<output>
				<port id="1" precision="FP32">
					<dim>64</dim>
					<dim>1</dim>
					<dim>3</dim>
					<dim>3</dim>
				</port>
			</output>
		</layer>
		<layer id="27" name="16411645_const" type="Const" version="opset1">
			<data element_type="f32" offset="11044" shape="64,1,1,1" size="256"/>
			<output>
				<port id="1" precision="FP32">
					<dim>64</dim>
					<dim>1</dim>
					<dim>1</dim>
					<dim>1</dim>
				</port>
			</output>
		</layer>
		<layer id="28" name="16421646_const" type="Const" version="opset1">
			<data element_type="f32" offset="11300" shape="64,1,1,1" size="256"/>
			<output>
				<port id="1" precision="FP32">
					<dim>64</dim>
					<dim>1</dim>
					<dim>1</dim>
					<dim>1</dim>
				</port>
			</output>
		</layer>
		<layer id="29" name="16431647_const" type="Const" version="opset1">
			<data element_type="f32" offset="11044" shape="64,1,1,1" size="256"/>
			<output>
				<port id="1" precision="FP32">
					<dim>64</dim>
					<dim>1</dim>
					<dim>1</dim>
					<dim>1</dim>
				</port>
			</output>
		</layer>
		<layer id="30" name="16441648_const" type="Const" version="opset1">
			<data element_type="f32" offset="11300" shape="64,1,1,1" size="256"/>
			<output>
				<port id="1" precision="FP32">
					<dim>64</dim>
					<dim>1</dim>
					<dim>1</dim>
					<dim>1</dim>
				</port>
			</output>
		</layer>
		<layer id="31" name="413/fq_weights_1" type="FakeQuantize" version="opset1">
			<data levels="255"/>
			<input>
				<port id="0">
					<dim>64</dim>
					<dim>1</dim>
					<dim>3</dim>
					<dim>3</dim>
				</port>
				<port id="1">
					<dim>64</dim>
					<dim>1</dim>
					<dim>1</dim>
					<dim>1</dim>
				</port>
				<port id="2">
					<dim>64</dim>
					<dim>1</dim>
					<dim>1</dim>
					<dim>1</dim>
				</port>
				<port id="3">
					<dim>64</dim>
					<dim>1</dim>
					<dim>1</dim>
					<dim>1</dim>
				</port>
				<port id="4">
					<dim>64</dim>
					<dim>1</dim>
					<dim>1</dim>
					<dim>1</dim>
				</port>
			</input>
			<output>
				<port id="5" precision="FP32">
					<dim>64</dim>
					<dim>1</dim>
					<dim>3</dim>
					<dim>3</dim>
				</port>
			</output>
		</layer>
		<layer id="32" name="7005/value7007_const" type="Const" version="opset1">
			<data element_type="i64" offset="11556" shape="5" size="40"/>
			<output>
				<port id="1" precision="I64">
					<dim>5</dim>
				</port>
			</output>
		</layer>
		<layer id="33" name="7005" type="Reshape" version="opset1">
			<data special_zero="True"/>
			<input>
				<port id="0">
					<dim>64</dim>
					<dim>1</dim>
					<dim>3</dim>
					<dim>3</dim>
				</port>
				<port id="1">
					<dim>5</dim>
				</port>
			</input>
			<output>
				<port id="2" precision="FP32">
					<dim>64</dim>
					<dim>1</dim>
					<dim>1</dim>
					<dim>3</dim>
					<dim>3</dim>
				</port>
			</output>
		</layer>
		<layer id="34" name="413" type="GroupConvolution" version="opset1">
			<data dilations="1,1" output_padding="0,0" pads_begin="1,1" pads_end="1,1" strides="1,1"/>
			<input>
				<port id="0">
					<dim>1</dim>
					<dim>64</dim>
					<dim>64</dim>
					<dim>64</dim>
				</port>
				<port id="1">
					<dim>64</dim>
					<dim>1</dim>
					<dim>1</dim>
					<dim>3</dim>
					<dim>3</dim>
				</port>
			</input>
			<output>
				<port id="2" precision="FP32">
					<dim>1</dim>
					<dim>64</dim>
					<dim>64</dim>
					<dim>64</dim>
				</port>
			</output>
		</layer>
		<layer id="35" name="data_add_1144911454/copy_const525_const" type="Const" version="opset1">
			<data element_type="f32" offset="11596" shape="1,64,1,1" size="256"/>
			<output>
				<port id="1" precision="FP32">
					<dim>1</dim>
					<dim>64</dim>
					<dim>1</dim>
					<dim>1</dim>
				</port>
			</output>
		</layer>
		<layer id="36" name="Add1_10139/Fused_Add_" type="Add" version="opset1">
			<input>
				<port id="0">
					<dim>1</dim>
					<dim>64</dim>
					<dim>64</dim>
					<dim>64</dim>
				</port>
				<port id="1">
					<dim>1</dim>
					<dim>64</dim>
					<dim>1</dim>
					<dim>1</dim>
				</port>
			</input>
			<output>
				<port id="2" precision="FP32">
					<dim>1</dim>
					<dim>64</dim>
					<dim>64</dim>
					<dim>64</dim>
				</port>
			</output>
		</layer>
		<layer id="37" name="415/Cast_120174_const527_const" type="Const" version="opset1">
			<data element_type="f32" offset="11852" shape="1" size="4"/>
			<output>
				<port id="1" precision="FP32">
					<dim>1</dim>
				</port>
			</output>
		</layer>
		<layer id="38" name="415" type="PReLU" version="opset1">
			<input>
				<port id="0">
					<dim>1</dim>
					<dim>64</dim>
					<dim>64</dim>
					<dim>64</dim>
				</port>
				<port id="1">
					<dim>1</dim>
				</port>
			</input>
			<output>
				<port id="2" precision="FP32">
					<dim>1</dim>
					<dim>64</dim>
					<dim>64</dim>
					<dim>64</dim>
				</port>
			</output>
		</layer>
		<layer id="39" name="36913695_const" type="Const" version="opset1">
			<data element_type="f32" offset="11856" shape="" size="4"/>
			<output>
				<port id="1" precision="FP32"/>
			</output>
		</layer>
		<layer id="40" name="36923696_const" type="Const" version="opset1">
			<data element_type="f32" offset="11860" shape="" size="4"/>
			<output>
				<port id="1" precision="FP32"/>
			</output>
		</layer>
		<layer id="41" name="36933697_const" type="Const" version="opset1">
			<data element_type="f32" offset="11856" shape="" size="4"/>
			<output>
				<port id="1" precision="FP32"/>
			</output>
		</layer>
		<layer id="42" name="36943698_const" type="Const" version="opset1">
			<data element_type="f32" offset="11860" shape="" size="4"/>
			<output>
				<port id="1" precision="FP32"/>
			</output>
		</layer>
		<layer id="43" name="416/fq_input_0" type="FakeQuantize" version="opset1">
			<data levels="256"/>
			<input>
				<port id="0">
					<dim>1</dim>
					<dim>64</dim>
					<dim>64</dim>
					<dim>64</dim>
				</port>
				<port id="1"/>
				<port id="2"/>
				<port id="3"/>
				<port id="4"/>
			</input>
			<output>
				<port id="5" precision="FP32">
					<dim>1</dim>
					<dim>64</dim>
					<dim>64</dim>
					<dim>64</dim>
				</port>
			</output>
		</layer>
		<layer id="44" name="Mul1_10150/Fused_Mul_1248712489_const529_const" type="Const" version="opset1">
			<data element_type="f32" offset="11864" shape="128,64,1,1" size="32768"/>
			<output>
				<port id="1" precision="FP32">
					<dim>128</dim>
					<dim>64</dim>
					<dim>1</dim>
					<dim>1</dim>
				</port>
			</output>
		</layer>
		<layer id="45" name="37013705_const" type="Const" version="opset1">
			<data element_type="f32" offset="44632" shape="128,1,1,1" size="512"/>
			<output>
				<port id="1" precision="FP32">
					<dim>128</dim>
					<dim>1</dim>
					<dim>1</dim>
					<dim>1</dim>
				</port>
			</output>
		</layer>
		<layer id="46" name="37023706_const" type="Const" version="opset1">
			<data element_type="f32" offset="45144" shape="128,1,1,1" size="512"/>
			<output>
				<port id="1" precision="FP32">
					<dim>128</dim>
					<dim>1</dim>
					<dim>1</dim>
					<dim>1</dim>
				</port>
			</output>
		</layer>
		<layer id="47" name="37033707_const" type="Const" version="opset1">
			<data element_type="f32" offset="44632" shape="128,1,1,1" size="512"/>
			<output>
				<port id="1" precision="FP32">
					<dim>128</dim>
					<dim>1</dim>
					<dim>1</dim>
					<dim>1</dim>
				</port>
			</output>
		</layer>
		<layer id="48" name="37043708_const" type="Const" version="opset1">
			<data element_type="f32" offset="45144" shape="128,1,1,1" size="512"/>
			<output>
				<port id="1" precision="FP32">
					<dim>128</dim>
					<dim>1</dim>
					<dim>1</dim>
					<dim>1</dim>
				</port>
			</output>
		</layer>
		<layer id="49" name="416/fq_weights_1" type="FakeQuantize" version="opset1">
			<data levels="255"/>
			<input>
				<port id="0">
					<dim>128</dim>
					<dim>64</dim>
					<dim>1</dim>
					<dim>1</dim>
				</port>
				<port id="1">
					<dim>128</dim>
					<dim>1</dim>
					<dim>1</dim>
					<dim>1</dim>
				</port>
				<port id="2">
					<dim>128</dim>
					<dim>1</dim>
					<dim>1</dim>
					<dim>1</dim>
				</port>
				<port id="3">
					<dim>128</dim>
					<dim>1</dim>
					<dim>1</dim>
					<dim>1</dim>
				</port>
				<port id="4">
					<dim>128</dim>
					<dim>1</dim>
					<dim>1</dim>
					<dim>1</dim>
				</port>
			</input>
			<output>
				<port id="5" precision="FP32">
					<dim>128</dim>
					<dim>64</dim>
					<dim>1</dim>
					<dim>1</dim>
				</port>
			</output>
		</layer>
		<layer id="50" name="416" type="Convolution" version="opset1">
			<data dilations="1,1" output_padding="0,0" pads_begin="0,0" pads_end="0,0" strides="1,1"/>
			<input>
				<port id="0">
					<dim>1</dim>
					<dim>64</dim>
					<dim>64</dim>
					<dim>64</dim>
				</port>
				<port id="1">
					<dim>128</dim>
					<dim>64</dim>
					<dim>1</dim>
					<dim>1</dim>
				</port>
			</input>
			<output>
				<port id="2" precision="FP32">
					<dim>1</dim>
					<dim>128</dim>
					<dim>64</dim>
					<dim>64</dim>
				</port>
			</output>
		</layer>
		<layer id="51" name="data_add_1145711462/copy_const531_const" type="Const" version="opset1">
			<data element_type="f32" offset="45656" shape="1,128,1,1" size="512"/>
			<output>
				<port id="1" precision="FP32">
					<dim>1</dim>
					<dim>128</dim>
					<dim>1</dim>
					<dim>1</dim>
				</port>
			</output>
		</layer>
		<layer id="52" name="Add1_10151/Fused_Add_" type="Add" version="opset1">
			<input>
				<port id="0">
					<dim>1</dim>
					<dim>128</dim>
					<dim>64</dim>
					<dim>64</dim>
				</port>
				<port id="1">
					<dim>1</dim>
					<dim>128</dim>
					<dim>1</dim>
					<dim>1</dim>
				</port>
			</input>
			<output>
				<port id="2" precision="FP32">
					<dim>1</dim>
					<dim>128</dim>
					<dim>64</dim>
					<dim>64</dim>
				</port>
			</output>
		</layer>
		<layer id="53" name="418/Cast_120138_const533_const" type="Const" version="opset1">
			<data element_type="f32" offset="46168" shape="1" size="4"/>
			<output>
				<port id="1" precision="FP32">
					<dim>1</dim>
				</port>
			</output>
		</layer>
		<layer id="54" name="418" type="PReLU" version="opset1">
			<input>
				<port id="0">
					<dim>1</dim>
					<dim>128</dim>
					<dim>64</dim>
					<dim>64</dim>
				</port>
				<port id="1">
					<dim>1</dim>
				</port>
			</input>
			<output>
				<port id="2" precision="FP32">
					<dim>1</dim>
					<dim>128</dim>
					<dim>64</dim>
					<dim>64</dim>
				</port>
			</output>
		</layer>
		<layer id="55" name="14911495_const" type="Const" version="opset1">
			<data element_type="f32" offset="46172" shape="1,128,1,1" size="512"/>
			<output>
				<port id="1" precision="FP32">
					<dim>1</dim>
					<dim>128</dim>
					<dim>1</dim>
					<dim>1</dim>
				</port>
			</output>
		</layer>
		<layer id="56" name="14921496_const" type="Const" version="opset1">
			<data element_type="f32" offset="46684" shape="1,128,1,1" size="512"/>
			<output>
				<port id="1" precision="FP32">
					<dim>1</dim>
					<dim>128</dim>
					<dim>1</dim>
					<dim>1</dim>
				</port>
			</output>
		</layer>
		<layer id="57" name="14931497_const" type="Const" version="opset1">
			<data element_type="f32" offset="46172" shape="1,128,1,1" size="512"/>
			<output>
				<port id="1" precision="FP32">
					<dim>1</dim>
					<dim>128</dim>
					<dim>1</dim>
					<dim>1</dim>
				</port>
			</output>
		</layer>
		<layer id="58" name="14941498_const" type="Const" version="opset1">
			<data element_type="f32" offset="46684" shape="1,128,1,1" size="512"/>
			<output>
				<port id="1" precision="FP32">
					<dim>1</dim>
					<dim>128</dim>
					<dim>1</dim>
					<dim>1</dim>
				</port>
			</output>
		</layer>
		<layer id="59" name="419/fq_input_0" type="FakeQuantize" version="opset1">
			<data levels="256"/>
			<input>
				<port id="0">
					<dim>1</dim>
					<dim>128</dim>
					<dim>64</dim>
					<dim>64</dim>
				</port>
				<port id="1">
					<dim>1</dim>
					<dim>128</dim>
					<dim>1</dim>
					<dim>1</dim>
				</port>
				<port id="2">
					<dim>1</dim>
					<dim>128</dim>
					<dim>1</dim>
					<dim>1</dim>
				</port>
				<port id="3">
					<dim>1</dim>
					<dim>128</dim>
					<dim>1</dim>
					<dim>1</dim>
				</port>
				<port id="4">
					<dim>1</dim>
					<dim>128</dim>
					<dim>1</dim>
					<dim>1</dim>
				</port>
			</input>
			<output>
				<port id="5" precision="FP32">
					<dim>1</dim>
					<dim>128</dim>
					<dim>64</dim>
					<dim>64</dim>
				</port>
			</output>
		</layer>
		<layer id="60" name="1167990_const" type="Const" version="opset1">
			<data element_type="f32" offset="47196" shape="128,1,3,3" size="4608"/>
			<output>
				<port id="1" precision="FP32">
					<dim>128</dim>
					<dim>1</dim>
					<dim>3</dim>
					<dim>3</dim>
				</port>
			</output>
		</layer>
		<layer id="61" name="15011505_const" type="Const" version="opset1">
			<data element_type="f32" offset="51804" shape="128,1,1,1" size="512"/>
			<output>
				<port id="1" precision="FP32">
					<dim>128</dim>
					<dim>1</dim>
					<dim>1</dim>
					<dim>1</dim>
				</port>
			</output>
		</layer>
		<layer id="62" name="15021506_const" type="Const" version="opset1">
			<data element_type="f32" offset="52316" shape="128,1,1,1" size="512"/>
			<output>
				<port id="1" precision="FP32">
					<dim>128</dim>
					<dim>1</dim>
					<dim>1</dim>
					<dim>1</dim>
				</port>
			</output>
		</layer>
		<layer id="63" name="15031507_const" type="Const" version="opset1">
			<data element_type="f32" offset="51804" shape="128,1,1,1" size="512"/>
			<output>
				<port id="1" precision="FP32">
					<dim>128</dim>
					<dim>1</dim>
					<dim>1</dim>
					<dim>1</dim>
				</port>
			</output>
		</layer>
		<layer id="64" name="15041508_const" type="Const" version="opset1">
			<data element_type="f32" offset="52316" shape="128,1,1,1" size="512"/>
			<output>
				<port id="1" precision="FP32">
					<dim>128</dim>
					<dim>1</dim>
					<dim>1</dim>
					<dim>1</dim>
				</port>
			</output>
		</layer>
		<layer id="65" name="419/fq_weights_1" type="FakeQuantize" version="opset1">
			<data levels="255"/>
			<input>
				<port id="0">
					<dim>128</dim>
					<dim>1</dim>
					<dim>3</dim>
					<dim>3</dim>
				</port>
				<port id="1">
					<dim>128</dim>
					<dim>1</dim>
					<dim>1</dim>
					<dim>1</dim>
				</port>
				<port id="2">
					<dim>128</dim>
					<dim>1</dim>
					<dim>1</dim>
					<dim>1</dim>
				</port>
				<port id="3">
					<dim>128</dim>
					<dim>1</dim>
					<dim>1</dim>
					<dim>1</dim>
				</port>
				<port id="4">
					<dim>128</dim>
					<dim>1</dim>
					<dim>1</dim>
					<dim>1</dim>
				</port>
			</input>
			<output>
				<port id="5" precision="FP32">
					<dim>128</dim>
					<dim>1</dim>
					<dim>3</dim>
					<dim>3</dim>
				</port>
			</output>
		</layer>
		<layer id="66" name="7041/value7043_const" type="Const" version="opset1">
			<data element_type="i64" offset="52828" shape="5" size="40"/>
			<output>
				<port id="1" precision="I64">
					<dim>5</dim>
				</port>
			</output>
		</layer>
		<layer id="67" name="7041" type="Reshape" version="opset1">
			<data special_zero="True"/>
			<input>
				<port id="0">
					<dim>128</dim>
					<dim>1</dim>
					<dim>3</dim>
					<dim>3</dim>
				</port>
				<port id="1">
					<dim>5</dim>
				</port>
			</input>
			<output>
				<port id="2" precision="FP32">
					<dim>128</dim>
					<dim>1</dim>
					<dim>1</dim>
					<dim>3</dim>
					<dim>3</dim>
				</port>
			</output>
		</layer>
		<layer id="68" name="419" type="GroupConvolution" version="opset1">
			<data dilations="1,1" output_padding="0,0" pads_begin="1,1" pads_end="1,1" strides="2,2"/>
			<input>
				<port id="0">
					<dim>1</dim>
					<dim>128</dim>
					<dim>64</dim>
					<dim>64</dim>
				</port>
				<port id="1">
					<dim>128</dim>
					<dim>1</dim>
					<dim>1</dim>
					<dim>3</dim>
					<dim>3</dim>
				</port>
			</input>
			<output>
				<port id="2" precision="FP32">
					<dim>1</dim>
					<dim>128</dim>
					<dim>32</dim>
					<dim>32</dim>
				</port>
			</output>
		</layer>
		<layer id="69" name="data_add_1146511470/copy_const537_const" type="Const" version="opset1">
			<data element_type="f32" offset="52868" shape="1,128,1,1" size="512"/>
			<output>
				<port id="1" precision="FP32">
					<dim>1</dim>
					<dim>128</dim>
					<dim>1</dim>
					<dim>1</dim>
				</port>
			</output>
		</layer>
		<layer id="70" name="Add1_10163/Fused_Add_" type="Add" version="opset1">
			<input>
				<port id="0">
					<dim>1</dim>
					<dim>128</dim>
					<dim>32</dim>
					<dim>32</dim>
				</port>
				<port id="1">
					<dim>1</dim>
					<dim>128</dim>
					<dim>1</dim>
					<dim>1</dim>
				</port>
			</input>
			<output>
				<port id="2" precision="FP32">
					<dim>1</dim>
					<dim>128</dim>
					<dim>32</dim>
					<dim>32</dim>
				</port>
			</output>
		</layer>
		<layer id="71" name="421/Cast_120136_const539_const" type="Const" version="opset1">
			<data element_type="f32" offset="53380" shape="1" size="4"/>
			<output>
				<port id="1" precision="FP32">
					<dim>1</dim>
				</port>
			</output>
		</layer>
		<layer id="72" name="421" type="PReLU" version="opset1">
			<input>
				<port id="0">
					<dim>1</dim>
					<dim>128</dim>
					<dim>32</dim>
					<dim>32</dim>
				</port>
				<port id="1">
					<dim>1</dim>
				</port>
			</input>
			<output>
				<port id="2" precision="FP32">
					<dim>1</dim>
					<dim>128</dim>
					<dim>32</dim>
					<dim>32</dim>
				</port>
			</output>
		</layer>
		<layer id="73" name="26012605_const" type="Const" version="opset1">
			<data element_type="f32" offset="53384" shape="" size="4"/>
			<output>
				<port id="1" precision="FP32"/>
			</output>
		</layer>
		<layer id="74" name="26022606_const" type="Const" version="opset1">
			<data element_type="f32" offset="53388" shape="" size="4"/>
			<output>
				<port id="1" precision="FP32"/>
			</output>
		</layer>
		<layer id="75" name="26032607_const" type="Const" version="opset1">
			<data element_type="f32" offset="53384" shape="" size="4"/>
			<output>
				<port id="1" precision="FP32"/>
			</output>
		</layer>
		<layer id="76" name="26042608_const" type="Const" version="opset1">
			<data element_type="f32" offset="53388" shape="" size="4"/>
			<output>
				<port id="1" precision="FP32"/>
			</output>
		</layer>
		<layer id="77" name="422/fq_input_0" type="FakeQuantize" version="opset1">
			<data levels="256"/>
			<input>
				<port id="0">
					<dim>1</dim>
					<dim>128</dim>
					<dim>32</dim>
					<dim>32</dim>
				</port>
				<port id="1"/>
				<port id="2"/>
				<port id="3"/>
				<port id="4"/>
			</input>
			<output>
				<port id="5" precision="FP32">
					<dim>1</dim>
					<dim>128</dim>
					<dim>32</dim>
					<dim>32</dim>
				</port>
			</output>
		</layer>
		<layer id="78" name="Mul1_10174/Fused_Mul_1249512497_const541_const" type="Const" version="opset1">
			<data element_type="f32" offset="53392" shape="64,128,1,1" size="32768"/>
			<output>
				<port id="1" precision="FP32">
					<dim>64</dim>
					<dim>128</dim>
					<dim>1</dim>
					<dim>1</dim>
				</port>
			</output>
		</layer>
		<layer id="79" name="26112615_const" type="Const" version="opset1">
			<data element_type="f32" offset="86160" shape="64,1,1,1" size="256"/>
			<output>
				<port id="1" precision="FP32">
					<dim>64</dim>
					<dim>1</dim>
					<dim>1</dim>
					<dim>1</dim>
				</port>
			</output>
		</layer>
		<layer id="80" name="26122616_const" type="Const" version="opset1">
			<data element_type="f32" offset="86416" shape="64,1,1,1" size="256"/>
			<output>
				<port id="1" precision="FP32">
					<dim>64</dim>
					<dim>1</dim>
					<dim>1</dim>
					<dim>1</dim>
				</port>
			</output>
		</layer>
		<layer id="81" name="26132617_const" type="Const" version="opset1">
			<data element_type="f32" offset="86160" shape="64,1,1,1" size="256"/>
			<output>
				<port id="1" precision="FP32">
					<dim>64</dim>
					<dim>1</dim>
					<dim>1</dim>
					<dim>1</dim>
				</port>
			</output>
		</layer>
		<layer id="82" name="26142618_const" type="Const" version="opset1">
			<data element_type="f32" offset="86416" shape="64,1,1,1" size="256"/>
			<output>
				<port id="1" precision="FP32">
					<dim>64</dim>
					<dim>1</dim>
					<dim>1</dim>
					<dim>1</dim>
				</port>
			</output>
		</layer>
		<layer id="83" name="422/fq_weights_1" type="FakeQuantize" version="opset1">
			<data levels="255"/>
			<input>
				<port id="0">
					<dim>64</dim>
					<dim>128</dim>
					<dim>1</dim>
					<dim>1</dim>
				</port>
				<port id="1">
					<dim>64</dim>
					<dim>1</dim>
					<dim>1</dim>
					<dim>1</dim>
				</port>
				<port id="2">
					<dim>64</dim>
					<dim>1</dim>
					<dim>1</dim>
					<dim>1</dim>
				</port>
				<port id="3">
					<dim>64</dim>
					<dim>1</dim>
					<dim>1</dim>
					<dim>1</dim>
				</port>
				<port id="4">
					<dim>64</dim>
					<dim>1</dim>
					<dim>1</dim>
					<dim>1</dim>
				</port>
			</input>
			<output>
				<port id="5" precision="FP32">
					<dim>64</dim>
					<dim>128</dim>
					<dim>1</dim>
					<dim>1</dim>
				</port>
			</output>
		</layer>
		<layer id="84" name="422" type="Convolution" version="opset1">
			<data dilations="1,1" output_padding="0,0" pads_begin="0,0" pads_end="0,0" strides="1,1"/>
			<input>
				<port id="0">
					<dim>1</dim>
					<dim>128</dim>
					<dim>32</dim>
					<dim>32</dim>
				</port>
				<port id="1">
					<dim>64</dim>
					<dim>128</dim>
					<dim>1</dim>
					<dim>1</dim>
				</port>
			</input>
			<output>
				<port id="2" precision="FP32">
					<dim>1</dim>
					<dim>64</dim>
					<dim>32</dim>
					<dim>32</dim>
				</port>
			</output>
		</layer>
		<layer id="85" name="data_add_1147311478/copy_const543_const" type="Const" version="opset1">
			<data element_type="f32" offset="86672" shape="1,64,1,1" size="256"/>
			<output>
				<port id="1" precision="FP32">
					<dim>1</dim>
					<dim>64</dim>
					<dim>1</dim>
					<dim>1</dim>
				</port>
			</output>
		</layer>
		<layer id="86" name="Add1_10175/Fused_Add_" type="Add" version="opset1">
			<input>
				<port id="0">
					<dim>1</dim>
					<dim>64</dim>
					<dim>32</dim>
					<dim>32</dim>
				</port>
				<port id="1">
					<dim>1</dim>
					<dim>64</dim>
					<dim>1</dim>
					<dim>1</dim>
				</port>
			</input>
			<output>
				<port id="2" precision="FP32">
					<dim>1</dim>
					<dim>64</dim>
					<dim>32</dim>
					<dim>32</dim>
				</port>
			</output>
		</layer>
		<layer id="87" name="20612065_const" type="Const" version="opset1">
			<data element_type="f32" offset="86928" shape="" size="4"/>
			<output>
				<port id="1" precision="FP32"/>
			</output>
		</layer>
		<layer id="88" name="20622066_const" type="Const" version="opset1">
			<data element_type="f32" offset="86932" shape="" size="4"/>
			<output>
				<port id="1" precision="FP32"/>
			</output>
		</layer>
		<layer id="89" name="20632067_const" type="Const" version="opset1">
			<data element_type="f32" offset="86928" shape="" size="4"/>
			<output>
				<port id="1" precision="FP32"/>
			</output>
		</layer>
		<layer id="90" name="20642068_const" type="Const" version="opset1">
			<data element_type="f32" offset="86932" shape="" size="4"/>
			<output>
				<port id="1" precision="FP32"/>
			</output>
		</layer>
		<layer id="91" name="425/fq_input_0" type="FakeQuantize" version="opset1">
			<data levels="256"/>
			<input>
				<port id="0">
					<dim>1</dim>
					<dim>64</dim>
					<dim>32</dim>
					<dim>32</dim>
				</port>
				<port id="1"/>
				<port id="2"/>
				<port id="3"/>
				<port id="4"/>
			</input>
			<output>
				<port id="5" precision="FP32">
					<dim>1</dim>
					<dim>64</dim>
					<dim>32</dim>
					<dim>32</dim>
				</port>
			</output>
		</layer>
		<layer id="92" name="425" type="AvgPool" version="opset1">
			<data exclude-pad="true" kernel="32,32" pads_begin="0,0" pads_end="0,0" rounding_type="floor" strides="32,32"/>
			<input>
				<port id="0">
					<dim>1</dim>
					<dim>64</dim>
					<dim>32</dim>
					<dim>32</dim>
				</port>
			</input>
			<output>
				<port id="1" precision="FP32">
					<dim>1</dim>
					<dim>64</dim>
					<dim>1</dim>
					<dim>1</dim>
				</port>
			</output>
		</layer>
		<layer id="93" name="20212025_const" type="Const" version="opset1">
			<data element_type="f32" offset="86936" shape="" size="4"/>
			<output>
				<port id="1" precision="FP32"/>
			</output>
		</layer>
		<layer id="94" name="20222026_const" type="Const" version="opset1">
			<data element_type="f32" offset="86940" shape="" size="4"/>
			<output>
				<port id="1" precision="FP32"/>
			</output>
		</layer>
		<layer id="95" name="20232027_const" type="Const" version="opset1">
			<data element_type="f32" offset="86936" shape="" size="4"/>
			<output>
				<port id="1" precision="FP32"/>
			</output>
		</layer>
		<layer id="96" name="20242028_const" type="Const" version="opset1">
			<data element_type="f32" offset="86940" shape="" size="4"/>
			<output>
				<port id="1" precision="FP32"/>
			</output>
		</layer>
		<layer id="97" name="426/WithoutBiases/fq_input_0" type="FakeQuantize" version="opset1">
			<data levels="256"/>
			<input>
				<port id="0">
					<dim>1</dim>
					<dim>64</dim>
					<dim>1</dim>
					<dim>1</dim>
				</port>
				<port id="1"/>
				<port id="2"/>
				<port id="3"/>
				<port id="4"/>
			</input>
			<output>
				<port id="5" precision="FP32">
					<dim>1</dim>
					<dim>64</dim>
					<dim>1</dim>
					<dim>1</dim>
				</port>
			</output>
		</layer>
		<layer id="98" name="onnx_initializer_node_40/Output_0/Data__const546_const" type="Const" version="opset1">
			<data element_type="f32" offset="86944" shape="8,64,1,1" size="2048"/>
			<output>
				<port id="1" precision="FP32">
					<dim>8</dim>
					<dim>64</dim>
					<dim>1</dim>
					<dim>1</dim>
				</port>
			</output>
		</layer>
		<layer id="99" name="20312035_const" type="Const" version="opset1">
			<data element_type="f32" offset="88992" shape="8,1,1,1" size="32"/>
			<output>
				<port id="1" precision="FP32">
					<dim>8</dim>
					<dim>1</dim>
					<dim>1</dim>
					<dim>1</dim>
				</port>
			</output>
		</layer>
		<layer id="100" name="20322036_const" type="Const" version="opset1">
			<data element_type="f32" offset="89024" shape="8,1,1,1" size="32"/>
			<output>
				<port id="1" precision="FP32">
					<dim>8</dim>
					<dim>1</dim>
					<dim>1</dim>
					<dim>1</dim>
				</port>
			</output>
		</layer>
		<layer id="101" name="20332037_const" type="Const" version="opset1">
			<data element_type="f32" offset="88992" shape="8,1,1,1" size="32"/>
			<output>
				<port id="1" precision="FP32">
					<dim>8</dim>
					<dim>1</dim>
					<dim>1</dim>
					<dim>1</dim>
				</port>
			</output>
		</layer>
		<layer id="102" name="20342038_const" type="Const" version="opset1">
			<data element_type="f32" offset="89024" shape="8,1,1,1" size="32"/>
			<output>
				<port id="1" precision="FP32">
					<dim>8</dim>
					<dim>1</dim>
					<dim>1</dim>
					<dim>1</dim>
				</port>
			</output>
		</layer>
		<layer id="103" name="426/WithoutBiases/fq_weights_1" type="FakeQuantize" version="opset1">
			<data levels="255"/>
			<input>
				<port id="0">
					<dim>8</dim>
					<dim>64</dim>
					<dim>1</dim>
					<dim>1</dim>
				</port>
				<port id="1">
					<dim>8</dim>
					<dim>1</dim>
					<dim>1</dim>
					<dim>1</dim>
				</port>
				<port id="2">
					<dim>8</dim>
					<dim>1</dim>
					<dim>1</dim>
					<dim>1</dim>
				</port>
				<port id="3">
					<dim>8</dim>
					<dim>1</dim>
					<dim>1</dim>
					<dim>1</dim>
				</port>
				<port id="4">
					<dim>8</dim>
					<dim>1</dim>
					<dim>1</dim>
					<dim>1</dim>
				</port>
			</input>
			<output>
				<port id="5" precision="FP32">
					<dim>8</dim>
					<dim>64</dim>
					<dim>1</dim>
					<dim>1</dim>
				</port>
			</output>
		</layer>
		<layer id="104" name="426/WithoutBiases" type="Convolution" version="opset1">
			<data dilations="1,1" output_padding="0,0" pads_begin="0,0" pads_end="0,0" strides="1,1"/>
			<input>
				<port id="0">
					<dim>1</dim>
					<dim>64</dim>
					<dim>1</dim>
					<dim>1</dim>
				</port>
				<port id="1">
					<dim>8</dim>
					<dim>64</dim>
					<dim>1</dim>
					<dim>1</dim>
				</port>
			</input>
			<output>
				<port id="2" precision="FP32">
					<dim>1</dim>
					<dim>8</dim>
					<dim>1</dim>
					<dim>1</dim>
				</port>
			</output>
		</layer>
		<layer id="105" name="426/Dims7181/copy_const548_const" type="Const" version="opset1">
			<data element_type="f32" offset="89056" shape="1,8,1,1" size="32"/>
			<output>
				<port id="1" precision="FP32">
					<dim>1</dim>
					<dim>8</dim>
					<dim>1</dim>
					<dim>1</dim>
				</port>
			</output>
		</layer>
		<layer id="106" name="426" type="Add" version="opset1">
			<input>
				<port id="0">
					<dim>1</dim>
					<dim>8</dim>
					<dim>1</dim>
					<dim>1</dim>
				</port>
				<port id="1">
					<dim>1</dim>
					<dim>8</dim>
					<dim>1</dim>
					<dim>1</dim>
				</port>
			</input>
			<output>
				<port id="2" precision="FP32">
					<dim>1</dim>
					<dim>8</dim>
					<dim>1</dim>
					<dim>1</dim>
				</port>
			</output>
		</layer>
		<layer id="107" name="427/Cast_120212_const550_const" type="Const" version="opset1">
			<data element_type="f32" offset="89088" shape="1" size="4"/>
			<output>
				<port id="1" precision="FP32">
					<dim>1</dim>
				</port>
			</output>
		</layer>
		<layer id="108" name="427" type="PReLU" version="opset1">
			<input>
				<port id="0">
					<dim>1</dim>
					<dim>8</dim>
					<dim>1</dim>
					<dim>1</dim>
				</port>
				<port id="1">
					<dim>1</dim>
				</port>
			</input>
			<output>
				<port id="2" precision="FP32">
					<dim>1</dim>
					<dim>8</dim>
					<dim>1</dim>
					<dim>1</dim>
				</port>
			</output>
		</layer>
		<layer id="109" name="15911595_const" type="Const" version="opset1">
			<data element_type="f32" offset="89092" shape="" size="4"/>
			<output>
				<port id="1" precision="FP32"/>
			</output>
		</layer>
		<layer id="110" name="15921596_const" type="Const" version="opset1">
			<data element_type="f32" offset="89096" shape="" size="4"/>
			<output>
				<port id="1" precision="FP32"/>
			</output>
		</layer>
		<layer id="111" name="15931597_const" type="Const" version="opset1">
			<data element_type="f32" offset="89092" shape="" size="4"/>
			<output>
				<port id="1" precision="FP32"/>
			</output>
		</layer>
		<layer id="112" name="15941598_const" type="Const" version="opset1">
			<data element_type="f32" offset="89096" shape="" size="4"/>
			<output>
				<port id="1" precision="FP32"/>
			</output>
		</layer>
		<layer id="113" name="428/WithoutBiases/fq_input_0" type="FakeQuantize" version="opset1">
			<data levels="256"/>
			<input>
				<port id="0">
					<dim>1</dim>
					<dim>8</dim>
					<dim>1</dim>
					<dim>1</dim>
				</port>
				<port id="1"/>
				<port id="2"/>
				<port id="3"/>
				<port id="4"/>
			</input>
			<output>
				<port id="5" precision="FP32">
					<dim>1</dim>
					<dim>8</dim>
					<dim>1</dim>
					<dim>1</dim>
				</port>
			</output>
		</layer>
		<layer id="114" name="onnx_initializer_node_42/Output_0/Data__const552_const" type="Const" version="opset1">
			<data element_type="f32" offset="89100" shape="64,8,1,1" size="2048"/>
			<output>
				<port id="1" precision="FP32">
					<dim>64</dim>
					<dim>8</dim>
					<dim>1</dim>
					<dim>1</dim>
				</port>
			</output>
		</layer>
		<layer id="115" name="16011605_const" type="Const" version="opset1">
			<data element_type="f32" offset="91148" shape="64,1,1,1" size="256"/>
			<output>
				<port id="1" precision="FP32">
					<dim>64</dim>
					<dim>1</dim>
					<dim>1</dim>
					<dim>1</dim>
				</port>
			</output>
		</layer>
		<layer id="116" name="16021606_const" type="Const" version="opset1">
			<data element_type="f32" offset="91404" shape="64,1,1,1" size="256"/>
			<output>
				<port id="1" precision="FP32">
					<dim>64</dim>
					<dim>1</dim>
					<dim>1</dim>
					<dim>1</dim>
				</port>
			</output>
		</layer>
		<layer id="117" name="16031607_const" type="Const" version="opset1">
			<data element_type="f32" offset="91148" shape="64,1,1,1" size="256"/>
			<output>
				<port id="1" precision="FP32">
					<dim>64</dim>
					<dim>1</dim>
					<dim>1</dim>
					<dim>1</dim>
				</port>
			</output>
		</layer>
		<layer id="118" name="16041608_const" type="Const" version="opset1">
			<data element_type="f32" offset="91404" shape="64,1,1,1" size="256"/>
			<output>
				<port id="1" precision="FP32">
					<dim>64</dim>
					<dim>1</dim>
					<dim>1</dim>
					<dim>1</dim>
				</port>
			</output>
		</layer>
		<layer id="119" name="428/WithoutBiases/fq_weights_1" type="FakeQuantize" version="opset1">
			<data levels="255"/>
			<input>
				<port id="0">
					<dim>64</dim>
					<dim>8</dim>
					<dim>1</dim>
					<dim>1</dim>
				</port>
				<port id="1">
					<dim>64</dim>
					<dim>1</dim>
					<dim>1</dim>
					<dim>1</dim>
				</port>
				<port id="2">
					<dim>64</dim>
					<dim>1</dim>
					<dim>1</dim>
					<dim>1</dim>
				</port>
				<port id="3">
					<dim>64</dim>
					<dim>1</dim>
					<dim>1</dim>
					<dim>1</dim>
				</port>
				<port id="4">
					<dim>64</dim>
					<dim>1</dim>
					<dim>1</dim>
					<dim>1</dim>
				</port>
			</input>
			<output>
				<port id="5" precision="FP32">
					<dim>64</dim>
					<dim>8</dim>
					<dim>1</dim>
					<dim>1</dim>
				</port>
			</output>
		</layer>
		<layer id="120" name="428/WithoutBiases" type="Convolution" version="opset1">
			<data dilations="1,1" output_padding="0,0" pads_begin="0,0" pads_end="0,0" strides="1,1"/>
			<input>
				<port id="0">
					<dim>1</dim>
					<dim>8</dim>
					<dim>1</dim>
					<dim>1</dim>
				</port>
				<port id="1">
					<dim>64</dim>
					<dim>8</dim>
					<dim>1</dim>
					<dim>1</dim>
				</port>
			</input>
			<output>
				<port id="2" precision="FP32">
					<dim>1</dim>
					<dim>64</dim>
					<dim>1</dim>
					<dim>1</dim>
				</port>
			</output>
		</layer>
		<layer id="121" name="428/Dims7109/copy_const554_const" type="Const" version="opset1">
			<data element_type="f32" offset="91660" shape="1,64,1,1" size="256"/>
			<output>
				<port id="1" precision="FP32">
					<dim>1</dim>
					<dim>64</dim>
					<dim>1</dim>
					<dim>1</dim>
				</port>
			</output>
		</layer>
		<layer id="122" name="428" type="Add" version="opset1">
			<input>
				<port id="0">
					<dim>1</dim>
					<dim>64</dim>
					<dim>1</dim>
					<dim>1</dim>
				</port>
				<port id="1">
					<dim>1</dim>
					<dim>64</dim>
					<dim>1</dim>
					<dim>1</dim>
				</port>
			</input>
			<output>
				<port id="2" precision="FP32">
					<dim>1</dim>
					<dim>64</dim>
					<dim>1</dim>
					<dim>1</dim>
				</port>
			</output>
		</layer>
		<layer id="123" name="429" type="Sigmoid" version="opset1">
			<input>
				<port id="0">
					<dim>1</dim>
					<dim>64</dim>
					<dim>1</dim>
					<dim>1</dim>
				</port>
			</input>
			<output>
				<port id="1" precision="FP32">
					<dim>1</dim>
					<dim>64</dim>
					<dim>1</dim>
					<dim>1</dim>
				</port>
			</output>
		</layer>
		<layer id="124" name="27912795_const" type="Const" version="opset1">
			<data element_type="f32" offset="89092" shape="" size="4"/>
			<output>
				<port id="1" precision="FP32"/>
			</output>
		</layer>
		<layer id="125" name="27922796_const" type="Const" version="opset1">
			<data element_type="f32" offset="91916" shape="" size="4"/>
			<output>
				<port id="1" precision="FP32"/>
			</output>
		</layer>
		<layer id="126" name="27932797_const" type="Const" version="opset1">
			<data element_type="f32" offset="89092" shape="" size="4"/>
			<output>
				<port id="1" precision="FP32"/>
			</output>
		</layer>
		<layer id="127" name="27942798_const" type="Const" version="opset1">
			<data element_type="f32" offset="91916" shape="" size="4"/>
			<output>
				<port id="1" precision="FP32"/>
			</output>
		</layer>
		<layer id="128" name="430/fq_input_1" type="FakeQuantize" version="opset1">
			<data levels="256"/>
			<input>
				<port id="0">
					<dim>1</dim>
					<dim>64</dim>
					<dim>1</dim>
					<dim>1</dim>
				</port>
				<port id="1"/>
				<port id="2"/>
				<port id="3"/>
				<port id="4"/>
			</input>
			<output>
				<port id="5" precision="FP32">
					<dim>1</dim>
					<dim>64</dim>
					<dim>1</dim>
					<dim>1</dim>
				</port>
			</output>
		</layer>
		<layer id="129" name="430" type="Multiply" version="opset1">
			<input>
				<port id="0">
					<dim>1</dim>
					<dim>64</dim>
					<dim>32</dim>
					<dim>32</dim>
				</port>
				<port id="1">
					<dim>1</dim>
					<dim>64</dim>
					<dim>1</dim>
					<dim>1</dim>
				</port>
			</input>
			<output>
				<port id="2" precision="FP32">
					<dim>1</dim>
					<dim>64</dim>
					<dim>32</dim>
					<dim>32</dim>
				</port>
			</output>
		</layer>
		<layer id="130" name="29612965_const" type="Const" version="opset1">
			<data element_type="f32" offset="91920" shape="" size="4"/>
			<output>
				<port id="1" precision="FP32"/>
			</output>
		</layer>
		<layer id="131" name="29622966_const" type="Const" version="opset1">
			<data element_type="f32" offset="91924" shape="" size="4"/>
			<output>
				<port id="1" precision="FP32"/>
			</output>
		</layer>
		<layer id="132" name="29632967_const" type="Const" version="opset1">
			<data element_type="f32" offset="91920" shape="" size="4"/>
			<output>
				<port id="1" precision="FP32"/>
			</output>
		</layer>
		<layer id="133" name="29642968_const" type="Const" version="opset1">
			<data element_type="f32" offset="91924" shape="" size="4"/>
			<output>
				<port id="1" precision="FP32"/>
			</output>
		</layer>
		<layer id="134" name="431/fq_input_0" type="FakeQuantize" version="opset1">
			<data levels="256"/>
			<input>
				<port id="0">
					<dim>1</dim>
					<dim>64</dim>
					<dim>32</dim>
					<dim>32</dim>
				</port>
				<port id="1"/>
				<port id="2"/>
				<port id="3"/>
				<port id="4"/>
			</input>
			<output>
				<port id="5" precision="FP32">
					<dim>1</dim>
					<dim>64</dim>
					<dim>32</dim>
					<dim>32</dim>
				</port>
			</output>
		</layer>
		<layer id="135" name="Mul1_10186/Fused_Mul_1249912501_const558_const" type="Const" version="opset1">
			<data element_type="f32" offset="91928" shape="128,64,1,1" size="32768"/>
			<output>
				<port id="1" precision="FP32">
					<dim>128</dim>
					<dim>64</dim>
					<dim>1</dim>
					<dim>1</dim>
				</port>
			</output>
		</layer>
		<layer id="136" name="29712975_const" type="Const" version="opset1">
			<data element_type="f32" offset="124696" shape="128,1,1,1" size="512"/>
			<output>
				<port id="1" precision="FP32">
					<dim>128</dim>
					<dim>1</dim>
					<dim>1</dim>
					<dim>1</dim>
				</port>
			</output>
		</layer>
		<layer id="137" name="29722976_const" type="Const" version="opset1">
			<data element_type="f32" offset="125208" shape="128,1,1,1" size="512"/>
			<output>
				<port id="1" precision="FP32">
					<dim>128</dim>
					<dim>1</dim>
					<dim>1</dim>
					<dim>1</dim>
				</port>
			</output>
		</layer>
		<layer id="138" name="29732977_const" type="Const" version="opset1">
			<data element_type="f32" offset="124696" shape="128,1,1,1" size="512"/>
			<output>
				<port id="1" precision="FP32">
					<dim>128</dim>
					<dim>1</dim>
					<dim>1</dim>
					<dim>1</dim>
				</port>
			</output>
		</layer>
		<layer id="139" name="29742978_const" type="Const" version="opset1">
			<data element_type="f32" offset="125208" shape="128,1,1,1" size="512"/>
			<output>
				<port id="1" precision="FP32">
					<dim>128</dim>
					<dim>1</dim>
					<dim>1</dim>
					<dim>1</dim>
				</port>
			</output>
		</layer>
		<layer id="140" name="431/fq_weights_1" type="FakeQuantize" version="opset1">
			<data levels="255"/>
			<input>
				<port id="0">
					<dim>128</dim>
					<dim>64</dim>
					<dim>1</dim>
					<dim>1</dim>
				</port>
				<port id="1">
					<dim>128</dim>
					<dim>1</dim>
					<dim>1</dim>
					<dim>1</dim>
				</port>
				<port id="2">
					<dim>128</dim>
					<dim>1</dim>
					<dim>1</dim>
					<dim>1</dim>
				</port>
				<port id="3">
					<dim>128</dim>
					<dim>1</dim>
					<dim>1</dim>
					<dim>1</dim>
				</port>
				<port id="4">
					<dim>128</dim>
					<dim>1</dim>
					<dim>1</dim>
					<dim>1</dim>
				</port>
			</input>
			<output>
				<port id="5" precision="FP32">
					<dim>128</dim>
					<dim>64</dim>
					<dim>1</dim>
					<dim>1</dim>
				</port>
			</output>
		</layer>
		<layer id="141" name="431" type="Convolution" version="opset1">
			<data dilations="1,1" output_padding="0,0" pads_begin="0,0" pads_end="0,0" strides="1,1"/>
			<input>
				<port id="0">
					<dim>1</dim>
					<dim>64</dim>
					<dim>32</dim>
					<dim>32</dim>
				</port>
				<port id="1">
					<dim>128</dim>
					<dim>64</dim>
					<dim>1</dim>
					<dim>1</dim>
				</port>
			</input>
			<output>
				<port id="2" precision="FP32">
					<dim>1</dim>
					<dim>128</dim>
					<dim>32</dim>
					<dim>32</dim>
				</port>
			</output>
		</layer>
		<layer id="142" name="data_add_1148111486/copy_const560_const" type="Const" version="opset1">
			<data element_type="f32" offset="125720" shape="1,128,1,1" size="512"/>
			<output>
				<port id="1" precision="FP32">
					<dim>1</dim>
					<dim>128</dim>
					<dim>1</dim>
					<dim>1</dim>
				</port>
			</output>
		</layer>
		<layer id="143" name="Add1_10187/Fused_Add_" type="Add" version="opset1">
			<input>
				<port id="0">
					<dim>1</dim>
					<dim>128</dim>
					<dim>32</dim>
					<dim>32</dim>
				</port>
				<port id="1">
					<dim>1</dim>
					<dim>128</dim>
					<dim>1</dim>
					<dim>1</dim>
				</port>
			</input>
			<output>
				<port id="2" precision="FP32">
					<dim>1</dim>
					<dim>128</dim>
					<dim>32</dim>
					<dim>32</dim>
				</port>
			</output>
		</layer>
		<layer id="144" name="433/Cast_120166_const562_const" type="Const" version="opset1">
			<data element_type="f32" offset="126232" shape="1" size="4"/>
			<output>
				<port id="1" precision="FP32">
					<dim>1</dim>
				</port>
			</output>
		</layer>
		<layer id="145" name="433" type="PReLU" version="opset1">
			<input>
				<port id="0">
					<dim>1</dim>
					<dim>128</dim>
					<dim>32</dim>
					<dim>32</dim>
				</port>
				<port id="1">
					<dim>1</dim>
				</port>
			</input>
			<output>
				<port id="2" precision="FP32">
					<dim>1</dim>
					<dim>128</dim>
					<dim>32</dim>
					<dim>32</dim>
				</port>
			</output>
		</layer>
		<layer id="146" name="35113515_const" type="Const" version="opset1">
			<data element_type="f32" offset="126236" shape="1,128,1,1" size="512"/>
			<output>
				<port id="1" precision="FP32">
					<dim>1</dim>
					<dim>128</dim>
					<dim>1</dim>
					<dim>1</dim>
				</port>
			</output>
		</layer>
		<layer id="147" name="35123516_const" type="Const" version="opset1">
			<data element_type="f32" offset="126748" shape="1,128,1,1" size="512"/>
			<output>
				<port id="1" precision="FP32">
					<dim>1</dim>
					<dim>128</dim>
					<dim>1</dim>
					<dim>1</dim>
				</port>
			</output>
		</layer>
		<layer id="148" name="35133517_const" type="Const" version="opset1">
			<data element_type="f32" offset="126236" shape="1,128,1,1" size="512"/>
			<output>
				<port id="1" precision="FP32">
					<dim>1</dim>
					<dim>128</dim>
					<dim>1</dim>
					<dim>1</dim>
				</port>
			</output>
		</layer>
		<layer id="149" name="35143518_const" type="Const" version="opset1">
			<data element_type="f32" offset="126748" shape="1,128,1,1" size="512"/>
			<output>
				<port id="1" precision="FP32">
					<dim>1</dim>
					<dim>128</dim>
					<dim>1</dim>
					<dim>1</dim>
				</port>
			</output>
		</layer>
		<layer id="150" name="434/fq_input_0" type="FakeQuantize" version="opset1">
			<data levels="256"/>
			<input>
				<port id="0">
					<dim>1</dim>
					<dim>128</dim>
					<dim>32</dim>
					<dim>32</dim>
				</port>
				<port id="1">
					<dim>1</dim>
					<dim>128</dim>
					<dim>1</dim>
					<dim>1</dim>
				</port>
				<port id="2">
					<dim>1</dim>
					<dim>128</dim>
					<dim>1</dim>
					<dim>1</dim>
				</port>
				<port id="3">
					<dim>1</dim>
					<dim>128</dim>
					<dim>1</dim>
					<dim>1</dim>
				</port>
				<port id="4">
					<dim>1</dim>
					<dim>128</dim>
					<dim>1</dim>
					<dim>1</dim>
				</port>
			</input>
			<output>
				<port id="5" precision="FP32">
					<dim>1</dim>
					<dim>128</dim>
					<dim>32</dim>
					<dim>32</dim>
				</port>
			</output>
		</layer>
		<layer id="151" name="1171992_const" type="Const" version="opset1">
			<data element_type="f32" offset="127260" shape="128,1,3,3" size="4608"/>
			<output>
				<port id="1" precision="FP32">
					<dim>128</dim>
					<dim>1</dim>
					<dim>3</dim>
					<dim>3</dim>
				</port>
			</output>
		</layer>
		<layer id="152" name="35213525_const" type="Const" version="opset1">
			<data element_type="f32" offset="131868" shape="128,1,1,1" size="512"/>
			<output>
				<port id="1" precision="FP32">
					<dim>128</dim>
					<dim>1</dim>
					<dim>1</dim>
					<dim>1</dim>
				</port>
			</output>
		</layer>
		<layer id="153" name="35223526_const" type="Const" version="opset1">
			<data element_type="f32" offset="132380" shape="128,1,1,1" size="512"/>
			<output>
				<port id="1" precision="FP32">
					<dim>128</dim>
					<dim>1</dim>
					<dim>1</dim>
					<dim>1</dim>
				</port>
			</output>
		</layer>
		<layer id="154" name="35233527_const" type="Const" version="opset1">
			<data element_type="f32" offset="131868" shape="128,1,1,1" size="512"/>
			<output>
				<port id="1" precision="FP32">
					<dim>128</dim>
					<dim>1</dim>
					<dim>1</dim>
					<dim>1</dim>
				</port>
			</output>
		</layer>
		<layer id="155" name="35243528_const" type="Const" version="opset1">
			<data element_type="f32" offset="132380" shape="128,1,1,1" size="512"/>
			<output>
				<port id="1" precision="FP32">
					<dim>128</dim>
					<dim>1</dim>
					<dim>1</dim>
					<dim>1</dim>
				</port>
			</output>
		</layer>
		<layer id="156" name="434/fq_weights_1" type="FakeQuantize" version="opset1">
			<data levels="255"/>
			<input>
				<port id="0">
					<dim>128</dim>
					<dim>1</dim>
					<dim>3</dim>
					<dim>3</dim>
				</port>
				<port id="1">
					<dim>128</dim>
					<dim>1</dim>
					<dim>1</dim>
					<dim>1</dim>
				</port>
				<port id="2">
					<dim>128</dim>
					<dim>1</dim>
					<dim>1</dim>
					<dim>1</dim>
				</port>
				<port id="3">
					<dim>128</dim>
					<dim>1</dim>
					<dim>1</dim>
					<dim>1</dim>
				</port>
				<port id="4">
					<dim>128</dim>
					<dim>1</dim>
					<dim>1</dim>
					<dim>1</dim>
				</port>
			</input>
			<output>
				<port id="5" precision="FP32">
					<dim>128</dim>
					<dim>1</dim>
					<dim>3</dim>
					<dim>3</dim>
				</port>
			</output>
		</layer>
		<layer id="157" name="7061/value7063_const" type="Const" version="opset1">
			<data element_type="i64" offset="52828" shape="5" size="40"/>
			<output>
				<port id="1" precision="I64">
					<dim>5</dim>
				</port>
			</output>
		</layer>
		<layer id="158" name="7061" type="Reshape" version="opset1">
			<data special_zero="True"/>
			<input>
				<port id="0">
					<dim>128</dim>
					<dim>1</dim>
					<dim>3</dim>
					<dim>3</dim>
				</port>
				<port id="1">
					<dim>5</dim>
				</port>
			</input>
			<output>
				<port id="2" precision="FP32">
					<dim>128</dim>
					<dim>1</dim>
					<dim>1</dim>
					<dim>3</dim>
					<dim>3</dim>
				</port>
			</output>
		</layer>
		<layer id="159" name="434" type="GroupConvolution" version="opset1">
			<data dilations="1,1" output_padding="0,0" pads_begin="1,1" pads_end="1,1" strides="1,1"/>
			<input>
				<port id="0">
					<dim>1</dim>
					<dim>128</dim>
					<dim>32</dim>
					<dim>32</dim>
				</port>
				<port id="1">
					<dim>128</dim>
					<dim>1</dim>
					<dim>1</dim>
					<dim>3</dim>
					<dim>3</dim>
				</port>
			</input>
			<output>
				<port id="2" precision="FP32">
					<dim>1</dim>
					<dim>128</dim>
					<dim>32</dim>
					<dim>32</dim>
				</port>
			</output>
		</layer>
		<layer id="160" name="data_add_1148911494/copy_const566_const" type="Const" version="opset1">
			<data element_type="f32" offset="132892" shape="1,128,1,1" size="512"/>
			<output>
				<port id="1" precision="FP32">
					<dim>1</dim>
					<dim>128</dim>
					<dim>1</dim>
					<dim>1</dim>
				</port>
			</output>
		</layer>
		<layer id="161" name="Add1_10199/Fused_Add_" type="Add" version="opset1">
			<input>
				<port id="0">
					<dim>1</dim>
					<dim>128</dim>
					<dim>32</dim>
					<dim>32</dim>
				</port>
				<port id="1">
					<dim>1</dim>
					<dim>128</dim>
					<dim>1</dim>
					<dim>1</dim>
				</port>
			</input>
			<output>
				<port id="2" precision="FP32">
					<dim>1</dim>
					<dim>128</dim>
					<dim>32</dim>
					<dim>32</dim>
				</port>
			</output>
		</layer>
		<layer id="162" name="436/Cast_120210_const568_const" type="Const" version="opset1">
			<data element_type="f32" offset="133404" shape="1" size="4"/>
			<output>
				<port id="1" precision="FP32">
					<dim>1</dim>
				</port>
			</output>
		</layer>
		<layer id="163" name="436" type="PReLU" version="opset1">
			<input>
				<port id="0">
					<dim>1</dim>
					<dim>128</dim>
					<dim>32</dim>
					<dim>32</dim>
				</port>
				<port id="1">
					<dim>1</dim>
				</port>
			</input>
			<output>
				<port id="2" precision="FP32">
					<dim>1</dim>
					<dim>128</dim>
					<dim>32</dim>
					<dim>32</dim>
				</port>
			</output>
		</layer>
		<layer id="164" name="31413145_const" type="Const" version="opset1">
			<data element_type="f32" offset="133408" shape="" size="4"/>
			<output>
				<port id="1" precision="FP32"/>
			</output>
		</layer>
		<layer id="165" name="31423146_const" type="Const" version="opset1">
			<data element_type="f32" offset="133412" shape="" size="4"/>
			<output>
				<port id="1" precision="FP32"/>
			</output>
		</layer>
		<layer id="166" name="31433147_const" type="Const" version="opset1">
			<data element_type="f32" offset="133408" shape="" size="4"/>
			<output>
				<port id="1" precision="FP32"/>
			</output>
		</layer>
		<layer id="167" name="31443148_const" type="Const" version="opset1">
			<data element_type="f32" offset="133412" shape="" size="4"/>
			<output>
				<port id="1" precision="FP32"/>
			</output>
		</layer>
		<layer id="168" name="437/fq_input_0" type="FakeQuantize" version="opset1">
			<data levels="256"/>
			<input>
				<port id="0">
					<dim>1</dim>
					<dim>128</dim>
					<dim>32</dim>
					<dim>32</dim>
				</port>
				<port id="1"/>
				<port id="2"/>
				<port id="3"/>
				<port id="4"/>
			</input>
			<output>
				<port id="5" precision="FP32">
					<dim>1</dim>
					<dim>128</dim>
					<dim>32</dim>
					<dim>32</dim>
				</port>
			</output>
		</layer>
		<layer id="169" name="Mul1_10210/Fused_Mul_1250712509_const570_const" type="Const" version="opset1">
			<data element_type="f32" offset="133416" shape="64,128,1,1" size="32768"/>
			<output>
				<port id="1" precision="FP32">
					<dim>64</dim>
					<dim>128</dim>
					<dim>1</dim>
					<dim>1</dim>
				</port>
			</output>
		</layer>
		<layer id="170" name="31513155_const" type="Const" version="opset1">
			<data element_type="f32" offset="166184" shape="64,1,1,1" size="256"/>
			<output>
				<port id="1" precision="FP32">
					<dim>64</dim>
					<dim>1</dim>
					<dim>1</dim>
					<dim>1</dim>
				</port>
			</output>
		</layer>
		<layer id="171" name="31523156_const" type="Const" version="opset1">
			<data element_type="f32" offset="166440" shape="64,1,1,1" size="256"/>
			<output>
				<port id="1" precision="FP32">
					<dim>64</dim>
					<dim>1</dim>
					<dim>1</dim>
					<dim>1</dim>
				</port>
			</output>
		</layer>
		<layer id="172" name="31533157_const" type="Const" version="opset1">
			<data element_type="f32" offset="166184" shape="64,1,1,1" size="256"/>
			<output>
				<port id="1" precision="FP32">
					<dim>64</dim>
					<dim>1</dim>
					<dim>1</dim>
					<dim>1</dim>
				</port>
			</output>
		</layer>
		<layer id="173" name="31543158_const" type="Const" version="opset1">
			<data element_type="f32" offset="166440" shape="64,1,1,1" size="256"/>
			<output>
				<port id="1" precision="FP32">
					<dim>64</dim>
					<dim>1</dim>
					<dim>1</dim>
					<dim>1</dim>
				</port>
			</output>
		</layer>
		<layer id="174" name="437/fq_weights_1" type="FakeQuantize" version="opset1">
			<data levels="255"/>
			<input>
				<port id="0">
					<dim>64</dim>
					<dim>128</dim>
					<dim>1</dim>
					<dim>1</dim>
				</port>
				<port id="1">
					<dim>64</dim>
					<dim>1</dim>
					<dim>1</dim>
					<dim>1</dim>
				</port>
				<port id="2">
					<dim>64</dim>
					<dim>1</dim>
					<dim>1</dim>
					<dim>1</dim>
				</port>
				<port id="3">
					<dim>64</dim>
					<dim>1</dim>
					<dim>1</dim>
					<dim>1</dim>
				</port>
				<port id="4">
					<dim>64</dim>
					<dim>1</dim>
					<dim>1</dim>
					<dim>1</dim>
				</port>
			</input>
			<output>
				<port id="5" precision="FP32">
					<dim>64</dim>
					<dim>128</dim>
					<dim>1</dim>
					<dim>1</dim>
				</port>
			</output>
		</layer>
		<layer id="175" name="437" type="Convolution" version="opset1">
			<data dilations="1,1" output_padding="0,0" pads_begin="0,0" pads_end="0,0" strides="1,1"/>
			<input>
				<port id="0">
					<dim>1</dim>
					<dim>128</dim>
					<dim>32</dim>
					<dim>32</dim>
				</port>
				<port id="1">
					<dim>64</dim>
					<dim>128</dim>
					<dim>1</dim>
					<dim>1</dim>
				</port>
			</input>
			<output>
				<port id="2" precision="FP32">
					<dim>1</dim>
					<dim>64</dim>
					<dim>32</dim>
					<dim>32</dim>
				</port>
			</output>
		</layer>
		<layer id="176" name="data_add_1149711502/copy_const572_const" type="Const" version="opset1">
			<data element_type="f32" offset="166696" shape="1,64,1,1" size="256"/>
			<output>
				<port id="1" precision="FP32">
					<dim>1</dim>
					<dim>64</dim>
					<dim>1</dim>
					<dim>1</dim>
				</port>
			</output>
		</layer>
		<layer id="177" name="Add1_10211/Fused_Add_" type="Add" version="opset1">
			<input>
				<port id="0">
					<dim>1</dim>
					<dim>64</dim>
					<dim>32</dim>
					<dim>32</dim>
				</port>
				<port id="1">
					<dim>1</dim>
					<dim>64</dim>
					<dim>1</dim>
					<dim>1</dim>
				</port>
			</input>
			<output>
				<port id="2" precision="FP32">
					<dim>1</dim>
					<dim>64</dim>
					<dim>32</dim>
					<dim>32</dim>
				</port>
			</output>
		</layer>
		<layer id="178" name="28012805_const" type="Const" version="opset1">
			<data element_type="f32" offset="166952" shape="" size="4"/>
			<output>
				<port id="1" precision="FP32"/>
			</output>
		</layer>
		<layer id="179" name="28022806_const" type="Const" version="opset1">
			<data element_type="f32" offset="166956" shape="" size="4"/>
			<output>
				<port id="1" precision="FP32"/>
			</output>
		</layer>
		<layer id="180" name="28032807_const" type="Const" version="opset1">
			<data element_type="f32" offset="166952" shape="" size="4"/>
			<output>
				<port id="1" precision="FP32"/>
			</output>
		</layer>
		<layer id="181" name="28042808_const" type="Const" version="opset1">
			<data element_type="f32" offset="166956" shape="" size="4"/>
			<output>
				<port id="1" precision="FP32"/>
			</output>
		</layer>
		<layer id="182" name="440/fq_input_0" type="FakeQuantize" version="opset1">
			<data levels="256"/>
			<input>
				<port id="0">
					<dim>1</dim>
					<dim>64</dim>
					<dim>32</dim>
					<dim>32</dim>
				</port>
				<port id="1"/>
				<port id="2"/>
				<port id="3"/>
				<port id="4"/>
			</input>
			<output>
				<port id="5" precision="FP32">
					<dim>1</dim>
					<dim>64</dim>
					<dim>32</dim>
					<dim>32</dim>
				</port>
			</output>
		</layer>
		<layer id="183" name="440" type="AvgPool" version="opset1">
			<data exclude-pad="true" kernel="32,32" pads_begin="0,0" pads_end="0,0" rounding_type="floor" strides="32,32"/>
			<input>
				<port id="0">
					<dim>1</dim>
					<dim>64</dim>
					<dim>32</dim>
					<dim>32</dim>
				</port>
			</input>
			<output>
				<port id="1" precision="FP32">
					<dim>1</dim>
					<dim>64</dim>
					<dim>1</dim>
					<dim>1</dim>
				</port>
			</output>
		</layer>
		<layer id="184" name="15311535_const" type="Const" version="opset1">
			<data element_type="f32" offset="166960" shape="" size="4"/>
			<output>
				<port id="1" precision="FP32"/>
			</output>
		</layer>
		<layer id="185" name="15321536_const" type="Const" version="opset1">
			<data element_type="f32" offset="166964" shape="" size="4"/>
			<output>
				<port id="1" precision="FP32"/>
			</output>
		</layer>
		<layer id="186" name="15331537_const" type="Const" version="opset1">
			<data element_type="f32" offset="166960" shape="" size="4"/>
			<output>
				<port id="1" precision="FP32"/>
			</output>
		</layer>
		<layer id="187" name="15341538_const" type="Const" version="opset1">
			<data element_type="f32" offset="166964" shape="" size="4"/>
			<output>
				<port id="1" precision="FP32"/>
			</output>
		</layer>
		<layer id="188" name="441/WithoutBiases/fq_input_0" type="FakeQuantize" version="opset1">
			<data levels="256"/>
			<input>
				<port id="0">
					<dim>1</dim>
					<dim>64</dim>
					<dim>1</dim>
					<dim>1</dim>
				</port>
				<port id="1"/>
				<port id="2"/>
				<port id="3"/>
				<port id="4"/>
			</input>
			<output>
				<port id="5" precision="FP32">
					<dim>1</dim>
					<dim>64</dim>
					<dim>1</dim>
					<dim>1</dim>
				</port>
			</output>
		</layer>
		<layer id="189" name="onnx_initializer_node_65/Output_0/Data__const575_const" type="Const" version="opset1">
			<data element_type="f32" offset="166968" shape="8,64,1,1" size="2048"/>
			<output>
				<port id="1" precision="FP32">
					<dim>8</dim>
					<dim>64</dim>
					<dim>1</dim>
					<dim>1</dim>
				</port>
			</output>
		</layer>
		<layer id="190" name="15411545_const" type="Const" version="opset1">
			<data element_type="f32" offset="169016" shape="8,1,1,1" size="32"/>
			<output>
				<port id="1" precision="FP32">
					<dim>8</dim>
					<dim>1</dim>
					<dim>1</dim>
					<dim>1</dim>
				</port>
			</output>
		</layer>
		<layer id="191" name="15421546_const" type="Const" version="opset1">
			<data element_type="f32" offset="169048" shape="8,1,1,1" size="32"/>
			<output>
				<port id="1" precision="FP32">
					<dim>8</dim>
					<dim>1</dim>
					<dim>1</dim>
					<dim>1</dim>
				</port>
			</output>
		</layer>
		<layer id="192" name="15431547_const" type="Const" version="opset1">
			<data element_type="f32" offset="169016" shape="8,1,1,1" size="32"/>
			<output>
				<port id="1" precision="FP32">
					<dim>8</dim>
					<dim>1</dim>
					<dim>1</dim>
					<dim>1</dim>
				</port>
			</output>
		</layer>
		<layer id="193" name="15441548_const" type="Const" version="opset1">
			<data element_type="f32" offset="169048" shape="8,1,1,1" size="32"/>
			<output>
				<port id="1" precision="FP32">
					<dim>8</dim>
					<dim>1</dim>
					<dim>1</dim>
					<dim>1</dim>
				</port>
			</output>
		</layer>
		<layer id="194" name="441/WithoutBiases/fq_weights_1" type="FakeQuantize" version="opset1">
			<data levels="255"/>
			<input>
				<port id="0">
					<dim>8</dim>
					<dim>64</dim>
					<dim>1</dim>
					<dim>1</dim>
				</port>
				<port id="1">
					<dim>8</dim>
					<dim>1</dim>
					<dim>1</dim>
					<dim>1</dim>
				</port>
				<port id="2">
					<dim>8</dim>
					<dim>1</dim>
					<dim>1</dim>
					<dim>1</dim>
				</port>
				<port id="3">
					<dim>8</dim>
					<dim>1</dim>
					<dim>1</dim>
					<dim>1</dim>
				</port>
				<port id="4">
					<dim>8</dim>
					<dim>1</dim>
					<dim>1</dim>
					<dim>1</dim>
				</port>
			</input>
			<output>
				<port id="5" precision="FP32">
					<dim>8</dim>
					<dim>64</dim>
					<dim>1</dim>
					<dim>1</dim>
				</port>
			</output>
		</layer>
		<layer id="195" name="441/WithoutBiases" type="Convolution" version="opset1">
			<data dilations="1,1" output_padding="0,0" pads_begin="0,0" pads_end="0,0" strides="1,1"/>
			<input>
				<port id="0">
					<dim>1</dim>
					<dim>64</dim>
					<dim>1</dim>
					<dim>1</dim>
				</port>
				<port id="1">
					<dim>8</dim>
					<dim>64</dim>
					<dim>1</dim>
					<dim>1</dim>
				</port>
			</input>
			<output>
				<port id="2" precision="FP32">
					<dim>1</dim>
					<dim>8</dim>
					<dim>1</dim>
					<dim>1</dim>
				</port>
			</output>
		</layer>
		<layer id="196" name="441/Dims7241/copy_const577_const" type="Const" version="opset1">
			<data element_type="f32" offset="169080" shape="1,8,1,1" size="32"/>
			<output>
				<port id="1" precision="FP32">
					<dim>1</dim>
					<dim>8</dim>
					<dim>1</dim>
					<dim>1</dim>
				</port>
			</output>
		</layer>
		<layer id="197" name="441" type="Add" version="opset1">
			<input>
				<port id="0">
					<dim>1</dim>
					<dim>8</dim>
					<dim>1</dim>
					<dim>1</dim>
				</port>
				<port id="1">
					<dim>1</dim>
					<dim>8</dim>
					<dim>1</dim>
					<dim>1</dim>
				</port>
			</input>
			<output>
				<port id="2" precision="FP32">
					<dim>1</dim>
					<dim>8</dim>
					<dim>1</dim>
					<dim>1</dim>
				</port>
			</output>
		</layer>
		<layer id="198" name="442/Cast_120144_const579_const" type="Const" version="opset1">
			<data element_type="f32" offset="169112" shape="1" size="4"/>
			<output>
				<port id="1" precision="FP32">
					<dim>1</dim>
				</port>
			</output>
		</layer>
		<layer id="199" name="442" type="PReLU" version="opset1">
			<input>
				<port id="0">
					<dim>1</dim>
					<dim>8</dim>
					<dim>1</dim>
					<dim>1</dim>
				</port>
				<port id="1">
					<dim>1</dim>
				</port>
			</input>
			<output>
				<port id="2" precision="FP32">
					<dim>1</dim>
					<dim>8</dim>
					<dim>1</dim>
					<dim>1</dim>
				</port>
			</output>
		</layer>
		<layer id="200" name="17911795_const" type="Const" version="opset1">
			<data element_type="f32" offset="169116" shape="" size="4"/>
			<output>
				<port id="1" precision="FP32"/>
			</output>
		</layer>
		<layer id="201" name="17921796_const" type="Const" version="opset1">
			<data element_type="f32" offset="169120" shape="" size="4"/>
			<output>
				<port id="1" precision="FP32"/>
			</output>
		</layer>
		<layer id="202" name="17931797_const" type="Const" version="opset1">
			<data element_type="f32" offset="169116" shape="" size="4"/>
			<output>
				<port id="1" precision="FP32"/>
			</output>
		</layer>
		<layer id="203" name="17941798_const" type="Const" version="opset1">
			<data element_type="f32" offset="169120" shape="" size="4"/>
			<output>
				<port id="1" precision="FP32"/>
			</output>
		</layer>
		<layer id="204" name="443/WithoutBiases/fq_input_0" type="FakeQuantize" version="opset1">
			<data levels="256"/>
			<input>
				<port id="0">
					<dim>1</dim>
					<dim>8</dim>
					<dim>1</dim>
					<dim>1</dim>
				</port>
				<port id="1"/>
				<port id="2"/>
				<port id="3"/>
				<port id="4"/>
			</input>
			<output>
				<port id="5" precision="FP32">
					<dim>1</dim>
					<dim>8</dim>
					<dim>1</dim>
					<dim>1</dim>
				</port>
			</output>
		</layer>
		<layer id="205" name="onnx_initializer_node_67/Output_0/Data__const581_const" type="Const" version="opset1">
			<data element_type="f32" offset="169124" shape="64,8,1,1" size="2048"/>
			<output>
				<port id="1" precision="FP32">
					<dim>64</dim>
					<dim>8</dim>
					<dim>1</dim>
					<dim>1</dim>
				</port>
			</output>
		</layer>
		<layer id="206" name="18011805_const" type="Const" version="opset1">
			<data element_type="f32" offset="171172" shape="64,1,1,1" size="256"/>
			<output>
				<port id="1" precision="FP32">
					<dim>64</dim>
					<dim>1</dim>
					<dim>1</dim>
					<dim>1</dim>
				</port>
			</output>
		</layer>
		<layer id="207" name="18021806_const" type="Const" version="opset1">
			<data element_type="f32" offset="171428" shape="64,1,1,1" size="256"/>
			<output>
				<port id="1" precision="FP32">
					<dim>64</dim>
					<dim>1</dim>
					<dim>1</dim>
					<dim>1</dim>
				</port>
			</output>
		</layer>
		<layer id="208" name="18031807_const" type="Const" version="opset1">
			<data element_type="f32" offset="171172" shape="64,1,1,1" size="256"/>
			<output>
				<port id="1" precision="FP32">
					<dim>64</dim>
					<dim>1</dim>
					<dim>1</dim>
					<dim>1</dim>
				</port>
			</output>
		</layer>
		<layer id="209" name="18041808_const" type="Const" version="opset1">
			<data element_type="f32" offset="171428" shape="64,1,1,1" size="256"/>
			<output>
				<port id="1" precision="FP32">
					<dim>64</dim>
					<dim>1</dim>
					<dim>1</dim>
					<dim>1</dim>
				</port>
			</output>
		</layer>
		<layer id="210" name="443/WithoutBiases/fq_weights_1" type="FakeQuantize" version="opset1">
			<data levels="255"/>
			<input>
				<port id="0">
					<dim>64</dim>
					<dim>8</dim>
					<dim>1</dim>
					<dim>1</dim>
				</port>
				<port id="1">
					<dim>64</dim>
					<dim>1</dim>
					<dim>1</dim>
					<dim>1</dim>
				</port>
				<port id="2">
					<dim>64</dim>
					<dim>1</dim>
					<dim>1</dim>
					<dim>1</dim>
				</port>
				<port id="3">
					<dim>64</dim>
					<dim>1</dim>
					<dim>1</dim>
					<dim>1</dim>
				</port>
				<port id="4">
					<dim>64</dim>
					<dim>1</dim>
					<dim>1</dim>
					<dim>1</dim>
				</port>
			</input>
			<output>
				<port id="5" precision="FP32">
					<dim>64</dim>
					<dim>8</dim>
					<dim>1</dim>
					<dim>1</dim>
				</port>
			</output>
		</layer>
		<layer id="211" name="443/WithoutBiases" type="Convolution" version="opset1">
			<data dilations="1,1" output_padding="0,0" pads_begin="0,0" pads_end="0,0" strides="1,1"/>
			<input>
				<port id="0">
					<dim>1</dim>
					<dim>8</dim>
					<dim>1</dim>
					<dim>1</dim>
				</port>
				<port id="1">
					<dim>64</dim>
					<dim>8</dim>
					<dim>1</dim>
					<dim>1</dim>
				</port>
			</input>
			<output>
				<port id="2" precision="FP32">
					<dim>1</dim>
					<dim>64</dim>
					<dim>1</dim>
					<dim>1</dim>
				</port>
			</output>
		</layer>
		<layer id="212" name="443/Dims7169/copy_const583_const" type="Const" version="opset1">
			<data element_type="f32" offset="171684" shape="1,64,1,1" size="256"/>
			<output>
				<port id="1" precision="FP32">
					<dim>1</dim>
					<dim>64</dim>
					<dim>1</dim>
					<dim>1</dim>
				</port>
			</output>
		</layer>
		<layer id="213" name="443" type="Add" version="opset1">
			<input>
				<port id="0">
					<dim>1</dim>
					<dim>64</dim>
					<dim>1</dim>
					<dim>1</dim>
				</port>
				<port id="1">
					<dim>1</dim>
					<dim>64</dim>
					<dim>1</dim>
					<dim>1</dim>
				</port>
			</input>
			<output>
				<port id="2" precision="FP32">
					<dim>1</dim>
					<dim>64</dim>
					<dim>1</dim>
					<dim>1</dim>
				</port>
			</output>
		</layer>
		<layer id="214" name="444" type="Sigmoid" version="opset1">
			<input>
				<port id="0">
					<dim>1</dim>
					<dim>64</dim>
					<dim>1</dim>
					<dim>1</dim>
				</port>
			</input>
			<output>
				<port id="1" precision="FP32">
					<dim>1</dim>
					<dim>64</dim>
					<dim>1</dim>
					<dim>1</dim>
				</port>
			</output>
		</layer>
		<layer id="215" name="34613465_const" type="Const" version="opset1">
			<data element_type="f32" offset="89092" shape="" size="4"/>
			<output>
				<port id="1" precision="FP32"/>
			</output>
		</layer>
		<layer id="216" name="34623466_const" type="Const" version="opset1">
			<data element_type="f32" offset="171940" shape="" size="4"/>
			<output>
				<port id="1" precision="FP32"/>
			</output>
		</layer>
		<layer id="217" name="34633467_const" type="Const" version="opset1">
			<data element_type="f32" offset="89092" shape="" size="4"/>
			<output>
				<port id="1" precision="FP32"/>
			</output>
		</layer>
		<layer id="218" name="34643468_const" type="Const" version="opset1">
			<data element_type="f32" offset="171940" shape="" size="4"/>
			<output>
				<port id="1" precision="FP32"/>
			</output>
		</layer>
		<layer id="219" name="445/fq_input_1" type="FakeQuantize" version="opset1">
			<data levels="256"/>
			<input>
				<port id="0">
					<dim>1</dim>
					<dim>64</dim>
					<dim>1</dim>
					<dim>1</dim>
				</port>
				<port id="1"/>
				<port id="2"/>
				<port id="3"/>
				<port id="4"/>
			</input>
			<output>
				<port id="5" precision="FP32">
					<dim>1</dim>
					<dim>64</dim>
					<dim>1</dim>
					<dim>1</dim>
				</port>
			</output>
		</layer>
		<layer id="220" name="445" type="Multiply" version="opset1">
			<input>
				<port id="0">
					<dim>1</dim>
					<dim>64</dim>
					<dim>32</dim>
					<dim>32</dim>
				</port>
				<port id="1">
					<dim>1</dim>
					<dim>64</dim>
					<dim>1</dim>
					<dim>1</dim>
				</port>
			</input>
			<output>
				<port id="2" precision="FP32">
					<dim>1</dim>
					<dim>64</dim>
					<dim>32</dim>
					<dim>32</dim>
				</port>
			</output>
		</layer>
		<layer id="221" name="19711975_const" type="Const" version="opset1">
			<data element_type="f32" offset="171944" shape="" size="4"/>
			<output>
				<port id="1" precision="FP32"/>
			</output>
		</layer>
		<layer id="222" name="19721976_const" type="Const" version="opset1">
			<data element_type="f32" offset="171948" shape="" size="4"/>
			<output>
				<port id="1" precision="FP32"/>
			</output>
		</layer>
		<layer id="223" name="19731977_const" type="Const" version="opset1">
			<data element_type="f32" offset="171944" shape="" size="4"/>
			<output>
				<port id="1" precision="FP32"/>
			</output>
		</layer>
		<layer id="224" name="19741978_const" type="Const" version="opset1">
			<data element_type="f32" offset="171948" shape="" size="4"/>
			<output>
				<port id="1" precision="FP32"/>
			</output>
		</layer>
		<layer id="225" name="446/fq_input_1" type="FakeQuantize" version="opset1">
			<data levels="256"/>
			<input>
				<port id="0">
					<dim>1</dim>
					<dim>64</dim>
					<dim>32</dim>
					<dim>32</dim>
				</port>
				<port id="1"/>
				<port id="2"/>
				<port id="3"/>
				<port id="4"/>
			</input>
			<output>
				<port id="5" precision="FP32">
					<dim>1</dim>
					<dim>64</dim>
					<dim>32</dim>
					<dim>32</dim>
				</port>
			</output>
		</layer>
		<layer id="226" name="446" type="Add" version="opset1">
			<input>
				<port id="0">
					<dim>1</dim>
					<dim>64</dim>
					<dim>32</dim>
					<dim>32</dim>
				</port>
				<port id="1">
					<dim>1</dim>
					<dim>64</dim>
					<dim>32</dim>
					<dim>32</dim>
				</port>
			</input>
			<output>
				<port id="2" precision="FP32">
					<dim>1</dim>
					<dim>64</dim>
					<dim>32</dim>
					<dim>32</dim>
				</port>
			</output>
		</layer>
		<layer id="227" name="24712475_const" type="Const" version="opset1">
			<data element_type="f32" offset="171952" shape="" size="4"/>
			<output>
				<port id="1" precision="FP32"/>
			</output>
		</layer>
		<layer id="228" name="24722476_const" type="Const" version="opset1">
			<data element_type="f32" offset="171956" shape="" size="4"/>
			<output>
				<port id="1" precision="FP32"/>
			</output>
		</layer>
		<layer id="229" name="24732477_const" type="Const" version="opset1">
			<data element_type="f32" offset="171952" shape="" size="4"/>
			<output>
				<port id="1" precision="FP32"/>
			</output>
		</layer>
		<layer id="230" name="24742478_const" type="Const" version="opset1">
			<data element_type="f32" offset="171956" shape="" size="4"/>
			<output>
				<port id="1" precision="FP32"/>
			</output>
		</layer>
		<layer id="231" name="447/fq_input_0" type="FakeQuantize" version="opset1">
			<data levels="256"/>
			<input>
				<port id="0">
					<dim>1</dim>
					<dim>64</dim>
					<dim>32</dim>
					<dim>32</dim>
				</port>
				<port id="1"/>
				<port id="2"/>
				<port id="3"/>
				<port id="4"/>
			</input>
			<output>
				<port id="5" precision="FP32">
					<dim>1</dim>
					<dim>64</dim>
					<dim>32</dim>
					<dim>32</dim>
				</port>
			</output>
		</layer>
		<layer id="232" name="Mul1_10222/Fused_Mul_1251112513_const588_const" type="Const" version="opset1">
			<data element_type="f32" offset="171960" shape="128,64,1,1" size="32768"/>
			<output>
				<port id="1" precision="FP32">
					<dim>128</dim>
					<dim>64</dim>
					<dim>1</dim>
					<dim>1</dim>
				</port>
			</output>
		</layer>
		<layer id="233" name="24812485_const" type="Const" version="opset1">
			<data element_type="f32" offset="204728" shape="128,1,1,1" size="512"/>
			<output>
				<port id="1" precision="FP32">
					<dim>128</dim>
					<dim>1</dim>
					<dim>1</dim>
					<dim>1</dim>
				</port>
			</output>
		</layer>
		<layer id="234" name="24822486_const" type="Const" version="opset1">
			<data element_type="f32" offset="205240" shape="128,1,1,1" size="512"/>
			<output>
				<port id="1" precision="FP32">
					<dim>128</dim>
					<dim>1</dim>
					<dim>1</dim>
					<dim>1</dim>
				</port>
			</output>
		</layer>
		<layer id="235" name="24832487_const" type="Const" version="opset1">
			<data element_type="f32" offset="204728" shape="128,1,1,1" size="512"/>
			<output>
				<port id="1" precision="FP32">
					<dim>128</dim>
					<dim>1</dim>
					<dim>1</dim>
					<dim>1</dim>
				</port>
			</output>
		</layer>
		<layer id="236" name="24842488_const" type="Const" version="opset1">
			<data element_type="f32" offset="205240" shape="128,1,1,1" size="512"/>
			<output>
				<port id="1" precision="FP32">
					<dim>128</dim>
					<dim>1</dim>
					<dim>1</dim>
					<dim>1</dim>
				</port>
			</output>
		</layer>
		<layer id="237" name="447/fq_weights_1" type="FakeQuantize" version="opset1">
			<data levels="255"/>
			<input>
				<port id="0">
					<dim>128</dim>
					<dim>64</dim>
					<dim>1</dim>
					<dim>1</dim>
				</port>
				<port id="1">
					<dim>128</dim>
					<dim>1</dim>
					<dim>1</dim>
					<dim>1</dim>
				</port>
				<port id="2">
					<dim>128</dim>
					<dim>1</dim>
					<dim>1</dim>
					<dim>1</dim>
				</port>
				<port id="3">
					<dim>128</dim>
					<dim>1</dim>
					<dim>1</dim>
					<dim>1</dim>
				</port>
				<port id="4">
					<dim>128</dim>
					<dim>1</dim>
					<dim>1</dim>
					<dim>1</dim>
				</port>
			</input>
			<output>
				<port id="5" precision="FP32">
					<dim>128</dim>
					<dim>64</dim>
					<dim>1</dim>
					<dim>1</dim>
				</port>
			</output>
		</layer>
		<layer id="238" name="447" type="Convolution" version="opset1">
			<data dilations="1,1" output_padding="0,0" pads_begin="0,0" pads_end="0,0" strides="1,1"/>
			<input>
				<port id="0">
					<dim>1</dim>
					<dim>64</dim>
					<dim>32</dim>
					<dim>32</dim>
				</port>
				<port id="1">
					<dim>128</dim>
					<dim>64</dim>
					<dim>1</dim>
					<dim>1</dim>
				</port>
			</input>
			<output>
				<port id="2" precision="FP32">
					<dim>1</dim>
					<dim>128</dim>
					<dim>32</dim>
					<dim>32</dim>
				</port>
			</output>
		</layer>
		<layer id="239" name="data_add_1150511510/copy_const590_const" type="Const" version="opset1">
			<data element_type="f32" offset="205752" shape="1,128,1,1" size="512"/>
			<output>
				<port id="1" precision="FP32">
					<dim>1</dim>
					<dim>128</dim>
					<dim>1</dim>
					<dim>1</dim>
				</port>
			</output>
		</layer>
		<layer id="240" name="Add1_10223/Fused_Add_" type="Add" version="opset1">
			<input>
				<port id="0">
					<dim>1</dim>
					<dim>128</dim>
					<dim>32</dim>
					<dim>32</dim>
				</port>
				<port id="1">
					<dim>1</dim>
					<dim>128</dim>
					<dim>1</dim>
					<dim>1</dim>
				</port>
			</input>
			<output>
				<port id="2" precision="FP32">
					<dim>1</dim>
					<dim>128</dim>
					<dim>32</dim>
					<dim>32</dim>
				</port>
			</output>
		</layer>
		<layer id="241" name="449/Cast_120146_const592_const" type="Const" version="opset1">
			<data element_type="f32" offset="206264" shape="1" size="4"/>
			<output>
				<port id="1" precision="FP32">
					<dim>1</dim>
				</port>
			</output>
		</layer>
		<layer id="242" name="449" type="PReLU" version="opset1">
			<input>
				<port id="0">
					<dim>1</dim>
					<dim>128</dim>
					<dim>32</dim>
					<dim>32</dim>
				</port>
				<port id="1">
					<dim>1</dim>
				</port>
			</input>
			<output>
				<port id="2" precision="FP32">
					<dim>1</dim>
					<dim>128</dim>
					<dim>32</dim>
					<dim>32</dim>
				</port>
			</output>
		</layer>
		<layer id="243" name="23912395_const" type="Const" version="opset1">
			<data element_type="f32" offset="206268" shape="1,128,1,1" size="512"/>
			<output>
				<port id="1" precision="FP32">
					<dim>1</dim>
					<dim>128</dim>
					<dim>1</dim>
					<dim>1</dim>
				</port>
			</output>
		</layer>
		<layer id="244" name="23922396_const" type="Const" version="opset1">
			<data element_type="f32" offset="206780" shape="1,128,1,1" size="512"/>
			<output>
				<port id="1" precision="FP32">
					<dim>1</dim>
					<dim>128</dim>
					<dim>1</dim>
					<dim>1</dim>
				</port>
			</output>
		</layer>
		<layer id="245" name="23932397_const" type="Const" version="opset1">
			<data element_type="f32" offset="206268" shape="1,128,1,1" size="512"/>
			<output>
				<port id="1" precision="FP32">
					<dim>1</dim>
					<dim>128</dim>
					<dim>1</dim>
					<dim>1</dim>
				</port>
			</output>
		</layer>
		<layer id="246" name="23942398_const" type="Const" version="opset1">
			<data element_type="f32" offset="206780" shape="1,128,1,1" size="512"/>
			<output>
				<port id="1" precision="FP32">
					<dim>1</dim>
					<dim>128</dim>
					<dim>1</dim>
					<dim>1</dim>
				</port>
			</output>
		</layer>
		<layer id="247" name="450/fq_input_0" type="FakeQuantize" version="opset1">
			<data levels="256"/>
			<input>
				<port id="0">
					<dim>1</dim>
					<dim>128</dim>
					<dim>32</dim>
					<dim>32</dim>
				</port>
				<port id="1">
					<dim>1</dim>
					<dim>128</dim>
					<dim>1</dim>
					<dim>1</dim>
				</port>
				<port id="2">
					<dim>1</dim>
					<dim>128</dim>
					<dim>1</dim>
					<dim>1</dim>
				</port>
				<port id="3">
					<dim>1</dim>
					<dim>128</dim>
					<dim>1</dim>
					<dim>1</dim>
				</port>
				<port id="4">
					<dim>1</dim>
					<dim>128</dim>
					<dim>1</dim>
					<dim>1</dim>
				</port>
			</input>
			<output>
				<port id="5" precision="FP32">
					<dim>1</dim>
					<dim>128</dim>
					<dim>32</dim>
					<dim>32</dim>
				</port>
			</output>
		</layer>
		<layer id="248" name="1175994_const" type="Const" version="opset1">
			<data element_type="f32" offset="207292" shape="128,1,3,3" size="4608"/>
			<output>
				<port id="1" precision="FP32">
					<dim>128</dim>
					<dim>1</dim>
					<dim>3</dim>
					<dim>3</dim>
				</port>
			</output>
		</layer>
		<layer id="249" name="24012405_const" type="Const" version="opset1">
			<data element_type="f32" offset="211900" shape="128,1,1,1" size="512"/>
			<output>
				<port id="1" precision="FP32">
					<dim>128</dim>
					<dim>1</dim>
					<dim>1</dim>
					<dim>1</dim>
				</port>
			</output>
		</layer>
		<layer id="250" name="24022406_const" type="Const" version="opset1">
			<data element_type="f32" offset="212412" shape="128,1,1,1" size="512"/>
			<output>
				<port id="1" precision="FP32">
					<dim>128</dim>
					<dim>1</dim>
					<dim>1</dim>
					<dim>1</dim>
				</port>
			</output>
		</layer>
		<layer id="251" name="24032407_const" type="Const" version="opset1">
			<data element_type="f32" offset="211900" shape="128,1,1,1" size="512"/>
			<output>
				<port id="1" precision="FP32">
					<dim>128</dim>
					<dim>1</dim>
					<dim>1</dim>
					<dim>1</dim>
				</port>
			</output>
		</layer>
		<layer id="252" name="24042408_const" type="Const" version="opset1">
			<data element_type="f32" offset="212412" shape="128,1,1,1" size="512"/>
			<output>
				<port id="1" precision="FP32">
					<dim>128</dim>
					<dim>1</dim>
					<dim>1</dim>
					<dim>1</dim>
				</port>
			</output>
		</layer>
		<layer id="253" name="450/fq_weights_1" type="FakeQuantize" version="opset1">
			<data levels="255"/>
			<input>
				<port id="0">
					<dim>128</dim>
					<dim>1</dim>
					<dim>3</dim>
					<dim>3</dim>
				</port>
				<port id="1">
					<dim>128</dim>
					<dim>1</dim>
					<dim>1</dim>
					<dim>1</dim>
				</port>
				<port id="2">
					<dim>128</dim>
					<dim>1</dim>
					<dim>1</dim>
					<dim>1</dim>
				</port>
				<port id="3">
					<dim>128</dim>
					<dim>1</dim>
					<dim>1</dim>
					<dim>1</dim>
				</port>
				<port id="4">
					<dim>128</dim>
					<dim>1</dim>
					<dim>1</dim>
					<dim>1</dim>
				</port>
			</input>
			<output>
				<port id="5" precision="FP32">
					<dim>128</dim>
					<dim>1</dim>
					<dim>3</dim>
					<dim>3</dim>
				</port>
			</output>
		</layer>
		<layer id="254" name="7049/value7051_const" type="Const" version="opset1">
			<data element_type="i64" offset="52828" shape="5" size="40"/>
			<output>
				<port id="1" precision="I64">
					<dim>5</dim>
				</port>
			</output>
		</layer>
		<layer id="255" name="7049" type="Reshape" version="opset1">
			<data special_zero="True"/>
			<input>
				<port id="0">
					<dim>128</dim>
					<dim>1</dim>
					<dim>3</dim>
					<dim>3</dim>
				</port>
				<port id="1">
					<dim>5</dim>
				</port>
			</input>
			<output>
				<port id="2" precision="FP32">
					<dim>128</dim>
					<dim>1</dim>
					<dim>1</dim>
					<dim>3</dim>
					<dim>3</dim>
				</port>
			</output>
		</layer>
		<layer id="256" name="450" type="GroupConvolution" version="opset1">
			<data dilations="1,1" output_padding="0,0" pads_begin="1,1" pads_end="1,1" strides="1,1"/>
			<input>
				<port id="0">
					<dim>1</dim>
					<dim>128</dim>
					<dim>32</dim>
					<dim>32</dim>
				</port>
				<port id="1">
					<dim>128</dim>
					<dim>1</dim>
					<dim>1</dim>
					<dim>3</dim>
					<dim>3</dim>
				</port>
			</input>
			<output>
				<port id="2" precision="FP32">
					<dim>1</dim>
					<dim>128</dim>
					<dim>32</dim>
					<dim>32</dim>
				</port>
			</output>
		</layer>
		<layer id="257" name="data_add_1151311518/copy_const596_const" type="Const" version="opset1">
			<data element_type="f32" offset="212924" shape="1,128,1,1" size="512"/>
			<output>
				<port id="1" precision="FP32">
					<dim>1</dim>
					<dim>128</dim>
					<dim>1</dim>
					<dim>1</dim>
				</port>
			</output>
		</layer>
		<layer id="258" name="Add1_10235/Fused_Add_" type="Add" version="opset1">
			<input>
				<port id="0">
					<dim>1</dim>
					<dim>128</dim>
					<dim>32</dim>
					<dim>32</dim>
				</port>
				<port id="1">
					<dim>1</dim>
					<dim>128</dim>
					<dim>1</dim>
					<dim>1</dim>
				</port>
			</input>
			<output>
				<port id="2" precision="FP32">
					<dim>1</dim>
					<dim>128</dim>
					<dim>32</dim>
					<dim>32</dim>
				</port>
			</output>
		</layer>
		<layer id="259" name="452/Cast_120202_const598_const" type="Const" version="opset1">
			<data element_type="f32" offset="213436" shape="1" size="4"/>
			<output>
				<port id="1" precision="FP32">
					<dim>1</dim>
				</port>
			</output>
		</layer>
		<layer id="260" name="452" type="PReLU" version="opset1">
			<input>
				<port id="0">
					<dim>1</dim>
					<dim>128</dim>
					<dim>32</dim>
					<dim>32</dim>
				</port>
				<port id="1">
					<dim>1</dim>
				</port>
			</input>
			<output>
				<port id="2" precision="FP32">
					<dim>1</dim>
					<dim>128</dim>
					<dim>32</dim>
					<dim>32</dim>
				</port>
			</output>
		</layer>
		<layer id="261" name="29112915_const" type="Const" version="opset1">
			<data element_type="f32" offset="213440" shape="" size="4"/>
			<output>
				<port id="1" precision="FP32"/>
			</output>
		</layer>
		<layer id="262" name="29122916_const" type="Const" version="opset1">
			<data element_type="f32" offset="213444" shape="" size="4"/>
			<output>
				<port id="1" precision="FP32"/>
			</output>
		</layer>
		<layer id="263" name="29132917_const" type="Const" version="opset1">
			<data element_type="f32" offset="213440" shape="" size="4"/>
			<output>
				<port id="1" precision="FP32"/>
			</output>
		</layer>
		<layer id="264" name="29142918_const" type="Const" version="opset1">
			<data element_type="f32" offset="213444" shape="" size="4"/>
			<output>
				<port id="1" precision="FP32"/>
			</output>
		</layer>
		<layer id="265" name="453/fq_input_0" type="FakeQuantize" version="opset1">
			<data levels="256"/>
			<input>
				<port id="0">
					<dim>1</dim>
					<dim>128</dim>
					<dim>32</dim>
					<dim>32</dim>
				</port>
				<port id="1"/>
				<port id="2"/>
				<port id="3"/>
				<port id="4"/>
			</input>
			<output>
				<port id="5" precision="FP32">
					<dim>1</dim>
					<dim>128</dim>
					<dim>32</dim>
					<dim>32</dim>
				</port>
			</output>
		</layer>
		<layer id="266" name="Mul1_10246/Fused_Mul_1251912521_const600_const" type="Const" version="opset1">
			<data element_type="f32" offset="213448" shape="64,128,1,1" size="32768"/>
			<output>
				<port id="1" precision="FP32">
					<dim>64</dim>
					<dim>128</dim>
					<dim>1</dim>
					<dim>1</dim>
				</port>
			</output>
		</layer>
		<layer id="267" name="29212925_const" type="Const" version="opset1">
			<data element_type="f32" offset="246216" shape="64,1,1,1" size="256"/>
			<output>
				<port id="1" precision="FP32">
					<dim>64</dim>
					<dim>1</dim>
					<dim>1</dim>
					<dim>1</dim>
				</port>
			</output>
		</layer>
		<layer id="268" name="29222926_const" type="Const" version="opset1">
			<data element_type="f32" offset="246472" shape="64,1,1,1" size="256"/>
			<output>
				<port id="1" precision="FP32">
					<dim>64</dim>
					<dim>1</dim>
					<dim>1</dim>
					<dim>1</dim>
				</port>
			</output>
		</layer>
		<layer id="269" name="29232927_const" type="Const" version="opset1">
			<data element_type="f32" offset="246216" shape="64,1,1,1" size="256"/>
			<output>
				<port id="1" precision="FP32">
					<dim>64</dim>
					<dim>1</dim>
					<dim>1</dim>
					<dim>1</dim>
				</port>
			</output>
		</layer>
		<layer id="270" name="29242928_const" type="Const" version="opset1">
			<data element_type="f32" offset="246472" shape="64,1,1,1" size="256"/>
			<output>
				<port id="1" precision="FP32">
					<dim>64</dim>
					<dim>1</dim>
					<dim>1</dim>
					<dim>1</dim>
				</port>
			</output>
		</layer>
		<layer id="271" name="453/fq_weights_1" type="FakeQuantize" version="opset1">
			<data levels="255"/>
			<input>
				<port id="0">
					<dim>64</dim>
					<dim>128</dim>
					<dim>1</dim>
					<dim>1</dim>
				</port>
				<port id="1">
					<dim>64</dim>
					<dim>1</dim>
					<dim>1</dim>
					<dim>1</dim>
				</port>
				<port id="2">
					<dim>64</dim>
					<dim>1</dim>
					<dim>1</dim>
					<dim>1</dim>
				</port>
				<port id="3">
					<dim>64</dim>
					<dim>1</dim>
					<dim>1</dim>
					<dim>1</dim>
				</port>
				<port id="4">
					<dim>64</dim>
					<dim>1</dim>
					<dim>1</dim>
					<dim>1</dim>
				</port>
			</input>
			<output>
				<port id="5" precision="FP32">
					<dim>64</dim>
					<dim>128</dim>
					<dim>1</dim>
					<dim>1</dim>
				</port>
			</output>
		</layer>
		<layer id="272" name="453" type="Convolution" version="opset1">
			<data dilations="1,1" output_padding="0,0" pads_begin="0,0" pads_end="0,0" strides="1,1"/>
			<input>
				<port id="0">
					<dim>1</dim>
					<dim>128</dim>
					<dim>32</dim>
					<dim>32</dim>
				</port>
				<port id="1">
					<dim>64</dim>
					<dim>128</dim>
					<dim>1</dim>
					<dim>1</dim>
				</port>
			</input>
			<output>
				<port id="2" precision="FP32">
					<dim>1</dim>
					<dim>64</dim>
					<dim>32</dim>
					<dim>32</dim>
				</port>
			</output>
		</layer>
		<layer id="273" name="data_add_1152111526/copy_const602_const" type="Const" version="opset1">
			<data element_type="f32" offset="246728" shape="1,64,1,1" size="256"/>
			<output>
				<port id="1" precision="FP32">
					<dim>1</dim>
					<dim>64</dim>
					<dim>1</dim>
					<dim>1</dim>
				</port>
			</output>
		</layer>
		<layer id="274" name="Add1_10247/Fused_Add_" type="Add" version="opset1">
			<input>
				<port id="0">
					<dim>1</dim>
					<dim>64</dim>
					<dim>32</dim>
					<dim>32</dim>
				</port>
				<port id="1">
					<dim>1</dim>
					<dim>64</dim>
					<dim>1</dim>
					<dim>1</dim>
				</port>
			</input>
			<output>
				<port id="2" precision="FP32">
					<dim>1</dim>
					<dim>64</dim>
					<dim>32</dim>
					<dim>32</dim>
				</port>
			</output>
		</layer>
		<layer id="275" name="25312535_const" type="Const" version="opset1">
			<data element_type="f32" offset="246984" shape="" size="4"/>
			<output>
				<port id="1" precision="FP32"/>
			</output>
		</layer>
		<layer id="276" name="25322536_const" type="Const" version="opset1">
			<data element_type="f32" offset="246988" shape="" size="4"/>
			<output>
				<port id="1" precision="FP32"/>
			</output>
		</layer>
		<layer id="277" name="25332537_const" type="Const" version="opset1">
			<data element_type="f32" offset="246984" shape="" size="4"/>
			<output>
				<port id="1" precision="FP32"/>
			</output>
		</layer>
		<layer id="278" name="25342538_const" type="Const" version="opset1">
			<data element_type="f32" offset="246988" shape="" size="4"/>
			<output>
				<port id="1" precision="FP32"/>
			</output>
		</layer>
		<layer id="279" name="456/fq_input_0" type="FakeQuantize" version="opset1">
			<data levels="256"/>
			<input>
				<port id="0">
					<dim>1</dim>
					<dim>64</dim>
					<dim>32</dim>
					<dim>32</dim>
				</port>
				<port id="1"/>
				<port id="2"/>
				<port id="3"/>
				<port id="4"/>
			</input>
			<output>
				<port id="5" precision="FP32">
					<dim>1</dim>
					<dim>64</dim>
					<dim>32</dim>
					<dim>32</dim>
				</port>
			</output>
		</layer>
		<layer id="280" name="456" type="AvgPool" version="opset1">
			<data exclude-pad="true" kernel="32,32" pads_begin="0,0" pads_end="0,0" rounding_type="floor" strides="32,32"/>
			<input>
				<port id="0">
					<dim>1</dim>
					<dim>64</dim>
					<dim>32</dim>
					<dim>32</dim>
				</port>
			</input>
			<output>
				<port id="1" precision="FP32">
					<dim>1</dim>
					<dim>64</dim>
					<dim>1</dim>
					<dim>1</dim>
				</port>
			</output>
		</layer>
		<layer id="281" name="14511455_const" type="Const" version="opset1">
			<data element_type="f32" offset="246992" shape="" size="4"/>
			<output>
				<port id="1" precision="FP32"/>
			</output>
		</layer>
		<layer id="282" name="14521456_const" type="Const" version="opset1">
			<data element_type="f32" offset="246996" shape="" size="4"/>
			<output>
				<port id="1" precision="FP32"/>
			</output>
		</layer>
		<layer id="283" name="14531457_const" type="Const" version="opset1">
			<data element_type="f32" offset="246992" shape="" size="4"/>
			<output>
				<port id="1" precision="FP32"/>
			</output>
		</layer>
		<layer id="284" name="14541458_const" type="Const" version="opset1">
			<data element_type="f32" offset="246996" shape="" size="4"/>
			<output>
				<port id="1" precision="FP32"/>
			</output>
		</layer>
		<layer id="285" name="457/WithoutBiases/fq_input_0" type="FakeQuantize" version="opset1">
			<data levels="256"/>
			<input>
				<port id="0">
					<dim>1</dim>
					<dim>64</dim>
					<dim>1</dim>
					<dim>1</dim>
				</port>
				<port id="1"/>
				<port id="2"/>
				<port id="3"/>
				<port id="4"/>
			</input>
			<output>
				<port id="5" precision="FP32">
					<dim>1</dim>
					<dim>64</dim>
					<dim>1</dim>
					<dim>1</dim>
				</port>
			</output>
		</layer>
		<layer id="286" name="onnx_initializer_node_90/Output_0/Data__const605_const" type="Const" version="opset1">
			<data element_type="f32" offset="247000" shape="8,64,1,1" size="2048"/>
			<output>
				<port id="1" precision="FP32">
					<dim>8</dim>
					<dim>64</dim>
					<dim>1</dim>
					<dim>1</dim>
				</port>
			</output>
		</layer>
		<layer id="287" name="14611465_const" type="Const" version="opset1">
			<data element_type="f32" offset="249048" shape="8,1,1,1" size="32"/>
			<output>
				<port id="1" precision="FP32">
					<dim>8</dim>
					<dim>1</dim>
					<dim>1</dim>
					<dim>1</dim>
				</port>
			</output>
		</layer>
		<layer id="288" name="14621466_const" type="Const" version="opset1">
			<data element_type="f32" offset="249080" shape="8,1,1,1" size="32"/>
			<output>
				<port id="1" precision="FP32">
					<dim>8</dim>
					<dim>1</dim>
					<dim>1</dim>
					<dim>1</dim>
				</port>
			</output>
		</layer>
		<layer id="289" name="14631467_const" type="Const" version="opset1">
			<data element_type="f32" offset="249048" shape="8,1,1,1" size="32"/>
			<output>
				<port id="1" precision="FP32">
					<dim>8</dim>
					<dim>1</dim>
					<dim>1</dim>
					<dim>1</dim>
				</port>
			</output>
		</layer>
		<layer id="290" name="14641468_const" type="Const" version="opset1">
			<data element_type="f32" offset="249080" shape="8,1,1,1" size="32"/>
			<output>
				<port id="1" precision="FP32">
					<dim>8</dim>
					<dim>1</dim>
					<dim>1</dim>
					<dim>1</dim>
				</port>
			</output>
		</layer>
		<layer id="291" name="457/WithoutBiases/fq_weights_1" type="FakeQuantize" version="opset1">
			<data levels="255"/>
			<input>
				<port id="0">
					<dim>8</dim>
					<dim>64</dim>
					<dim>1</dim>
					<dim>1</dim>
				</port>
				<port id="1">
					<dim>8</dim>
					<dim>1</dim>
					<dim>1</dim>
					<dim>1</dim>
				</port>
				<port id="2">
					<dim>8</dim>
					<dim>1</dim>
					<dim>1</dim>
					<dim>1</dim>
				</port>
				<port id="3">
					<dim>8</dim>
					<dim>1</dim>
					<dim>1</dim>
					<dim>1</dim>
				</port>
				<port id="4">
					<dim>8</dim>
					<dim>1</dim>
					<dim>1</dim>
					<dim>1</dim>
				</port>
			</input>
			<output>
				<port id="5" precision="FP32">
					<dim>8</dim>
					<dim>64</dim>
					<dim>1</dim>
					<dim>1</dim>
				</port>
			</output>
		</layer>
		<layer id="292" name="457/WithoutBiases" type="Convolution" version="opset1">
			<data dilations="1,1" output_padding="0,0" pads_begin="0,0" pads_end="0,0" strides="1,1"/>
			<input>
				<port id="0">
					<dim>1</dim>
					<dim>64</dim>
					<dim>1</dim>
					<dim>1</dim>
				</port>
				<port id="1">
					<dim>8</dim>
					<dim>64</dim>
					<dim>1</dim>
					<dim>1</dim>
				</port>
			</input>
			<output>
				<port id="2" precision="FP32">
					<dim>1</dim>
					<dim>8</dim>
					<dim>1</dim>
					<dim>1</dim>
				</port>
			</output>
		</layer>
		<layer id="293" name="457/Dims7097/copy_const607_const" type="Const" version="opset1">
			<data element_type="f32" offset="249112" shape="1,8,1,1" size="32"/>
			<output>
				<port id="1" precision="FP32">
					<dim>1</dim>
					<dim>8</dim>
					<dim>1</dim>
					<dim>1</dim>
				</port>
			</output>
		</layer>
		<layer id="294" name="457" type="Add" version="opset1">
			<input>
				<port id="0">
					<dim>1</dim>
					<dim>8</dim>
					<dim>1</dim>
					<dim>1</dim>
				</port>
				<port id="1">
					<dim>1</dim>
					<dim>8</dim>
					<dim>1</dim>
					<dim>1</dim>
				</port>
			</input>
			<output>
				<port id="2" precision="FP32">
					<dim>1</dim>
					<dim>8</dim>
					<dim>1</dim>
					<dim>1</dim>
				</port>
			</output>
		</layer>
		<layer id="295" name="458/Cast_120190_const609_const" type="Const" version="opset1">
			<data element_type="f32" offset="249144" shape="1" size="4"/>
			<output>
				<port id="1" precision="FP32">
					<dim>1</dim>
				</port>
			</output>
		</layer>
		<layer id="296" name="458" type="PReLU" version="opset1">
			<input>
				<port id="0">
					<dim>1</dim>
					<dim>8</dim>
					<dim>1</dim>
					<dim>1</dim>
				</port>
				<port id="1">
					<dim>1</dim>
				</port>
			</input>
			<output>
				<port id="2" precision="FP32">
					<dim>1</dim>
					<dim>8</dim>
					<dim>1</dim>
					<dim>1</dim>
				</port>
			</output>
		</layer>
		<layer id="297" name="36713675_const" type="Const" version="opset1">
			<data element_type="f32" offset="89092" shape="" size="4"/>
			<output>
				<port id="1" precision="FP32"/>
			</output>
		</layer>
		<layer id="298" name="36723676_const" type="Const" version="opset1">
			<data element_type="f32" offset="249148" shape="" size="4"/>
			<output>
				<port id="1" precision="FP32"/>
			</output>
		</layer>
		<layer id="299" name="36733677_const" type="Const" version="opset1">
			<data element_type="f32" offset="89092" shape="" size="4"/>
			<output>
				<port id="1" precision="FP32"/>
			</output>
		</layer>
		<layer id="300" name="36743678_const" type="Const" version="opset1">
			<data element_type="f32" offset="249148" shape="" size="4"/>
			<output>
				<port id="1" precision="FP32"/>
			</output>
		</layer>
		<layer id="301" name="459/WithoutBiases/fq_input_0" type="FakeQuantize" version="opset1">
			<data levels="256"/>
			<input>
				<port id="0">
					<dim>1</dim>
					<dim>8</dim>
					<dim>1</dim>
					<dim>1</dim>
				</port>
				<port id="1"/>
				<port id="2"/>
				<port id="3"/>
				<port id="4"/>
			</input>
			<output>
				<port id="5" precision="FP32">
					<dim>1</dim>
					<dim>8</dim>
					<dim>1</dim>
					<dim>1</dim>
				</port>
			</output>
		</layer>
		<layer id="302" name="onnx_initializer_node_92/Output_0/Data__const611_const" type="Const" version="opset1">
			<data element_type="f32" offset="249152" shape="64,8,1,1" size="2048"/>
			<output>
				<port id="1" precision="FP32">
					<dim>64</dim>
					<dim>8</dim>
					<dim>1</dim>
					<dim>1</dim>
				</port>
			</output>
		</layer>
		<layer id="303" name="36813685_const" type="Const" version="opset1">
			<data element_type="f32" offset="251200" shape="64,1,1,1" size="256"/>
			<output>
				<port id="1" precision="FP32">
					<dim>64</dim>
					<dim>1</dim>
					<dim>1</dim>
					<dim>1</dim>
				</port>
			</output>
		</layer>
		<layer id="304" name="36823686_const" type="Const" version="opset1">
			<data element_type="f32" offset="251456" shape="64,1,1,1" size="256"/>
			<output>
				<port id="1" precision="FP32">
					<dim>64</dim>
					<dim>1</dim>
					<dim>1</dim>
					<dim>1</dim>
				</port>
			</output>
		</layer>
		<layer id="305" name="36833687_const" type="Const" version="opset1">
			<data element_type="f32" offset="251200" shape="64,1,1,1" size="256"/>
			<output>
				<port id="1" precision="FP32">
					<dim>64</dim>
					<dim>1</dim>
					<dim>1</dim>
					<dim>1</dim>
				</port>
			</output>
		</layer>
		<layer id="306" name="36843688_const" type="Const" version="opset1">
			<data element_type="f32" offset="251456" shape="64,1,1,1" size="256"/>
			<output>
				<port id="1" precision="FP32">
					<dim>64</dim>
					<dim>1</dim>
					<dim>1</dim>
					<dim>1</dim>
				</port>
			</output>
		</layer>
		<layer id="307" name="459/WithoutBiases/fq_weights_1" type="FakeQuantize" version="opset1">
			<data levels="255"/>
			<input>
				<port id="0">
					<dim>64</dim>
					<dim>8</dim>
					<dim>1</dim>
					<dim>1</dim>
				</port>
				<port id="1">
					<dim>64</dim>
					<dim>1</dim>
					<dim>1</dim>
					<dim>1</dim>
				</port>
				<port id="2">
					<dim>64</dim>
					<dim>1</dim>
					<dim>1</dim>
					<dim>1</dim>
				</port>
				<port id="3">
					<dim>64</dim>
					<dim>1</dim>
					<dim>1</dim>
					<dim>1</dim>
				</port>
				<port id="4">
					<dim>64</dim>
					<dim>1</dim>
					<dim>1</dim>
					<dim>1</dim>
				</port>
			</input>
			<output>
				<port id="5" precision="FP32">
					<dim>64</dim>
					<dim>8</dim>
					<dim>1</dim>
					<dim>1</dim>
				</port>
			</output>
		</layer>
		<layer id="308" name="459/WithoutBiases" type="Convolution" version="opset1">
			<data dilations="1,1" output_padding="0,0" pads_begin="0,0" pads_end="0,0" strides="1,1"/>
			<input>
				<port id="0">
					<dim>1</dim>
					<dim>8</dim>
					<dim>1</dim>
					<dim>1</dim>
				</port>
				<port id="1">
					<dim>64</dim>
					<dim>8</dim>
					<dim>1</dim>
					<dim>1</dim>
				</port>
			</input>
			<output>
				<port id="2" precision="FP32">
					<dim>1</dim>
					<dim>64</dim>
					<dim>1</dim>
					<dim>1</dim>
				</port>
			</output>
		</layer>
		<layer id="309" name="459/Dims7067/copy_const613_const" type="Const" version="opset1">
			<data element_type="f32" offset="251712" shape="1,64,1,1" size="256"/>
			<output>
				<port id="1" precision="FP32">
					<dim>1</dim>
					<dim>64</dim>
					<dim>1</dim>
					<dim>1</dim>
				</port>
			</output>
		</layer>
		<layer id="310" name="459" type="Add" version="opset1">
			<input>
				<port id="0">
					<dim>1</dim>
					<dim>64</dim>
					<dim>1</dim>
					<dim>1</dim>
				</port>
				<port id="1">
					<dim>1</dim>
					<dim>64</dim>
					<dim>1</dim>
					<dim>1</dim>
				</port>
			</input>
			<output>
				<port id="2" precision="FP32">
					<dim>1</dim>
					<dim>64</dim>
					<dim>1</dim>
					<dim>1</dim>
				</port>
			</output>
		</layer>
		<layer id="311" name="460" type="Sigmoid" version="opset1">
			<input>
				<port id="0">
					<dim>1</dim>
					<dim>64</dim>
					<dim>1</dim>
					<dim>1</dim>
				</port>
			</input>
			<output>
				<port id="1" precision="FP32">
					<dim>1</dim>
					<dim>64</dim>
					<dim>1</dim>
					<dim>1</dim>
				</port>
			</output>
		</layer>
		<layer id="312" name="31913195_const" type="Const" version="opset1">
			<data element_type="f32" offset="89092" shape="" size="4"/>
			<output>
				<port id="1" precision="FP32"/>
			</output>
		</layer>
		<layer id="313" name="31923196_const" type="Const" version="opset1">
			<data element_type="f32" offset="251968" shape="" size="4"/>
			<output>
				<port id="1" precision="FP32"/>
			</output>
		</layer>
		<layer id="314" name="31933197_const" type="Const" version="opset1">
			<data element_type="f32" offset="89092" shape="" size="4"/>
			<output>
				<port id="1" precision="FP32"/>
			</output>
		</layer>
		<layer id="315" name="31943198_const" type="Const" version="opset1">
			<data element_type="f32" offset="251968" shape="" size="4"/>
			<output>
				<port id="1" precision="FP32"/>
			</output>
		</layer>
		<layer id="316" name="461/fq_input_1" type="FakeQuantize" version="opset1">
			<data levels="256"/>
			<input>
				<port id="0">
					<dim>1</dim>
					<dim>64</dim>
					<dim>1</dim>
					<dim>1</dim>
				</port>
				<port id="1"/>
				<port id="2"/>
				<port id="3"/>
				<port id="4"/>
			</input>
			<output>
				<port id="5" precision="FP32">
					<dim>1</dim>
					<dim>64</dim>
					<dim>1</dim>
					<dim>1</dim>
				</port>
			</output>
		</layer>
		<layer id="317" name="461" type="Multiply" version="opset1">
			<input>
				<port id="0">
					<dim>1</dim>
					<dim>64</dim>
					<dim>32</dim>
					<dim>32</dim>
				</port>
				<port id="1">
					<dim>1</dim>
					<dim>64</dim>
					<dim>1</dim>
					<dim>1</dim>
				</port>
			</input>
			<output>
				<port id="2" precision="FP32">
					<dim>1</dim>
					<dim>64</dim>
					<dim>32</dim>
					<dim>32</dim>
				</port>
			</output>
		</layer>
		<layer id="318" name="18211825_const" type="Const" version="opset1">
			<data element_type="f32" offset="251972" shape="" size="4"/>
			<output>
				<port id="1" precision="FP32"/>
			</output>
		</layer>
		<layer id="319" name="18221826_const" type="Const" version="opset1">
			<data element_type="f32" offset="251976" shape="" size="4"/>
			<output>
				<port id="1" precision="FP32"/>
			</output>
		</layer>
		<layer id="320" name="18231827_const" type="Const" version="opset1">
			<data element_type="f32" offset="251972" shape="" size="4"/>
			<output>
				<port id="1" precision="FP32"/>
			</output>
		</layer>
		<layer id="321" name="18241828_const" type="Const" version="opset1">
			<data element_type="f32" offset="251976" shape="" size="4"/>
			<output>
				<port id="1" precision="FP32"/>
			</output>
		</layer>
		<layer id="322" name="462/fq_input_1" type="FakeQuantize" version="opset1">
			<data levels="256"/>
			<input>
				<port id="0">
					<dim>1</dim>
					<dim>64</dim>
					<dim>32</dim>
					<dim>32</dim>
				</port>
				<port id="1"/>
				<port id="2"/>
				<port id="3"/>
				<port id="4"/>
			</input>
			<output>
				<port id="5" precision="FP32">
					<dim>1</dim>
					<dim>64</dim>
					<dim>32</dim>
					<dim>32</dim>
				</port>
			</output>
		</layer>
		<layer id="323" name="462" type="Add" version="opset1">
			<input>
				<port id="0">
					<dim>1</dim>
					<dim>64</dim>
					<dim>32</dim>
					<dim>32</dim>
				</port>
				<port id="1">
					<dim>1</dim>
					<dim>64</dim>
					<dim>32</dim>
					<dim>32</dim>
				</port>
			</input>
			<output>
				<port id="2" precision="FP32">
					<dim>1</dim>
					<dim>64</dim>
					<dim>32</dim>
					<dim>32</dim>
				</port>
			</output>
		</layer>
		<layer id="324" name="20712075_const" type="Const" version="opset1">
			<data element_type="f32" offset="251980" shape="" size="4"/>
			<output>
				<port id="1" precision="FP32"/>
			</output>
		</layer>
		<layer id="325" name="20722076_const" type="Const" version="opset1">
			<data element_type="f32" offset="251984" shape="" size="4"/>
			<output>
				<port id="1" precision="FP32"/>
			</output>
		</layer>
		<layer id="326" name="20732077_const" type="Const" version="opset1">
			<data element_type="f32" offset="251980" shape="" size="4"/>
			<output>
				<port id="1" precision="FP32"/>
			</output>
		</layer>
		<layer id="327" name="20742078_const" type="Const" version="opset1">
			<data element_type="f32" offset="251984" shape="" size="4"/>
			<output>
				<port id="1" precision="FP32"/>
			</output>
		</layer>
		<layer id="328" name="463/fq_input_0" type="FakeQuantize" version="opset1">
			<data levels="256"/>
			<input>
				<port id="0">
					<dim>1</dim>
					<dim>64</dim>
					<dim>32</dim>
					<dim>32</dim>
				</port>
				<port id="1"/>
				<port id="2"/>
				<port id="3"/>
				<port id="4"/>
			</input>
			<output>
				<port id="5" precision="FP32">
					<dim>1</dim>
					<dim>64</dim>
					<dim>32</dim>
					<dim>32</dim>
				</port>
			</output>
		</layer>
		<layer id="329" name="Mul1_10258/Fused_Mul_1252312525_const618_const" type="Const" version="opset1">
			<data element_type="f32" offset="251988" shape="128,64,1,1" size="32768"/>
			<output>
				<port id="1" precision="FP32">
					<dim>128</dim>
					<dim>64</dim>
					<dim>1</dim>
					<dim>1</dim>
				</port>
			</output>
		</layer>
		<layer id="330" name="20812085_const" type="Const" version="opset1">
			<data element_type="f32" offset="284756" shape="128,1,1,1" size="512"/>
			<output>
				<port id="1" precision="FP32">
					<dim>128</dim>
					<dim>1</dim>
					<dim>1</dim>
					<dim>1</dim>
				</port>
			</output>
		</layer>
		<layer id="331" name="20822086_const" type="Const" version="opset1">
			<data element_type="f32" offset="285268" shape="128,1,1,1" size="512"/>
			<output>
				<port id="1" precision="FP32">
					<dim>128</dim>
					<dim>1</dim>
					<dim>1</dim>
					<dim>1</dim>
				</port>
			</output>
		</layer>
		<layer id="332" name="20832087_const" type="Const" version="opset1">
			<data element_type="f32" offset="284756" shape="128,1,1,1" size="512"/>
			<output>
				<port id="1" precision="FP32">
					<dim>128</dim>
					<dim>1</dim>
					<dim>1</dim>
					<dim>1</dim>
				</port>
			</output>
		</layer>
		<layer id="333" name="20842088_const" type="Const" version="opset1">
			<data element_type="f32" offset="285268" shape="128,1,1,1" size="512"/>
			<output>
				<port id="1" precision="FP32">
					<dim>128</dim>
					<dim>1</dim>
					<dim>1</dim>
					<dim>1</dim>
				</port>
			</output>
		</layer>
		<layer id="334" name="463/fq_weights_1" type="FakeQuantize" version="opset1">
			<data levels="255"/>
			<input>
				<port id="0">
					<dim>128</dim>
					<dim>64</dim>
					<dim>1</dim>
					<dim>1</dim>
				</port>
				<port id="1">
					<dim>128</dim>
					<dim>1</dim>
					<dim>1</dim>
					<dim>1</dim>
				</port>
				<port id="2">
					<dim>128</dim>
					<dim>1</dim>
					<dim>1</dim>
					<dim>1</dim>
				</port>
				<port id="3">
					<dim>128</dim>
					<dim>1</dim>
					<dim>1</dim>
					<dim>1</dim>
				</port>
				<port id="4">
					<dim>128</dim>
					<dim>1</dim>
					<dim>1</dim>
					<dim>1</dim>
				</port>
			</input>
			<output>
				<port id="5" precision="FP32">
					<dim>128</dim>
					<dim>64</dim>
					<dim>1</dim>
					<dim>1</dim>
				</port>
			</output>
		</layer>
		<layer id="335" name="463" type="Convolution" version="opset1">
			<data dilations="1,1" output_padding="0,0" pads_begin="0,0" pads_end="0,0" strides="1,1"/>
			<input>
				<port id="0">
					<dim>1</dim>
					<dim>64</dim>
					<dim>32</dim>
					<dim>32</dim>
				</port>
				<port id="1">
					<dim>128</dim>
					<dim>64</dim>
					<dim>1</dim>
					<dim>1</dim>
				</port>
			</input>
			<output>
				<port id="2" precision="FP32">
					<dim>1</dim>
					<dim>128</dim>
					<dim>32</dim>
					<dim>32</dim>
				</port>
			</output>
		</layer>
		<layer id="336" name="data_add_1152911534/copy_const620_const" type="Const" version="opset1">
			<data element_type="f32" offset="285780" shape="1,128,1,1" size="512"/>
			<output>
				<port id="1" precision="FP32">
					<dim>1</dim>
					<dim>128</dim>
					<dim>1</dim>
					<dim>1</dim>
				</port>
			</output>
		</layer>
		<layer id="337" name="Add1_10259/Fused_Add_" type="Add" version="opset1">
			<input>
				<port id="0">
					<dim>1</dim>
					<dim>128</dim>
					<dim>32</dim>
					<dim>32</dim>
				</port>
				<port id="1">
					<dim>1</dim>
					<dim>128</dim>
					<dim>1</dim>
					<dim>1</dim>
				</port>
			</input>
			<output>
				<port id="2" precision="FP32">
					<dim>1</dim>
					<dim>128</dim>
					<dim>32</dim>
					<dim>32</dim>
				</port>
			</output>
		</layer>
		<layer id="338" name="465/Cast_120140_const622_const" type="Const" version="opset1">
			<data element_type="f32" offset="286292" shape="1" size="4"/>
			<output>
				<port id="1" precision="FP32">
					<dim>1</dim>
				</port>
			</output>
		</layer>
		<layer id="339" name="465" type="PReLU" version="opset1">
			<input>
				<port id="0">
					<dim>1</dim>
					<dim>128</dim>
					<dim>32</dim>
					<dim>32</dim>
				</port>
				<port id="1">
					<dim>1</dim>
				</port>
			</input>
			<output>
				<port id="2" precision="FP32">
					<dim>1</dim>
					<dim>128</dim>
					<dim>32</dim>
					<dim>32</dim>
				</port>
			</output>
		</layer>
		<layer id="340" name="33413345_const" type="Const" version="opset1">
			<data element_type="f32" offset="126236" shape="1,128,1,1" size="512"/>
			<output>
				<port id="1" precision="FP32">
					<dim>1</dim>
					<dim>128</dim>
					<dim>1</dim>
					<dim>1</dim>
				</port>
			</output>
		</layer>
		<layer id="341" name="33423346_const" type="Const" version="opset1">
			<data element_type="f32" offset="286296" shape="1,128,1,1" size="512"/>
			<output>
				<port id="1" precision="FP32">
					<dim>1</dim>
					<dim>128</dim>
					<dim>1</dim>
					<dim>1</dim>
				</port>
			</output>
		</layer>
		<layer id="342" name="33433347_const" type="Const" version="opset1">
			<data element_type="f32" offset="126236" shape="1,128,1,1" size="512"/>
			<output>
				<port id="1" precision="FP32">
					<dim>1</dim>
					<dim>128</dim>
					<dim>1</dim>
					<dim>1</dim>
				</port>
			</output>
		</layer>
		<layer id="343" name="33443348_const" type="Const" version="opset1">
			<data element_type="f32" offset="286296" shape="1,128,1,1" size="512"/>
			<output>
				<port id="1" precision="FP32">
					<dim>1</dim>
					<dim>128</dim>
					<dim>1</dim>
					<dim>1</dim>
				</port>
			</output>
		</layer>
		<layer id="344" name="466/fq_input_0" type="FakeQuantize" version="opset1">
			<data levels="256"/>
			<input>
				<port id="0">
					<dim>1</dim>
					<dim>128</dim>
					<dim>32</dim>
					<dim>32</dim>
				</port>
				<port id="1">
					<dim>1</dim>
					<dim>128</dim>
					<dim>1</dim>
					<dim>1</dim>
				</port>
				<port id="2">
					<dim>1</dim>
					<dim>128</dim>
					<dim>1</dim>
					<dim>1</dim>
				</port>
				<port id="3">
					<dim>1</dim>
					<dim>128</dim>
					<dim>1</dim>
					<dim>1</dim>
				</port>
				<port id="4">
					<dim>1</dim>
					<dim>128</dim>
					<dim>1</dim>
					<dim>1</dim>
				</port>
			</input>
			<output>
				<port id="5" precision="FP32">
					<dim>1</dim>
					<dim>128</dim>
					<dim>32</dim>
					<dim>32</dim>
				</port>
			</output>
		</layer>
		<layer id="345" name="1179996_const" type="Const" version="opset1">
			<data element_type="f32" offset="286808" shape="128,1,3,3" size="4608"/>
			<output>
				<port id="1" precision="FP32">
					<dim>128</dim>
					<dim>1</dim>
					<dim>3</dim>
					<dim>3</dim>
				</port>
			</output>
		</layer>
		<layer id="346" name="33513355_const" type="Const" version="opset1">
			<data element_type="f32" offset="291416" shape="128,1,1,1" size="512"/>
			<output>
				<port id="1" precision="FP32">
					<dim>128</dim>
					<dim>1</dim>
					<dim>1</dim>
					<dim>1</dim>
				</port>
			</output>
		</layer>
		<layer id="347" name="33523356_const" type="Const" version="opset1">
			<data element_type="f32" offset="291928" shape="128,1,1,1" size="512"/>
			<output>
				<port id="1" precision="FP32">
					<dim>128</dim>
					<dim>1</dim>
					<dim>1</dim>
					<dim>1</dim>
				</port>
			</output>
		</layer>
		<layer id="348" name="33533357_const" type="Const" version="opset1">
			<data element_type="f32" offset="291416" shape="128,1,1,1" size="512"/>
			<output>
				<port id="1" precision="FP32">
					<dim>128</dim>
					<dim>1</dim>
					<dim>1</dim>
					<dim>1</dim>
				</port>
			</output>
		</layer>
		<layer id="349" name="33543358_const" type="Const" version="opset1">
			<data element_type="f32" offset="291928" shape="128,1,1,1" size="512"/>
			<output>
				<port id="1" precision="FP32">
					<dim>128</dim>
					<dim>1</dim>
					<dim>1</dim>
					<dim>1</dim>
				</port>
			</output>
		</layer>
		<layer id="350" name="466/fq_weights_1" type="FakeQuantize" version="opset1">
			<data levels="255"/>
			<input>
				<port id="0">
					<dim>128</dim>
					<dim>1</dim>
					<dim>3</dim>
					<dim>3</dim>
				</port>
				<port id="1">
					<dim>128</dim>
					<dim>1</dim>
					<dim>1</dim>
					<dim>1</dim>
				</port>
				<port id="2">
					<dim>128</dim>
					<dim>1</dim>
					<dim>1</dim>
					<dim>1</dim>
				</port>
				<port id="3">
					<dim>128</dim>
					<dim>1</dim>
					<dim>1</dim>
					<dim>1</dim>
				</port>
				<port id="4">
					<dim>128</dim>
					<dim>1</dim>
					<dim>1</dim>
					<dim>1</dim>
				</port>
			</input>
			<output>
				<port id="5" precision="FP32">
					<dim>128</dim>
					<dim>1</dim>
					<dim>3</dim>
					<dim>3</dim>
				</port>
			</output>
		</layer>
		<layer id="351" name="7037/value7039_const" type="Const" version="opset1">
			<data element_type="i64" offset="52828" shape="5" size="40"/>
			<output>
				<port id="1" precision="I64">
					<dim>5</dim>
				</port>
			</output>
		</layer>
		<layer id="352" name="7037" type="Reshape" version="opset1">
			<data special_zero="True"/>
			<input>
				<port id="0">
					<dim>128</dim>
					<dim>1</dim>
					<dim>3</dim>
					<dim>3</dim>
				</port>
				<port id="1">
					<dim>5</dim>
				</port>
			</input>
			<output>
				<port id="2" precision="FP32">
					<dim>128</dim>
					<dim>1</dim>
					<dim>1</dim>
					<dim>3</dim>
					<dim>3</dim>
				</port>
			</output>
		</layer>
		<layer id="353" name="466" type="GroupConvolution" version="opset1">
			<data dilations="1,1" output_padding="0,0" pads_begin="1,1" pads_end="1,1" strides="1,1"/>
			<input>
				<port id="0">
					<dim>1</dim>
					<dim>128</dim>
					<dim>32</dim>
					<dim>32</dim>
				</port>
				<port id="1">
					<dim>128</dim>
					<dim>1</dim>
					<dim>1</dim>
					<dim>3</dim>
					<dim>3</dim>
				</port>
			</input>
			<output>
				<port id="2" precision="FP32">
					<dim>1</dim>
					<dim>128</dim>
					<dim>32</dim>
					<dim>32</dim>
				</port>
			</output>
		</layer>
		<layer id="354" name="data_add_1153711542/copy_const626_const" type="Const" version="opset1">
			<data element_type="f32" offset="292440" shape="1,128,1,1" size="512"/>
			<output>
				<port id="1" precision="FP32">
					<dim>1</dim>
					<dim>128</dim>
					<dim>1</dim>
					<dim>1</dim>
				</port>
			</output>
		</layer>
		<layer id="355" name="Add1_10271/Fused_Add_" type="Add" version="opset1">
			<input>
				<port id="0">
					<dim>1</dim>
					<dim>128</dim>
					<dim>32</dim>
					<dim>32</dim>
				</port>
				<port id="1">
					<dim>1</dim>
					<dim>128</dim>
					<dim>1</dim>
					<dim>1</dim>
				</port>
			</input>
			<output>
				<port id="2" precision="FP32">
					<dim>1</dim>
					<dim>128</dim>
					<dim>32</dim>
					<dim>32</dim>
				</port>
			</output>
		</layer>
		<layer id="356" name="468/Cast_120148_const628_const" type="Const" version="opset1">
			<data element_type="f32" offset="292952" shape="1" size="4"/>
			<output>
				<port id="1" precision="FP32">
					<dim>1</dim>
				</port>
			</output>
		</layer>
		<layer id="357" name="468" type="PReLU" version="opset1">
			<input>
				<port id="0">
					<dim>1</dim>
					<dim>128</dim>
					<dim>32</dim>
					<dim>32</dim>
				</port>
				<port id="1">
					<dim>1</dim>
				</port>
			</input>
			<output>
				<port id="2" precision="FP32">
					<dim>1</dim>
					<dim>128</dim>
					<dim>32</dim>
					<dim>32</dim>
				</port>
			</output>
		</layer>
		<layer id="358" name="28112815_const" type="Const" version="opset1">
			<data element_type="f32" offset="292956" shape="" size="4"/>
			<output>
				<port id="1" precision="FP32"/>
			</output>
		</layer>
		<layer id="359" name="28122816_const" type="Const" version="opset1">
			<data element_type="f32" offset="292960" shape="" size="4"/>
			<output>
				<port id="1" precision="FP32"/>
			</output>
		</layer>
		<layer id="360" name="28132817_const" type="Const" version="opset1">
			<data element_type="f32" offset="292956" shape="" size="4"/>
			<output>
				<port id="1" precision="FP32"/>
			</output>
		</layer>
		<layer id="361" name="28142818_const" type="Const" version="opset1">
			<data element_type="f32" offset="292960" shape="" size="4"/>
			<output>
				<port id="1" precision="FP32"/>
			</output>
		</layer>
		<layer id="362" name="469/fq_input_0" type="FakeQuantize" version="opset1">
			<data levels="256"/>
			<input>
				<port id="0">
					<dim>1</dim>
					<dim>128</dim>
					<dim>32</dim>
					<dim>32</dim>
				</port>
				<port id="1"/>
				<port id="2"/>
				<port id="3"/>
				<port id="4"/>
			</input>
			<output>
				<port id="5" precision="FP32">
					<dim>1</dim>
					<dim>128</dim>
					<dim>32</dim>
					<dim>32</dim>
				</port>
			</output>
		</layer>
		<layer id="363" name="Mul1_10282/Fused_Mul_1253112533_const630_const" type="Const" version="opset1">
			<data element_type="f32" offset="292964" shape="64,128,1,1" size="32768"/>
			<output>
				<port id="1" precision="FP32">
					<dim>64</dim>
					<dim>128</dim>
					<dim>1</dim>
					<dim>1</dim>
				</port>
			</output>
		</layer>
		<layer id="364" name="28212825_const" type="Const" version="opset1">
			<data element_type="f32" offset="325732" shape="64,1,1,1" size="256"/>
			<output>
				<port id="1" precision="FP32">
					<dim>64</dim>
					<dim>1</dim>
					<dim>1</dim>
					<dim>1</dim>
				</port>
			</output>
		</layer>
		<layer id="365" name="28222826_const" type="Const" version="opset1">
			<data element_type="f32" offset="325988" shape="64,1,1,1" size="256"/>
			<output>
				<port id="1" precision="FP32">
					<dim>64</dim>
					<dim>1</dim>
					<dim>1</dim>
					<dim>1</dim>
				</port>
			</output>
		</layer>
		<layer id="366" name="28232827_const" type="Const" version="opset1">
			<data element_type="f32" offset="325732" shape="64,1,1,1" size="256"/>
			<output>
				<port id="1" precision="FP32">
					<dim>64</dim>
					<dim>1</dim>
					<dim>1</dim>
					<dim>1</dim>
				</port>
			</output>
		</layer>
		<layer id="367" name="28242828_const" type="Const" version="opset1">
			<data element_type="f32" offset="325988" shape="64,1,1,1" size="256"/>
			<output>
				<port id="1" precision="FP32">
					<dim>64</dim>
					<dim>1</dim>
					<dim>1</dim>
					<dim>1</dim>
				</port>
			</output>
		</layer>
		<layer id="368" name="469/fq_weights_1" type="FakeQuantize" version="opset1">
			<data levels="255"/>
			<input>
				<port id="0">
					<dim>64</dim>
					<dim>128</dim>
					<dim>1</dim>
					<dim>1</dim>
				</port>
				<port id="1">
					<dim>64</dim>
					<dim>1</dim>
					<dim>1</dim>
					<dim>1</dim>
				</port>
				<port id="2">
					<dim>64</dim>
					<dim>1</dim>
					<dim>1</dim>
					<dim>1</dim>
				</port>
				<port id="3">
					<dim>64</dim>
					<dim>1</dim>
					<dim>1</dim>
					<dim>1</dim>
				</port>
				<port id="4">
					<dim>64</dim>
					<dim>1</dim>
					<dim>1</dim>
					<dim>1</dim>
				</port>
			</input>
			<output>
				<port id="5" precision="FP32">
					<dim>64</dim>
					<dim>128</dim>
					<dim>1</dim>
					<dim>1</dim>
				</port>
			</output>
		</layer>
		<layer id="369" name="469" type="Convolution" version="opset1">
			<data dilations="1,1" output_padding="0,0" pads_begin="0,0" pads_end="0,0" strides="1,1"/>
			<input>
				<port id="0">
					<dim>1</dim>
					<dim>128</dim>
					<dim>32</dim>
					<dim>32</dim>
				</port>
				<port id="1">
					<dim>64</dim>
					<dim>128</dim>
					<dim>1</dim>
					<dim>1</dim>
				</port>
			</input>
			<output>
				<port id="2" precision="FP32">
					<dim>1</dim>
					<dim>64</dim>
					<dim>32</dim>
					<dim>32</dim>
				</port>
			</output>
		</layer>
		<layer id="370" name="data_add_1154511550/copy_const632_const" type="Const" version="opset1">
			<data element_type="f32" offset="326244" shape="1,64,1,1" size="256"/>
			<output>
				<port id="1" precision="FP32">
					<dim>1</dim>
					<dim>64</dim>
					<dim>1</dim>
					<dim>1</dim>
				</port>
			</output>
		</layer>
		<layer id="371" name="Add1_10283/Fused_Add_" type="Add" version="opset1">
			<input>
				<port id="0">
					<dim>1</dim>
					<dim>64</dim>
					<dim>32</dim>
					<dim>32</dim>
				</port>
				<port id="1">
					<dim>1</dim>
					<dim>64</dim>
					<dim>1</dim>
					<dim>1</dim>
				</port>
			</input>
			<output>
				<port id="2" precision="FP32">
					<dim>1</dim>
					<dim>64</dim>
					<dim>32</dim>
					<dim>32</dim>
				</port>
			</output>
		</layer>
		<layer id="372" name="14411445_const" type="Const" version="opset1">
			<data element_type="f32" offset="326500" shape="" size="4"/>
			<output>
				<port id="1" precision="FP32"/>
			</output>
		</layer>
		<layer id="373" name="14421446_const" type="Const" version="opset1">
			<data element_type="f32" offset="326504" shape="" size="4"/>
			<output>
				<port id="1" precision="FP32"/>
			</output>
		</layer>
		<layer id="374" name="14431447_const" type="Const" version="opset1">
			<data element_type="f32" offset="326500" shape="" size="4"/>
			<output>
				<port id="1" precision="FP32"/>
			</output>
		</layer>
		<layer id="375" name="14441448_const" type="Const" version="opset1">
			<data element_type="f32" offset="326504" shape="" size="4"/>
			<output>
				<port id="1" precision="FP32"/>
			</output>
		</layer>
		<layer id="376" name="472/fq_input_0" type="FakeQuantize" version="opset1">
			<data levels="256"/>
			<input>
				<port id="0">
					<dim>1</dim>
					<dim>64</dim>
					<dim>32</dim>
					<dim>32</dim>
				</port>
				<port id="1"/>
				<port id="2"/>
				<port id="3"/>
				<port id="4"/>
			</input>
			<output>
				<port id="5" precision="FP32">
					<dim>1</dim>
					<dim>64</dim>
					<dim>32</dim>
					<dim>32</dim>
				</port>
			</output>
		</layer>
		<layer id="377" name="472" type="AvgPool" version="opset1">
			<data exclude-pad="true" kernel="32,32" pads_begin="0,0" pads_end="0,0" rounding_type="floor" strides="32,32"/>
			<input>
				<port id="0">
					<dim>1</dim>
					<dim>64</dim>
					<dim>32</dim>
					<dim>32</dim>
				</port>
			</input>
			<output>
				<port id="1" precision="FP32">
					<dim>1</dim>
					<dim>64</dim>
					<dim>1</dim>
					<dim>1</dim>
				</port>
			</output>
		</layer>
		<layer id="378" name="31213125_const" type="Const" version="opset1">
			<data element_type="f32" offset="326508" shape="" size="4"/>
			<output>
				<port id="1" precision="FP32"/>
			</output>
		</layer>
		<layer id="379" name="31223126_const" type="Const" version="opset1">
			<data element_type="f32" offset="326512" shape="" size="4"/>
			<output>
				<port id="1" precision="FP32"/>
			</output>
		</layer>
		<layer id="380" name="31233127_const" type="Const" version="opset1">
			<data element_type="f32" offset="326508" shape="" size="4"/>
			<output>
				<port id="1" precision="FP32"/>
			</output>
		</layer>
		<layer id="381" name="31243128_const" type="Const" version="opset1">
			<data element_type="f32" offset="326512" shape="" size="4"/>
			<output>
				<port id="1" precision="FP32"/>
			</output>
		</layer>
		<layer id="382" name="473/WithoutBiases/fq_input_0" type="FakeQuantize" version="opset1">
			<data levels="256"/>
			<input>
				<port id="0">
					<dim>1</dim>
					<dim>64</dim>
					<dim>1</dim>
					<dim>1</dim>
				</port>
				<port id="1"/>
				<port id="2"/>
				<port id="3"/>
				<port id="4"/>
			</input>
			<output>
				<port id="5" precision="FP32">
					<dim>1</dim>
					<dim>64</dim>
					<dim>1</dim>
					<dim>1</dim>
				</port>
			</output>
		</layer>
		<layer id="383" name="onnx_initializer_node_115/Output_0/Data__const635_const" type="Const" version="opset1">
			<data element_type="f32" offset="326516" shape="8,64,1,1" size="2048"/>
			<output>
				<port id="1" precision="FP32">
					<dim>8</dim>
					<dim>64</dim>
					<dim>1</dim>
					<dim>1</dim>
				</port>
			</output>
		</layer>
		<layer id="384" name="31313135_const" type="Const" version="opset1">
			<data element_type="f32" offset="328564" shape="8,1,1,1" size="32"/>
			<output>
				<port id="1" precision="FP32">
					<dim>8</dim>
					<dim>1</dim>
					<dim>1</dim>
					<dim>1</dim>
				</port>
			</output>
		</layer>
		<layer id="385" name="31323136_const" type="Const" version="opset1">
			<data element_type="f32" offset="328596" shape="8,1,1,1" size="32"/>
			<output>
				<port id="1" precision="FP32">
					<dim>8</dim>
					<dim>1</dim>
					<dim>1</dim>
					<dim>1</dim>
				</port>
			</output>
		</layer>
		<layer id="386" name="31333137_const" type="Const" version="opset1">
			<data element_type="f32" offset="328564" shape="8,1,1,1" size="32"/>
			<output>
				<port id="1" precision="FP32">
					<dim>8</dim>
					<dim>1</dim>
					<dim>1</dim>
					<dim>1</dim>
				</port>
			</output>
		</layer>
		<layer id="387" name="31343138_const" type="Const" version="opset1">
			<data element_type="f32" offset="328596" shape="8,1,1,1" size="32"/>
			<output>
				<port id="1" precision="FP32">
					<dim>8</dim>
					<dim>1</dim>
					<dim>1</dim>
					<dim>1</dim>
				</port>
			</output>
		</layer>
		<layer id="388" name="473/WithoutBiases/fq_weights_1" type="FakeQuantize" version="opset1">
			<data levels="255"/>
			<input>
				<port id="0">
					<dim>8</dim>
					<dim>64</dim>
					<dim>1</dim>
					<dim>1</dim>
				</port>
				<port id="1">
					<dim>8</dim>
					<dim>1</dim>
					<dim>1</dim>
					<dim>1</dim>
				</port>
				<port id="2">
					<dim>8</dim>
					<dim>1</dim>
					<dim>1</dim>
					<dim>1</dim>
				</port>
				<port id="3">
					<dim>8</dim>
					<dim>1</dim>
					<dim>1</dim>
					<dim>1</dim>
				</port>
				<port id="4">
					<dim>8</dim>
					<dim>1</dim>
					<dim>1</dim>
					<dim>1</dim>
				</port>
			</input>
			<output>
				<port id="5" precision="FP32">
					<dim>8</dim>
					<dim>64</dim>
					<dim>1</dim>
					<dim>1</dim>
				</port>
			</output>
		</layer>
		<layer id="389" name="473/WithoutBiases" type="Convolution" version="opset1">
			<data dilations="1,1" output_padding="0,0" pads_begin="0,0" pads_end="0,0" strides="1,1"/>
			<input>
				<port id="0">
					<dim>1</dim>
					<dim>64</dim>
					<dim>1</dim>
					<dim>1</dim>
				</port>
				<port id="1">
					<dim>8</dim>
					<dim>64</dim>
					<dim>1</dim>
					<dim>1</dim>
				</port>
			</input>
			<output>
				<port id="2" precision="FP32">
					<dim>1</dim>
					<dim>8</dim>
					<dim>1</dim>
					<dim>1</dim>
				</port>
			</output>
		</layer>
		<layer id="390" name="473/Dims7133/copy_const637_const" type="Const" version="opset1">
			<data element_type="f32" offset="328628" shape="1,8,1,1" size="32"/>
			<output>
				<port id="1" precision="FP32">
					<dim>1</dim>
					<dim>8</dim>
					<dim>1</dim>
					<dim>1</dim>
				</port>
			</output>
		</layer>
		<layer id="391" name="473" type="Add" version="opset1">
			<input>
				<port id="0">
					<dim>1</dim>
					<dim>8</dim>
					<dim>1</dim>
					<dim>1</dim>
				</port>
				<port id="1">
					<dim>1</dim>
					<dim>8</dim>
					<dim>1</dim>
					<dim>1</dim>
				</port>
			</input>
			<output>
				<port id="2" precision="FP32">
					<dim>1</dim>
					<dim>8</dim>
					<dim>1</dim>
					<dim>1</dim>
				</port>
			</output>
		</layer>
		<layer id="392" name="474/Cast_120152_const639_const" type="Const" version="opset1">
			<data element_type="f32" offset="328660" shape="1" size="4"/>
			<output>
				<port id="1" precision="FP32">
					<dim>1</dim>
				</port>
			</output>
		</layer>
		<layer id="393" name="474" type="PReLU" version="opset1">
			<input>
				<port id="0">
					<dim>1</dim>
					<dim>8</dim>
					<dim>1</dim>
					<dim>1</dim>
				</port>
				<port id="1">
					<dim>1</dim>
				</port>
			</input>
			<output>
				<port id="2" precision="FP32">
					<dim>1</dim>
					<dim>8</dim>
					<dim>1</dim>
					<dim>1</dim>
				</port>
			</output>
		</layer>
		<layer id="394" name="26212625_const" type="Const" version="opset1">
			<data element_type="f32" offset="328664" shape="" size="4"/>
			<output>
				<port id="1" precision="FP32"/>
			</output>
		</layer>
		<layer id="395" name="26222626_const" type="Const" version="opset1">
			<data element_type="f32" offset="328668" shape="" size="4"/>
			<output>
				<port id="1" precision="FP32"/>
			</output>
		</layer>
		<layer id="396" name="26232627_const" type="Const" version="opset1">
			<data element_type="f32" offset="328664" shape="" size="4"/>
			<output>
				<port id="1" precision="FP32"/>
			</output>
		</layer>
		<layer id="397" name="26242628_const" type="Const" version="opset1">
			<data element_type="f32" offset="328668" shape="" size="4"/>
			<output>
				<port id="1" precision="FP32"/>
			</output>
		</layer>
		<layer id="398" name="475/WithoutBiases/fq_input_0" type="FakeQuantize" version="opset1">
			<data levels="256"/>
			<input>
				<port id="0">
					<dim>1</dim>
					<dim>8</dim>
					<dim>1</dim>
					<dim>1</dim>
				</port>
				<port id="1"/>
				<port id="2"/>
				<port id="3"/>
				<port id="4"/>
			</input>
			<output>
				<port id="5" precision="FP32">
					<dim>1</dim>
					<dim>8</dim>
					<dim>1</dim>
					<dim>1</dim>
				</port>
			</output>
		</layer>
		<layer id="399" name="onnx_initializer_node_117/Output_0/Data__const641_const" type="Const" version="opset1">
			<data element_type="f32" offset="328672" shape="64,8,1,1" size="2048"/>
			<output>
				<port id="1" precision="FP32">
					<dim>64</dim>
					<dim>8</dim>
					<dim>1</dim>
					<dim>1</dim>
				</port>
			</output>
		</layer>
		<layer id="400" name="26312635_const" type="Const" version="opset1">
			<data element_type="f32" offset="330720" shape="64,1,1,1" size="256"/>
			<output>
				<port id="1" precision="FP32">
					<dim>64</dim>
					<dim>1</dim>
					<dim>1</dim>
					<dim>1</dim>
				</port>
			</output>
		</layer>
		<layer id="401" name="26322636_const" type="Const" version="opset1">
			<data element_type="f32" offset="330976" shape="64,1,1,1" size="256"/>
			<output>
				<port id="1" precision="FP32">
					<dim>64</dim>
					<dim>1</dim>
					<dim>1</dim>
					<dim>1</dim>
				</port>
			</output>
		</layer>
		<layer id="402" name="26332637_const" type="Const" version="opset1">
			<data element_type="f32" offset="330720" shape="64,1,1,1" size="256"/>
			<output>
				<port id="1" precision="FP32">
					<dim>64</dim>
					<dim>1</dim>
					<dim>1</dim>
					<dim>1</dim>
				</port>
			</output>
		</layer>
		<layer id="403" name="26342638_const" type="Const" version="opset1">
			<data element_type="f32" offset="330976" shape="64,1,1,1" size="256"/>
			<output>
				<port id="1" precision="FP32">
					<dim>64</dim>
					<dim>1</dim>
					<dim>1</dim>
					<dim>1</dim>
				</port>
			</output>
		</layer>
		<layer id="404" name="475/WithoutBiases/fq_weights_1" type="FakeQuantize" version="opset1">
			<data levels="255"/>
			<input>
				<port id="0">
					<dim>64</dim>
					<dim>8</dim>
					<dim>1</dim>
					<dim>1</dim>
				</port>
				<port id="1">
					<dim>64</dim>
					<dim>1</dim>
					<dim>1</dim>
					<dim>1</dim>
				</port>
				<port id="2">
					<dim>64</dim>
					<dim>1</dim>
					<dim>1</dim>
					<dim>1</dim>
				</port>
				<port id="3">
					<dim>64</dim>
					<dim>1</dim>
					<dim>1</dim>
					<dim>1</dim>
				</port>
				<port id="4">
					<dim>64</dim>
					<dim>1</dim>
					<dim>1</dim>
					<dim>1</dim>
				</port>
			</input>
			<output>
				<port id="5" precision="FP32">
					<dim>64</dim>
					<dim>8</dim>
					<dim>1</dim>
					<dim>1</dim>
				</port>
			</output>
		</layer>
		<layer id="405" name="475/WithoutBiases" type="Convolution" version="opset1">
			<data dilations="1,1" output_padding="0,0" pads_begin="0,0" pads_end="0,0" strides="1,1"/>
			<input>
				<port id="0">
					<dim>1</dim>
					<dim>8</dim>
					<dim>1</dim>
					<dim>1</dim>
				</port>
				<port id="1">
					<dim>64</dim>
					<dim>8</dim>
					<dim>1</dim>
					<dim>1</dim>
				</port>
			</input>
			<output>
				<port id="2" precision="FP32">
					<dim>1</dim>
					<dim>64</dim>
					<dim>1</dim>
					<dim>1</dim>
				</port>
			</output>
		</layer>
		<layer id="406" name="475/Dims7175/copy_const643_const" type="Const" version="opset1">
			<data element_type="f32" offset="331232" shape="1,64,1,1" size="256"/>
			<output>
				<port id="1" precision="FP32">
					<dim>1</dim>
					<dim>64</dim>
					<dim>1</dim>
					<dim>1</dim>
				</port>
			</output>
		</layer>
		<layer id="407" name="475" type="Add" version="opset1">
			<input>
				<port id="0">
					<dim>1</dim>
					<dim>64</dim>
					<dim>1</dim>
					<dim>1</dim>
				</port>
				<port id="1">
					<dim>1</dim>
					<dim>64</dim>
					<dim>1</dim>
					<dim>1</dim>
				</port>
			</input>
			<output>
				<port id="2" precision="FP32">
					<dim>1</dim>
					<dim>64</dim>
					<dim>1</dim>
					<dim>1</dim>
				</port>
			</output>
		</layer>
		<layer id="408" name="476" type="Sigmoid" version="opset1">
			<input>
				<port id="0">
					<dim>1</dim>
					<dim>64</dim>
					<dim>1</dim>
					<dim>1</dim>
				</port>
			</input>
			<output>
				<port id="1" precision="FP32">
					<dim>1</dim>
					<dim>64</dim>
					<dim>1</dim>
					<dim>1</dim>
				</port>
			</output>
		</layer>
		<layer id="409" name="20512055_const" type="Const" version="opset1">
			<data element_type="f32" offset="89092" shape="" size="4"/>
			<output>
				<port id="1" precision="FP32"/>
			</output>
		</layer>
		<layer id="410" name="20522056_const" type="Const" version="opset1">
			<data element_type="f32" offset="331488" shape="" size="4"/>
			<output>
				<port id="1" precision="FP32"/>
			</output>
		</layer>
		<layer id="411" name="20532057_const" type="Const" version="opset1">
			<data element_type="f32" offset="89092" shape="" size="4"/>
			<output>
				<port id="1" precision="FP32"/>
			</output>
		</layer>
		<layer id="412" name="20542058_const" type="Const" version="opset1">
			<data element_type="f32" offset="331488" shape="" size="4"/>
			<output>
				<port id="1" precision="FP32"/>
			</output>
		</layer>
		<layer id="413" name="477/fq_input_1" type="FakeQuantize" version="opset1">
			<data levels="256"/>
			<input>
				<port id="0">
					<dim>1</dim>
					<dim>64</dim>
					<dim>1</dim>
					<dim>1</dim>
				</port>
				<port id="1"/>
				<port id="2"/>
				<port id="3"/>
				<port id="4"/>
			</input>
			<output>
				<port id="5" precision="FP32">
					<dim>1</dim>
					<dim>64</dim>
					<dim>1</dim>
					<dim>1</dim>
				</port>
			</output>
		</layer>
		<layer id="414" name="477" type="Multiply" version="opset1">
			<input>
				<port id="0">
					<dim>1</dim>
					<dim>64</dim>
					<dim>32</dim>
					<dim>32</dim>
				</port>
				<port id="1">
					<dim>1</dim>
					<dim>64</dim>
					<dim>1</dim>
					<dim>1</dim>
				</port>
			</input>
			<output>
				<port id="2" precision="FP32">
					<dim>1</dim>
					<dim>64</dim>
					<dim>32</dim>
					<dim>32</dim>
				</port>
			</output>
		</layer>
		<layer id="415" name="23012305_const" type="Const" version="opset1">
			<data element_type="f32" offset="331492" shape="" size="4"/>
			<output>
				<port id="1" precision="FP32"/>
			</output>
		</layer>
		<layer id="416" name="23022306_const" type="Const" version="opset1">
			<data element_type="f32" offset="331496" shape="" size="4"/>
			<output>
				<port id="1" precision="FP32"/>
			</output>
		</layer>
		<layer id="417" name="23032307_const" type="Const" version="opset1">
			<data element_type="f32" offset="331492" shape="" size="4"/>
			<output>
				<port id="1" precision="FP32"/>
			</output>
		</layer>
		<layer id="418" name="23042308_const" type="Const" version="opset1">
			<data element_type="f32" offset="331496" shape="" size="4"/>
			<output>
				<port id="1" precision="FP32"/>
			</output>
		</layer>
		<layer id="419" name="478/fq_input_1" type="FakeQuantize" version="opset1">
			<data levels="256"/>
			<input>
				<port id="0">
					<dim>1</dim>
					<dim>64</dim>
					<dim>32</dim>
					<dim>32</dim>
				</port>
				<port id="1"/>
				<port id="2"/>
				<port id="3"/>
				<port id="4"/>
			</input>
			<output>
				<port id="5" precision="FP32">
					<dim>1</dim>
					<dim>64</dim>
					<dim>32</dim>
					<dim>32</dim>
				</port>
			</output>
		</layer>
		<layer id="420" name="478" type="Add" version="opset1">
			<input>
				<port id="0">
					<dim>1</dim>
					<dim>64</dim>
					<dim>32</dim>
					<dim>32</dim>
				</port>
				<port id="1">
					<dim>1</dim>
					<dim>64</dim>
					<dim>32</dim>
					<dim>32</dim>
				</port>
			</input>
			<output>
				<port id="2" precision="FP32">
					<dim>1</dim>
					<dim>64</dim>
					<dim>32</dim>
					<dim>32</dim>
				</port>
			</output>
		</layer>
		<layer id="421" name="21312135_const" type="Const" version="opset1">
			<data element_type="f32" offset="331500" shape="" size="4"/>
			<output>
				<port id="1" precision="FP32"/>
			</output>
		</layer>
		<layer id="422" name="21322136_const" type="Const" version="opset1">
			<data element_type="f32" offset="331504" shape="" size="4"/>
			<output>
				<port id="1" precision="FP32"/>
			</output>
		</layer>
		<layer id="423" name="21332137_const" type="Const" version="opset1">
			<data element_type="f32" offset="331500" shape="" size="4"/>
			<output>
				<port id="1" precision="FP32"/>
			</output>
		</layer>
		<layer id="424" name="21342138_const" type="Const" version="opset1">
			<data element_type="f32" offset="331504" shape="" size="4"/>
			<output>
				<port id="1" precision="FP32"/>
			</output>
		</layer>
		<layer id="425" name="479/fq_input_0" type="FakeQuantize" version="opset1">
			<data levels="256"/>
			<input>
				<port id="0">
					<dim>1</dim>
					<dim>64</dim>
					<dim>32</dim>
					<dim>32</dim>
				</port>
				<port id="1"/>
				<port id="2"/>
				<port id="3"/>
				<port id="4"/>
			</input>
			<output>
				<port id="5" precision="FP32">
					<dim>1</dim>
					<dim>64</dim>
					<dim>32</dim>
					<dim>32</dim>
				</port>
			</output>
		</layer>
		<layer id="426" name="Mul1_10294/Fused_Mul_1253512537_const648_const" type="Const" version="opset1">
			<data element_type="f32" offset="331508" shape="128,64,1,1" size="32768"/>
			<output>
				<port id="1" precision="FP32">
					<dim>128</dim>
					<dim>64</dim>
					<dim>1</dim>
					<dim>1</dim>
				</port>
			</output>
		</layer>
		<layer id="427" name="21412145_const" type="Const" version="opset1">
			<data element_type="f32" offset="364276" shape="128,1,1,1" size="512"/>
			<output>
				<port id="1" precision="FP32">
					<dim>128</dim>
					<dim>1</dim>
					<dim>1</dim>
					<dim>1</dim>
				</port>
			</output>
		</layer>
		<layer id="428" name="21422146_const" type="Const" version="opset1">
			<data element_type="f32" offset="364788" shape="128,1,1,1" size="512"/>
…
		<edge from-layer="847" from-port="5" to-layer="848" to-port="1"/>
		<edge from-layer="848" from-port="2" to-layer="850" to-port="0"/>
		<edge from-layer="849" from-port="1" to-layer="850" to-port="1"/>
		<edge from-layer="850" from-port="2" to-layer="855" to-port="0"/>
		<edge from-layer="851" from-port="1" to-layer="855" to-port="1"/>
		<edge from-layer="852" from-port="1" to-layer="855" to-port="2"/>
		<edge from-layer="853" from-port="1" to-layer="855" to-port="3"/>
		<edge from-layer="854" from-port="1" to-layer="855" to-port="4"/>
		<edge from-layer="855" from-port="5" to-layer="856" to-port="0"/>
		<edge from-layer="856" from-port="1" to-layer="861" to-port="0"/>
		<edge from-layer="857" from-port="1" to-layer="861" to-port="1"/>
		<edge from-layer="858" from-port="1" to-layer="861" to-port="2"/>
		<edge from-layer="859" from-port="1" to-layer="861" to-port="3"/>
		<edge from-layer="860" from-port="1" to-layer="861" to-port="4"/>
		<edge from-layer="862" from-port="1" to-layer="867" to-port="0"/>
		<edge from-layer="863" from-port="1" to-layer="867" to-port="1"/>
		<edge from-layer="864" from-port="1" to-layer="867" to-port="2"/>
		<edge from-layer="865" from-port="1" to-layer="867" to-port="3"/>
		<edge from-layer="866" from-port="1" to-layer="867" to-port="4"/>
		<edge from-layer="861" from-port="5" to-layer="868" to-port="0"/>
		<edge from-layer="867" from-port="5" to-layer="868" to-port="1"/>
		<edge from-layer="868" from-port="2" to-layer="870" to-port="0"/>
		<edge from-layer="869" from-port="1" to-layer="870" to-port="1"/>
		<edge from-layer="870" from-port="2" to-layer="872" to-port="0"/>
		<edge from-layer="871" from-port="1" to-layer="872" to-port="1"/>
		<edge from-layer="872" from-port="2" to-layer="877" to-port="0"/>
		<edge from-layer="873" from-port="1" to-layer="877" to-port="1"/>
		<edge from-layer="874" from-port="1" to-layer="877" to-port="2"/>
		<edge from-layer="875" from-port="1" to-layer="877" to-port="3"/>
		<edge from-layer="876" from-port="1" to-layer="877" to-port="4"/>
		<edge from-layer="878" from-port="1" to-layer="883" to-port="0"/>
		<edge from-layer="879" from-port="1" to-layer="883" to-port="1"/>
		<edge from-layer="880" from-port="1" to-layer="883" to-port="2"/>
		<edge from-layer="881" from-port="1" to-layer="883" to-port="3"/>
		<edge from-layer="882" from-port="1" to-layer="883" to-port="4"/>
		<edge from-layer="877" from-port="5" to-layer="884" to-port="0"/>
		<edge from-layer="883" from-port="5" to-layer="884" to-port="1"/>
		<edge from-layer="884" from-port="2" to-layer="886" to-port="0"/>
		<edge from-layer="885" from-port="1" to-layer="886" to-port="1"/>
		<edge from-layer="886" from-port="2" to-layer="887" to-port="0"/>
		<edge from-layer="887" from-port="1" to-layer="892" to-port="0"/>
		<edge from-layer="888" from-port="1" to-layer="892" to-port="1"/>
		<edge from-layer="889" from-port="1" to-layer="892" to-port="2"/>
		<edge from-layer="890" from-port="1" to-layer="892" to-port="3"/>
		<edge from-layer="891" from-port="1" to-layer="892" to-port="4"/>
		<edge from-layer="855" from-port="5" to-layer="893" to-port="0"/>
		<edge from-layer="892" from-port="5" to-layer="893" to-port="1"/>
		<edge from-layer="893" from-port="2" to-layer="898" to-port="0"/>
		<edge from-layer="894" from-port="1" to-layer="898" to-port="1"/>
		<edge from-layer="895" from-port="1" to-layer="898" to-port="2"/>
		<edge from-layer="896" from-port="1" to-layer="898" to-port="3"/>
		<edge from-layer="897" from-port="1" to-layer="898" to-port="4"/>
		<edge from-layer="807" from-port="5" to-layer="899" to-port="0"/>
		<edge from-layer="898" from-port="5" to-layer="899" to-port="1"/>
		<edge from-layer="899" from-port="2" to-layer="904" to-port="0"/>
		<edge from-layer="900" from-port="1" to-layer="904" to-port="1"/>
		<edge from-layer="901" from-port="1" to-layer="904" to-port="2"/>
		<edge from-layer="902" from-port="1" to-layer="904" to-port="3"/>
		<edge from-layer="903" from-port="1" to-layer="904" to-port="4"/>
		<edge from-layer="905" from-port="1" to-layer="910" to-port="0"/>
		<edge from-layer="906" from-port="1" to-layer="910" to-port="1"/>
		<edge from-layer="907" from-port="1" to-layer="910" to-port="2"/>
		<edge from-layer="908" from-port="1" to-layer="910" to-port="3"/>
		<edge from-layer="909" from-port="1" to-layer="910" to-port="4"/>
		<edge from-layer="904" from-port="5" to-layer="911" to-port="0"/>
		<edge from-layer="910" from-port="5" to-layer="911" to-port="1"/>
		<edge from-layer="911" from-port="2" to-layer="913" to-port="0"/>
		<edge from-layer="912" from-port="1" to-layer="913" to-port="1"/>
		<edge from-layer="913" from-port="2" to-layer="915" to-port="0"/>
		<edge from-layer="914" from-port="1" to-layer="915" to-port="1"/>
		<edge from-layer="915" from-port="2" to-layer="920" to-port="0"/>
		<edge from-layer="916" from-port="1" to-layer="920" to-port="1"/>
		<edge from-layer="917" from-port="1" to-layer="920" to-port="2"/>
		<edge from-layer="918" from-port="1" to-layer="920" to-port="3"/>
		<edge from-layer="919" from-port="1" to-layer="920" to-port="4"/>
		<edge from-layer="921" from-port="1" to-layer="926" to-port="0"/>
		<edge from-layer="922" from-port="1" to-layer="926" to-port="1"/>
		<edge from-layer="923" from-port="1" to-layer="926" to-port="2"/>
		<edge from-layer="924" from-port="1" to-layer="926" to-port="3"/>
		<edge from-layer="925" from-port="1" to-layer="926" to-port="4"/>
		<edge from-layer="926" from-port="5" to-layer="928" to-port="0"/>
		<edge from-layer="927" from-port="1" to-layer="928" to-port="1"/>
		<edge from-layer="920" from-port="5" to-layer="929" to-port="0"/>
		<edge from-layer="928" from-port="2" to-layer="929" to-port="1"/>
		<edge from-layer="929" from-port="2" to-layer="931" to-port="0"/>
		<edge from-layer="930" from-port="1" to-layer="931" to-port="1"/>
		<edge from-layer="931" from-port="2" to-layer="933" to-port="0"/>
		<edge from-layer="932" from-port="1" to-layer="933" to-port="1"/>
		<edge from-layer="933" from-port="2" to-layer="938" to-port="0"/>
		<edge from-layer="934" from-port="1" to-layer="938" to-port="1"/>
		<edge from-layer="935" from-port="1" to-layer="938" to-port="2"/>
		<edge from-layer="936" from-port="1" to-layer="938" to-port="3"/>
		<edge from-layer="937" from-port="1" to-layer="938" to-port="4"/>
		<edge from-layer="939" from-port="1" to-layer="944" to-port="0"/>
		<edge from-layer="940" from-port="1" to-layer="944" to-port="1"/>
		<edge from-layer="941" from-port="1" to-layer="944" to-port="2"/>
		<edge from-layer="942" from-port="1" to-layer="944" to-port="3"/>
		<edge from-layer="943" from-port="1" to-layer="944" to-port="4"/>
		<edge from-layer="938" from-port="5" to-layer="945" to-port="0"/>
		<edge from-layer="944" from-port="5" to-layer="945" to-port="1"/>
		<edge from-layer="945" from-port="2" to-layer="947" to-port="0"/>
		<edge from-layer="946" from-port="1" to-layer="947" to-port="1"/>
		<edge from-layer="947" from-port="2" to-layer="952" to-port="0"/>
		<edge from-layer="948" from-port="1" to-layer="952" to-port="1"/>
		<edge from-layer="949" from-port="1" to-layer="952" to-port="2"/>
		<edge from-layer="950" from-port="1" to-layer="952" to-port="3"/>
		<edge from-layer="951" from-port="1" to-layer="952" to-port="4"/>
		<edge from-layer="952" from-port="5" to-layer="953" to-port="0"/>
		<edge from-layer="953" from-port="1" to-layer="958" to-port="0"/>
		<edge from-layer="954" from-port="1" to-layer="958" to-port="1"/>
		<edge from-layer="955" from-port="1" to-layer="958" to-port="2"/>
		<edge from-layer="956" from-port="1" to-layer="958" to-port="3"/>
		<edge from-layer="957" from-port="1" to-layer="958" to-port="4"/>
		<edge from-layer="959" from-port="1" to-layer="964" to-port="0"/>
		<edge from-layer="960" from-port="1" to-layer="964" to-port="1"/>
		<edge from-layer="961" from-port="1" to-layer="964" to-port="2"/>
		<edge from-layer="962" from-port="1" to-layer="964" to-port="3"/>
		<edge from-layer="963" from-port="1" to-layer="964" to-port="4"/>
		<edge from-layer="958" from-port="5" to-layer="965" to-port="0"/>
		<edge from-layer="964" from-port="5" to-layer="965" to-port="1"/>
		<edge from-layer="965" from-port="2" to-layer="967" to-port="0"/>
		<edge from-layer="966" from-port="1" to-layer="967" to-port="1"/>
		<edge from-layer="967" from-port="2" to-layer="969" to-port="0"/>
		<edge from-layer="968" from-port="1" to-layer="969" to-port="1"/>
		<edge from-layer="969" from-port="2" to-layer="974" to-port="0"/>
		<edge from-layer="970" from-port="1" to-layer="974" to-port="1"/>
		<edge from-layer="971" from-port="1" to-layer="974" to-port="2"/>
		<edge from-layer="972" from-port="1" to-layer="974" to-port="3"/>
		<edge from-layer="973" from-port="1" to-layer="974" to-port="4"/>
		<edge from-layer="975" from-port="1" to-layer="980" to-port="0"/>
		<edge from-layer="976" from-port="1" to-layer="980" to-port="1"/>
		<edge from-layer="977" from-port="1" to-layer="980" to-port="2"/>
		<edge from-layer="978" from-port="1" to-layer="980" to-port="3"/>
		<edge from-layer="979" from-port="1" to-layer="980" to-port="4"/>
		<edge from-layer="974" from-port="5" to-layer="981" to-port="0"/>
		<edge from-layer="980" from-port="5" to-layer="981" to-port="1"/>
		<edge from-layer="981" from-port="2" to-layer="983" to-port="0"/>
		<edge from-layer="982" from-port="1" to-layer="983" to-port="1"/>
		<edge from-layer="983" from-port="2" to-layer="984" to-port="0"/>
		<edge from-layer="984" from-port="1" to-layer="989" to-port="0"/>
		<edge from-layer="985" from-port="1" to-layer="989" to-port="1"/>
		<edge from-layer="986" from-port="1" to-layer="989" to-port="2"/>
		<edge from-layer="987" from-port="1" to-layer="989" to-port="3"/>
		<edge from-layer="988" from-port="1" to-layer="989" to-port="4"/>
		<edge from-layer="952" from-port="5" to-layer="990" to-port="0"/>
		<edge from-layer="989" from-port="5" to-layer="990" to-port="1"/>
		<edge from-layer="990" from-port="2" to-layer="995" to-port="0"/>
		<edge from-layer="991" from-port="1" to-layer="995" to-port="1"/>
		<edge from-layer="992" from-port="1" to-layer="995" to-port="2"/>
		<edge from-layer="993" from-port="1" to-layer="995" to-port="3"/>
		<edge from-layer="994" from-port="1" to-layer="995" to-port="4"/>
		<edge from-layer="904" from-port="5" to-layer="996" to-port="0"/>
		<edge from-layer="995" from-port="5" to-layer="996" to-port="1"/>
		<edge from-layer="996" from-port="2" to-layer="1001" to-port="0"/>
		<edge from-layer="997" from-port="1" to-layer="1001" to-port="1"/>
		<edge from-layer="998" from-port="1" to-layer="1001" to-port="2"/>
		<edge from-layer="999" from-port="1" to-layer="1001" to-port="3"/>
		<edge from-layer="1000" from-port="1" to-layer="1001" to-port="4"/>
		<edge from-layer="1002" from-port="1" to-layer="1007" to-port="0"/>
		<edge from-layer="1003" from-port="1" to-layer="1007" to-port="1"/>
		<edge from-layer="1004" from-port="1" to-layer="1007" to-port="2"/>
		<edge from-layer="1005" from-port="1" to-layer="1007" to-port="3"/>
		<edge from-layer="1006" from-port="1" to-layer="1007" to-port="4"/>
		<edge from-layer="1001" from-port="5" to-layer="1008" to-port="0"/>
		<edge from-layer="1007" from-port="5" to-layer="1008" to-port="1"/>
		<edge from-layer="1008" from-port="2" to-layer="1010" to-port="0"/>
		<edge from-layer="1009" from-port="1" to-layer="1010" to-port="1"/>
		<edge from-layer="1010" from-port="2" to-layer="1012" to-port="0"/>
		<edge from-layer="1011" from-port="1" to-layer="1012" to-port="1"/>
		<edge from-layer="1012" from-port="2" to-layer="1017" to-port="0"/>
		<edge from-layer="1013" from-port="1" to-layer="1017" to-port="1"/>
		<edge from-layer="1014" from-port="1" to-layer="1017" to-port="2"/>
		<edge from-layer="1015" from-port="1" to-layer="1017" to-port="3"/>
		<edge from-layer="1016" from-port="1" to-layer="1017" to-port="4"/>
		<edge from-layer="1018" from-port="1" to-layer="1023" to-port="0"/>
		<edge from-layer="1019" from-port="1" to-layer="1023" to-port="1"/>
		<edge from-layer="1020" from-port="1" to-layer="1023" to-port="2"/>
		<edge from-layer="1021" from-port="1" to-layer="1023" to-port="3"/>
		<edge from-layer="1022" from-port="1" to-layer="1023" to-port="4"/>
		<edge from-layer="1023" from-port="5" to-layer="1025" to-port="0"/>
		<edge from-layer="1024" from-port="1" to-layer="1025" to-port="1"/>
		<edge from-layer="1017" from-port="5" to-layer="1026" to-port="0"/>
		<edge from-layer="1025" from-port="2" to-layer="1026" to-port="1"/>
		<edge from-layer="1026" from-port="2" to-layer="1028" to-port="0"/>
		<edge from-layer="1027" from-port="1" to-layer="1028" to-port="1"/>
		<edge from-layer="1028" from-port="2" to-layer="1030" to-port="0"/>
		<edge from-layer="1029" from-port="1" to-layer="1030" to-port="1"/>
		<edge from-layer="1030" from-port="2" to-layer="1035" to-port="0"/>
		<edge from-layer="1031" from-port="1" to-layer="1035" to-port="1"/>
		<edge from-layer="1032" from-port="1" to-layer="1035" to-port="2"/>
		<edge from-layer="1033" from-port="1" to-layer="1035" to-port="3"/>
		<edge from-layer="1034" from-port="1" to-layer="1035" to-port="4"/>
		<edge from-layer="1036" from-port="1" to-layer="1041" to-port="0"/>
		<edge from-layer="1037" from-port="1" to-layer="1041" to-port="1"/>
		<edge from-layer="1038" from-port="1" to-layer="1041" to-port="2"/>
		<edge from-layer="1039" from-port="1" to-layer="1041" to-port="3"/>
		<edge from-layer="1040" from-port="1" to-layer="1041" to-port="4"/>
		<edge from-layer="1035" from-port="5" to-layer="1042" to-port="0"/>
		<edge from-layer="1041" from-port="5" to-layer="1042" to-port="1"/>
		<edge from-layer="1042" from-port="2" to-layer="1044" to-port="0"/>
		<edge from-layer="1043" from-port="1" to-layer="1044" to-port="1"/>
		<edge from-layer="1044" from-port="2" to-layer="1049" to-port="0"/>
		<edge from-layer="1045" from-port="1" to-layer="1049" to-port="1"/>
		<edge from-layer="1046" from-port="1" to-layer="1049" to-port="2"/>
		<edge from-layer="1047" from-port="1" to-layer="1049" to-port="3"/>
		<edge from-layer="1048" from-port="1" to-layer="1049" to-port="4"/>
		<edge from-layer="1049" from-port="5" to-layer="1050" to-port="0"/>
		<edge from-layer="1050" from-port="1" to-layer="1055" to-port="0"/>
		<edge from-layer="1051" from-port="1" to-layer="1055" to-port="1"/>
		<edge from-layer="1052" from-port="1" to-layer="1055" to-port="2"/>
		<edge from-layer="1053" from-port="1" to-layer="1055" to-port="3"/>
		<edge from-layer="1054" from-port="1" to-layer="1055" to-port="4"/>
		<edge from-layer="1056" from-port="1" to-layer="1061" to-port="0"/>
		<edge from-layer="1057" from-port="1" to-layer="1061" to-port="1"/>
		<edge from-layer="1058" from-port="1" to-layer="1061" to-port="2"/>
		<edge from-layer="1059" from-port="1" to-layer="1061" to-port="3"/>
		<edge from-layer="1060" from-port="1" to-layer="1061" to-port="4"/>
		<edge from-layer="1055" from-port="5" to-layer="1062" to-port="0"/>
		<edge from-layer="1061" from-port="5" to-layer="1062" to-port="1"/>
		<edge from-layer="1062" from-port="2" to-layer="1064" to-port="0"/>
		<edge from-layer="1063" from-port="1" to-layer="1064" to-port="1"/>
		<edge from-layer="1064" from-port="2" to-layer="1066" to-port="0"/>
		<edge from-layer="1065" from-port="1" to-layer="1066" to-port="1"/>
		<edge from-layer="1066" from-port="2" to-layer="1071" to-port="0"/>
		<edge from-layer="1067" from-port="1" to-layer="1071" to-port="1"/>
		<edge from-layer="1068" from-port="1" to-layer="1071" to-port="2"/>
		<edge from-layer="1069" from-port="1" to-layer="1071" to-port="3"/>
		<edge from-layer="1070" from-port="1" to-layer="1071" to-port="4"/>
		<edge from-layer="1072" from-port="1" to-layer="1077" to-port="0"/>
		<edge from-layer="1073" from-port="1" to-layer="1077" to-port="1"/>
		<edge from-layer="1074" from-port="1" to-layer="1077" to-port="2"/>
		<edge from-layer="1075" from-port="1" to-layer="1077" to-port="3"/>
		<edge from-layer="1076" from-port="1" to-layer="1077" to-port="4"/>
		<edge from-layer="1071" from-port="5" to-layer="1078" to-port="0"/>
		<edge from-layer="1077" from-port="5" to-layer="1078" to-port="1"/>
		<edge from-layer="1078" from-port="2" to-layer="1080" to-port="0"/>
		<edge from-layer="1079" from-port="1" to-layer="1080" to-port="1"/>
		<edge from-layer="1080" from-port="2" to-layer="1081" to-port="0"/>
		<edge from-layer="1081" from-port="1" to-layer="1086" to-port="0"/>
		<edge from-layer="1082" from-port="1" to-layer="1086" to-port="1"/>
		<edge from-layer="1083" from-port="1" to-layer="1086" to-port="2"/>
		<edge from-layer="1084" from-port="1" to-layer="1086" to-port="3"/>
		<edge from-layer="1085" from-port="1" to-layer="1086" to-port="4"/>
		<edge from-layer="1049" from-port="5" to-layer="1087" to-port="0"/>
		<edge from-layer="1086" from-port="5" to-layer="1087" to-port="1"/>
		<edge from-layer="1087" from-port="2" to-layer="1092" to-port="0"/>
		<edge from-layer="1088" from-port="1" to-layer="1092" to-port="1"/>
		<edge from-layer="1089" from-port="1" to-layer="1092" to-port="2"/>
		<edge from-layer="1090" from-port="1" to-layer="1092" to-port="3"/>
		<edge from-layer="1091" from-port="1" to-layer="1092" to-port="4"/>
		<edge from-layer="1001" from-port="5" to-layer="1093" to-port="0"/>
		<edge from-layer="1092" from-port="5" to-layer="1093" to-port="1"/>
		<edge from-layer="1093" from-port="2" to-layer="1098" to-port="0"/>
		<edge from-layer="1094" from-port="1" to-layer="1098" to-port="1"/>
		<edge from-layer="1095" from-port="1" to-layer="1098" to-port="2"/>
		<edge from-layer="1096" from-port="1" to-layer="1098" to-port="3"/>
		<edge from-layer="1097" from-port="1" to-layer="1098" to-port="4"/>
		<edge from-layer="1099" from-port="1" to-layer="1104" to-port="0"/>
		<edge from-layer="1100" from-port="1" to-layer="1104" to-port="1"/>
		<edge from-layer="1101" from-port="1" to-layer="1104" to-port="2"/>
		<edge from-layer="1102" from-port="1" to-layer="1104" to-port="3"/>
		<edge from-layer="1103" from-port="1" to-layer="1104" to-port="4"/>
		<edge from-layer="1098" from-port="5" to-layer="1105" to-port="0"/>
		<edge from-layer="1104" from-port="5" to-layer="1105" to-port="1"/>
		<edge from-layer="1105" from-port="2" to-layer="1107" to-port="0"/>
		<edge from-layer="1106" from-port="1" to-layer="1107" to-port="1"/>
		<edge from-layer="1107" from-port="2" to-layer="1109" to-port="0"/>
		<edge from-layer="1108" from-port="1" to-layer="1109" to-port="1"/>
		<edge from-layer="1109" from-port="2" to-layer="1114" to-port="0"/>
		<edge from-layer="1110" from-port="1" to-layer="1114" to-port="1"/>
		<edge from-layer="1111" from-port="1" to-layer="1114" to-port="2"/>
		<edge from-layer="1112" from-port="1" to-layer="1114" to-port="3"/>
		<edge from-layer="1113" from-port="1" to-layer="1114" to-port="4"/>
		<edge from-layer="1115" from-port="1" to-layer="1120" to-port="0"/>
		<edge from-layer="1116" from-port="1" to-layer="1120" to-port="1"/>
		<edge from-layer="1117" from-port="1" to-layer="1120" to-port="2"/>
		<edge from-layer="1118" from-port="1" to-layer="1120" to-port="3"/>
		<edge from-layer="1119" from-port="1" to-layer="1120" to-port="4"/>
		<edge from-layer="1120" from-port="5" to-layer="1122" to-port="0"/>
		<edge from-layer="1121" from-port="1" to-layer="1122" to-port="1"/>
		<edge from-layer="1114" from-port="5" to-layer="1123" to-port="0"/>
		<edge from-layer="1122" from-port="2" to-layer="1123" to-port="1"/>
		<edge from-layer="1123" from-port="2" to-layer="1125" to-port="0"/>
		<edge from-layer="1124" from-port="1" to-layer="1125" to-port="1"/>
		<edge from-layer="1125" from-port="2" to-layer="1127" to-port="0"/>
		<edge from-layer="1126" from-port="1" to-layer="1127" to-port="1"/>
		<edge from-layer="1127" from-port="2" to-layer="1132" to-port="0"/>
		<edge from-layer="1128" from-port="1" to-layer="1132" to-port="1"/>
		<edge from-layer="1129" from-port="1" to-layer="1132" to-port="2"/>
		<edge from-layer="1130" from-port="1" to-layer="1132" to-port="3"/>
		<edge from-layer="1131" from-port="1" to-layer="1132" to-port="4"/>
		<edge from-layer="1133" from-port="1" to-layer="1138" to-port="0"/>
		<edge from-layer="1134" from-port="1" to-layer="1138" to-port="1"/>
		<edge from-layer="1135" from-port="1" to-layer="1138" to-port="2"/>
		<edge from-layer="1136" from-port="1" to-layer="1138" to-port="3"/>
		<edge from-layer="1137" from-port="1" to-layer="1138" to-port="4"/>
		<edge from-layer="1132" from-port="5" to-layer="1139" to-port="0"/>
		<edge from-layer="1138" from-port="5" to-layer="1139" to-port="1"/>
		<edge from-layer="1139" from-port="2" to-layer="1141" to-port="0"/>
		<edge from-layer="1140" from-port="1" to-layer="1141" to-port="1"/>
		<edge from-layer="1141" from-port="2" to-layer="1146" to-port="0"/>
		<edge from-layer="1142" from-port="1" to-layer="1146" to-port="1"/>
		<edge from-layer="1143" from-port="1" to-layer="1146" to-port="2"/>
		<edge from-layer="1144" from-port="1" to-layer="1146" to-port="3"/>
		<edge from-layer="1145" from-port="1" to-layer="1146" to-port="4"/>
		<edge from-layer="1146" from-port="5" to-layer="1147" to-port="0"/>
		<edge from-layer="1147" from-port="1" to-layer="1152" to-port="0"/>
		<edge from-layer="1148" from-port="1" to-layer="1152" to-port="1"/>
		<edge from-layer="1149" from-port="1" to-layer="1152" to-port="2"/>
		<edge from-layer="1150" from-port="1" to-layer="1152" to-port="3"/>
		<edge from-layer="1151" from-port="1" to-layer="1152" to-port="4"/>
		<edge from-layer="1153" from-port="1" to-layer="1158" to-port="0"/>
		<edge from-layer="1154" from-port="1" to-layer="1158" to-port="1"/>
		<edge from-layer="1155" from-port="1" to-layer="1158" to-port="2"/>
		<edge from-layer="1156" from-port="1" to-layer="1158" to-port="3"/>
		<edge from-layer="1157" from-port="1" to-layer="1158" to-port="4"/>
		<edge from-layer="1152" from-port="5" to-layer="1159" to-port="0"/>
		<edge from-layer="1158" from-port="5" to-layer="1159" to-port="1"/>
		<edge from-layer="1159" from-port="2" to-layer="1161" to-port="0"/>
		<edge from-layer="1160" from-port="1" to-layer="1161" to-port="1"/>
		<edge from-layer="1161" from-port="2" to-layer="1163" to-port="0"/>
		<edge from-layer="1162" from-port="1" to-layer="1163" to-port="1"/>
		<edge from-layer="1163" from-port="2" to-layer="1168" to-port="0"/>
		<edge from-layer="1164" from-port="1" to-layer="1168" to-port="1"/>
		<edge from-layer="1165" from-port="1" to-layer="1168" to-port="2"/>
		<edge from-layer="1166" from-port="1" to-layer="1168" to-port="3"/>
		<edge from-layer="1167" from-port="1" to-layer="1168" to-port="4"/>
		<edge from-layer="1169" from-port="1" to-layer="1174" to-port="0"/>
		<edge from-layer="1170" from-port="1" to-layer="1174" to-port="1"/>
		<edge from-layer="1171" from-port="1" to-layer="1174" to-port="2"/>
		<edge from-layer="1172" from-port="1" to-layer="1174" to-port="3"/>
		<edge from-layer="1173" from-port="1" to-layer="1174" to-port="4"/>
		<edge from-layer="1168" from-port="5" to-layer="1175" to-port="0"/>
		<edge from-layer="1174" from-port="5" to-layer="1175" to-port="1"/>
		<edge from-layer="1175" from-port="2" to-layer="1177" to-port="0"/>
		<edge from-layer="1176" from-port="1" to-layer="1177" to-port="1"/>
		<edge from-layer="1177" from-port="2" to-layer="1178" to-port="0"/>
		<edge from-layer="1178" from-port="1" to-layer="1183" to-port="0"/>
		<edge from-layer="1179" from-port="1" to-layer="1183" to-port="1"/>
		<edge from-layer="1180" from-port="1" to-layer="1183" to-port="2"/>
		<edge from-layer="1181" from-port="1" to-layer="1183" to-port="3"/>
		<edge from-layer="1182" from-port="1" to-layer="1183" to-port="4"/>
		<edge from-layer="1146" from-port="5" to-layer="1184" to-port="0"/>
		<edge from-layer="1183" from-port="5" to-layer="1184" to-port="1"/>
		<edge from-layer="1184" from-port="2" to-layer="1189" to-port="0"/>
		<edge from-layer="1185" from-port="1" to-layer="1189" to-port="1"/>
		<edge from-layer="1186" from-port="1" to-layer="1189" to-port="2"/>
		<edge from-layer="1187" from-port="1" to-layer="1189" to-port="3"/>
		<edge from-layer="1188" from-port="1" to-layer="1189" to-port="4"/>
		<edge from-layer="1098" from-port="5" to-layer="1190" to-port="0"/>
		<edge from-layer="1189" from-port="5" to-layer="1190" to-port="1"/>
		<edge from-layer="1190" from-port="2" to-layer="1195" to-port="0"/>
		<edge from-layer="1191" from-port="1" to-layer="1195" to-port="1"/>
		<edge from-layer="1192" from-port="1" to-layer="1195" to-port="2"/>
		<edge from-layer="1193" from-port="1" to-layer="1195" to-port="3"/>
		<edge from-layer="1194" from-port="1" to-layer="1195" to-port="4"/>
		<edge from-layer="1196" from-port="1" to-layer="1201" to-port="0"/>
		<edge from-layer="1197" from-port="1" to-layer="1201" to-port="1"/>
		<edge from-layer="1198" from-port="1" to-layer="1201" to-port="2"/>
		<edge from-layer="1199" from-port="1" to-layer="1201" to-port="3"/>
		<edge from-layer="1200" from-port="1" to-layer="1201" to-port="4"/>
		<edge from-layer="1195" from-port="5" to-layer="1202" to-port="0"/>
		<edge from-layer="1201" from-port="5" to-layer="1202" to-port="1"/>
		<edge from-layer="1202" from-port="2" to-layer="1204" to-port="0"/>
		<edge from-layer="1203" from-port="1" to-layer="1204" to-port="1"/>
		<edge from-layer="1204" from-port="2" to-layer="1206" to-port="0"/>
		<edge from-layer="1205" from-port="1" to-layer="1206" to-port="1"/>
		<edge from-layer="1206" from-port="2" to-layer="1211" to-port="0"/>
		<edge from-layer="1207" from-port="1" to-layer="1211" to-port="1"/>
		<edge from-layer="1208" from-port="1" to-layer="1211" to-port="2"/>
		<edge from-layer="1209" from-port="1" to-layer="1211" to-port="3"/>
		<edge from-layer="1210" from-port="1" to-layer="1211" to-port="4"/>
		<edge from-layer="1212" from-port="1" to-layer="1217" to-port="0"/>
		<edge from-layer="1213" from-port="1" to-layer="1217" to-port="1"/>
		<edge from-layer="1214" from-port="1" to-layer="1217" to-port="2"/>
		<edge from-layer="1215" from-port="1" to-layer="1217" to-port="3"/>
		<edge from-layer="1216" from-port="1" to-layer="1217" to-port="4"/>
		<edge from-layer="1217" from-port="5" to-layer="1219" to-port="0"/>
		<edge from-layer="1218" from-port="1" to-layer="1219" to-port="1"/>
		<edge from-layer="1211" from-port="5" to-layer="1220" to-port="0"/>
		<edge from-layer="1219" from-port="2" to-layer="1220" to-port="1"/>
		<edge from-layer="1220" from-port="2" to-layer="1222" to-port="0"/>
		<edge from-layer="1221" from-port="1" to-layer="1222" to-port="1"/>
		<edge from-layer="1222" from-port="2" to-layer="1224" to-port="0"/>
		<edge from-layer="1223" from-port="1" to-layer="1224" to-port="1"/>
		<edge from-layer="1224" from-port="2" to-layer="1229" to-port="0"/>
		<edge from-layer="1225" from-port="1" to-layer="1229" to-port="1"/>
		<edge from-layer="1226" from-port="1" to-layer="1229" to-port="2"/>
		<edge from-layer="1227" from-port="1" to-layer="1229" to-port="3"/>
		<edge from-layer="1228" from-port="1" to-layer="1229" to-port="4"/>
		<edge from-layer="1230" from-port="1" to-layer="1235" to-port="0"/>
		<edge from-layer="1231" from-port="1" to-layer="1235" to-port="1"/>
		<edge from-layer="1232" from-port="1" to-layer="1235" to-port="2"/>
		<edge from-layer="1233" from-port="1" to-layer="1235" to-port="3"/>
		<edge from-layer="1234" from-port="1" to-layer="1235" to-port="4"/>
		<edge from-layer="1229" from-port="5" to-layer="1236" to-port="0"/>
		<edge from-layer="1235" from-port="5" to-layer="1236" to-port="1"/>
		<edge from-layer="1236" from-port="2" to-layer="1238" to-port="0"/>
		<edge from-layer="1237" from-port="1" to-layer="1238" to-port="1"/>
		<edge from-layer="1238" from-port="2" to-layer="1243" to-port="0"/>
		<edge from-layer="1239" from-port="1" to-layer="1243" to-port="1"/>
		<edge from-layer="1240" from-port="1" to-layer="1243" to-port="2"/>
		<edge from-layer="1241" from-port="1" to-layer="1243" to-port="3"/>
		<edge from-layer="1242" from-port="1" to-layer="1243" to-port="4"/>
		<edge from-layer="1243" from-port="5" to-layer="1244" to-port="0"/>
		<edge from-layer="1244" from-port="1" to-layer="1249" to-port="0"/>
		<edge from-layer="1245" from-port="1" to-layer="1249" to-port="1"/>
		<edge from-layer="1246" from-port="1" to-layer="1249" to-port="2"/>
		<edge from-layer="1247" from-port="1" to-layer="1249" to-port="3"/>
		<edge from-layer="1248" from-port="1" to-layer="1249" to-port="4"/>
		<edge from-layer="1250" from-port="1" to-layer="1255" to-port="0"/>
		<edge from-layer="1251" from-port="1" to-layer="1255" to-port="1"/>
		<edge from-layer="1252" from-port="1" to-layer="1255" to-port="2"/>
		<edge from-layer="1253" from-port="1" to-layer="1255" to-port="3"/>
		<edge from-layer="1254" from-port="1" to-layer="1255" to-port="4"/>
		<edge from-layer="1249" from-port="5" to-layer="1256" to-port="0"/>
		<edge from-layer="1255" from-port="5" to-layer="1256" to-port="1"/>
		<edge from-layer="1256" from-port="2" to-layer="1258" to-port="0"/>
		<edge from-layer="1257" from-port="1" to-layer="1258" to-port="1"/>
		<edge from-layer="1258" from-port="2" to-layer="1260" to-port="0"/>
		<edge from-layer="1259" from-port="1" to-layer="1260" to-port="1"/>
		<edge from-layer="1260" from-port="2" to-layer="1265" to-port="0"/>
		<edge from-layer="1261" from-port="1" to-layer="1265" to-port="1"/>
		<edge from-layer="1262" from-port="1" to-layer="1265" to-port="2"/>
		<edge from-layer="1263" from-port="1" to-layer="1265" to-port="3"/>
		<edge from-layer="1264" from-port="1" to-layer="1265" to-port="4"/>
		<edge from-layer="1266" from-port="1" to-layer="1271" to-port="0"/>
		<edge from-layer="1267" from-port="1" to-layer="1271" to-port="1"/>
		<edge from-layer="1268" from-port="1" to-layer="1271" to-port="2"/>
		<edge from-layer="1269" from-port="1" to-layer="1271" to-port="3"/>
		<edge from-layer="1270" from-port="1" to-layer="1271" to-port="4"/>
		<edge from-layer="1265" from-port="5" to-layer="1272" to-port="0"/>
		<edge from-layer="1271" from-port="5" to-layer="1272" to-port="1"/>
		<edge from-layer="1272" from-port="2" to-layer="1274" to-port="0"/>
		<edge from-layer="1273" from-port="1" to-layer="1274" to-port="1"/>
		<edge from-layer="1274" from-port="2" to-layer="1275" to-port="0"/>
		<edge from-layer="1275" from-port="1" to-layer="1280" to-port="0"/>
		<edge from-layer="1276" from-port="1" to-layer="1280" to-port="1"/>
		<edge from-layer="1277" from-port="1" to-layer="1280" to-port="2"/>
		<edge from-layer="1278" from-port="1" to-layer="1280" to-port="3"/>
		<edge from-layer="1279" from-port="1" to-layer="1280" to-port="4"/>
		<edge from-layer="1243" from-port="5" to-layer="1281" to-port="0"/>
		<edge from-layer="1280" from-port="5" to-layer="1281" to-port="1"/>
		<edge from-layer="1281" from-port="2" to-layer="1286" to-port="0"/>
		<edge from-layer="1282" from-port="1" to-layer="1286" to-port="1"/>
		<edge from-layer="1283" from-port="1" to-layer="1286" to-port="2"/>
		<edge from-layer="1284" from-port="1" to-layer="1286" to-port="3"/>
		<edge from-layer="1285" from-port="1" to-layer="1286" to-port="4"/>
		<edge from-layer="1287" from-port="1" to-layer="1292" to-port="0"/>
		<edge from-layer="1288" from-port="1" to-layer="1292" to-port="1"/>
		<edge from-layer="1289" from-port="1" to-layer="1292" to-port="2"/>
		<edge from-layer="1290" from-port="1" to-layer="1292" to-port="3"/>
		<edge from-layer="1291" from-port="1" to-layer="1292" to-port="4"/>
		<edge from-layer="1286" from-port="5" to-layer="1293" to-port="0"/>
		<edge from-layer="1292" from-port="5" to-layer="1293" to-port="1"/>
		<edge from-layer="1293" from-port="2" to-layer="1295" to-port="0"/>
		<edge from-layer="1294" from-port="1" to-layer="1295" to-port="1"/>
		<edge from-layer="1295" from-port="2" to-layer="1297" to-port="0"/>
		<edge from-layer="1296" from-port="1" to-layer="1297" to-port="1"/>
		<edge from-layer="1297" from-port="2" to-layer="1302" to-port="0"/>
		<edge from-layer="1298" from-port="1" to-layer="1302" to-port="1"/>
		<edge from-layer="1299" from-port="1" to-layer="1302" to-port="2"/>
		<edge from-layer="1300" from-port="1" to-layer="1302" to-port="3"/>
		<edge from-layer="1301" from-port="1" to-layer="1302" to-port="4"/>
		<edge from-layer="1303" from-port="1" to-layer="1308" to-port="0"/>
		<edge from-layer="1304" from-port="1" to-layer="1308" to-port="1"/>
		<edge from-layer="1305" from-port="1" to-layer="1308" to-port="2"/>
		<edge from-layer="1306" from-port="1" to-layer="1308" to-port="3"/>
		<edge from-layer="1307" from-port="1" to-layer="1308" to-port="4"/>
		<edge from-layer="1308" from-port="5" to-layer="1310" to-port="0"/>
		<edge from-layer="1309" from-port="1" to-layer="1310" to-port="1"/>
		<edge from-layer="1302" from-port="5" to-layer="1311" to-port="0"/>
		<edge from-layer="1310" from-port="2" to-layer="1311" to-port="1"/>
		<edge from-layer="1311" from-port="2" to-layer="1313" to-port="0"/>
		<edge from-layer="1312" from-port="1" to-layer="1313" to-port="1"/>
		<edge from-layer="1313" from-port="2" to-layer="1315" to-port="0"/>
		<edge from-layer="1314" from-port="1" to-layer="1315" to-port="1"/>
		<edge from-layer="1315" from-port="2" to-layer="1320" to-port="0"/>
		<edge from-layer="1316" from-port="1" to-layer="1320" to-port="1"/>
		<edge from-layer="1317" from-port="1" to-layer="1320" to-port="2"/>
		<edge from-layer="1318" from-port="1" to-layer="1320" to-port="3"/>
		<edge from-layer="1319" from-port="1" to-layer="1320" to-port="4"/>
		<edge from-layer="1321" from-port="1" to-layer="1326" to-port="0"/>
		<edge from-layer="1322" from-port="1" to-layer="1326" to-port="1"/>
		<edge from-layer="1323" from-port="1" to-layer="1326" to-port="2"/>
		<edge from-layer="1324" from-port="1" to-layer="1326" to-port="3"/>
		<edge from-layer="1325" from-port="1" to-layer="1326" to-port="4"/>
		<edge from-layer="1320" from-port="5" to-layer="1327" to-port="0"/>
		<edge from-layer="1326" from-port="5" to-layer="1327" to-port="1"/>
		<edge from-layer="1327" from-port="2" to-layer="1329" to-port="0"/>
		<edge from-layer="1328" from-port="1" to-layer="1329" to-port="1"/>
		<edge from-layer="1329" from-port="2" to-layer="1334" to-port="0"/>
		<edge from-layer="1330" from-port="1" to-layer="1334" to-port="1"/>
		<edge from-layer="1331" from-port="1" to-layer="1334" to-port="2"/>
		<edge from-layer="1332" from-port="1" to-layer="1334" to-port="3"/>
		<edge from-layer="1333" from-port="1" to-layer="1334" to-port="4"/>
		<edge from-layer="1334" from-port="5" to-layer="1335" to-port="0"/>
		<edge from-layer="1335" from-port="1" to-layer="1340" to-port="0"/>
		<edge from-layer="1336" from-port="1" to-layer="1340" to-port="1"/>
		<edge from-layer="1337" from-port="1" to-layer="1340" to-port="2"/>
		<edge from-layer="1338" from-port="1" to-layer="1340" to-port="3"/>
		<edge from-layer="1339" from-port="1" to-layer="1340" to-port="4"/>
		<edge from-layer="1341" from-port="1" to-layer="1346" to-port="0"/>
		<edge from-layer="1342" from-port="1" to-layer="1346" to-port="1"/>
		<edge from-layer="1343" from-port="1" to-layer="1346" to-port="2"/>
		<edge from-layer="1344" from-port="1" to-layer="1346" to-port="3"/>
		<edge from-layer="1345" from-port="1" to-layer="1346" to-port="4"/>
		<edge from-layer="1340" from-port="5" to-layer="1347" to-port="0"/>
		<edge from-layer="1346" from-port="5" to-layer="1347" to-port="1"/>
		<edge from-layer="1347" from-port="2" to-layer="1349" to-port="0"/>
		<edge from-layer="1348" from-port="1" to-layer="1349" to-port="1"/>
		<edge from-layer="1349" from-port="2" to-layer="1351" to-port="0"/>
		<edge from-layer="1350" from-port="1" to-layer="1351" to-port="1"/>
		<edge from-layer="1351" from-port="2" to-layer="1356" to-port="0"/>
		<edge from-layer="1352" from-port="1" to-layer="1356" to-port="1"/>
		<edge from-layer="1353" from-port="1" to-layer="1356" to-port="2"/>
		<edge from-layer="1354" from-port="1" to-layer="1356" to-port="3"/>
		<edge from-layer="1355" from-port="1" to-layer="1356" to-port="4"/>
		<edge from-layer="1357" from-port="1" to-layer="1362" to-port="0"/>
		<edge from-layer="1358" from-port="1" to-layer="1362" to-port="1"/>
		<edge from-layer="1359" from-port="1" to-layer="1362" to-port="2"/>
		<edge from-layer="1360" from-port="1" to-layer="1362" to-port="3"/>
		<edge from-layer="1361" from-port="1" to-layer="1362" to-port="4"/>
		<edge from-layer="1356" from-port="5" to-layer="1363" to-port="0"/>
		<edge from-layer="1362" from-port="5" to-layer="1363" to-port="1"/>
		<edge from-layer="1363" from-port="2" to-layer="1365" to-port="0"/>
		<edge from-layer="1364" from-port="1" to-layer="1365" to-port="1"/>
		<edge from-layer="1365" from-port="2" to-layer="1366" to-port="0"/>
		<edge from-layer="1366" from-port="1" to-layer="1371" to-port="0"/>
		<edge from-layer="1367" from-port="1" to-layer="1371" to-port="1"/>
		<edge from-layer="1368" from-port="1" to-layer="1371" to-port="2"/>
		<edge from-layer="1369" from-port="1" to-layer="1371" to-port="3"/>
		<edge from-layer="1370" from-port="1" to-layer="1371" to-port="4"/>
		<edge from-layer="1334" from-port="5" to-layer="1372" to-port="0"/>
		<edge from-layer="1371" from-port="5" to-layer="1372" to-port="1"/>
		<edge from-layer="1372" from-port="2" to-layer="1377" to-port="0"/>
		<edge from-layer="1373" from-port="1" to-layer="1377" to-port="1"/>
		<edge from-layer="1374" from-port="1" to-layer="1377" to-port="2"/>
		<edge from-layer="1375" from-port="1" to-layer="1377" to-port="3"/>
		<edge from-layer="1376" from-port="1" to-layer="1377" to-port="4"/>
		<edge from-layer="1286" from-port="5" to-layer="1378" to-port="0"/>
		<edge from-layer="1377" from-port="5" to-layer="1378" to-port="1"/>
		<edge from-layer="1378" from-port="2" to-layer="1383" to-port="0"/>
		<edge from-layer="1379" from-port="1" to-layer="1383" to-port="1"/>
		<edge from-layer="1380" from-port="1" to-layer="1383" to-port="2"/>
		<edge from-layer="1381" from-port="1" to-layer="1383" to-port="3"/>
		<edge from-layer="1382" from-port="1" to-layer="1383" to-port="4"/>
		<edge from-layer="1384" from-port="1" to-layer="1389" to-port="0"/>
		<edge from-layer="1385" from-port="1" to-layer="1389" to-port="1"/>
		<edge from-layer="1386" from-port="1" to-layer="1389" to-port="2"/>
		<edge from-layer="1387" from-port="1" to-layer="1389" to-port="3"/>
		<edge from-layer="1388" from-port="1" to-layer="1389" to-port="4"/>
		<edge from-layer="1383" from-port="5" to-layer="1390" to-port="0"/>
		<edge from-layer="1389" from-port="5" to-layer="1390" to-port="1"/>
		<edge from-layer="1390" from-port="2" to-layer="1392" to-port="0"/>
		<edge from-layer="1391" from-port="1" to-layer="1392" to-port="1"/>
		<edge from-layer="1392" from-port="2" to-layer="1394" to-port="0"/>
		<edge from-layer="1393" from-port="1" to-layer="1394" to-port="1"/>
		<edge from-layer="1394" from-port="2" to-layer="1399" to-port="0"/>
		<edge from-layer="1395" from-port="1" to-layer="1399" to-port="1"/>
		<edge from-layer="1396" from-port="1" to-layer="1399" to-port="2"/>
		<edge from-layer="1397" from-port="1" to-layer="1399" to-port="3"/>
		<edge from-layer="1398" from-port="1" to-layer="1399" to-port="4"/>
		<edge from-layer="1400" from-port="1" to-layer="1405" to-port="0"/>
		<edge from-layer="1401" from-port="1" to-layer="1405" to-port="1"/>
		<edge from-layer="1402" from-port="1" to-layer="1405" to-port="2"/>
		<edge from-layer="1403" from-port="1" to-layer="1405" to-port="3"/>
		<edge from-layer="1404" from-port="1" to-layer="1405" to-port="4"/>
		<edge from-layer="1405" from-port="5" to-layer="1407" to-port="0"/>
		<edge from-layer="1406" from-port="1" to-layer="1407" to-port="1"/>
		<edge from-layer="1399" from-port="5" to-layer="1408" to-port="0"/>
		<edge from-layer="1407" from-port="2" to-layer="1408" to-port="1"/>
		<edge from-layer="1408" from-port="2" to-layer="1410" to-port="0"/>
		<edge from-layer="1409" from-port="1" to-layer="1410" to-port="1"/>
		<edge from-layer="1410" from-port="2" to-layer="1412" to-port="0"/>
		<edge from-layer="1411" from-port="1" to-layer="1412" to-port="1"/>
		<edge from-layer="1412" from-port="2" to-layer="1417" to-port="0"/>
		<edge from-layer="1413" from-port="1" to-layer="1417" to-port="1"/>
		<edge from-layer="1414" from-port="1" to-layer="1417" to-port="2"/>
		<edge from-layer="1415" from-port="1" to-layer="1417" to-port="3"/>
		<edge from-layer="1416" from-port="1" to-layer="1417" to-port="4"/>
		<edge from-layer="1418" from-port="1" to-layer="1423" to-port="0"/>
		<edge from-layer="1419" from-port="1" to-layer="1423" to-port="1"/>
		<edge from-layer="1420" from-port="1" to-layer="1423" to-port="2"/>
		<edge from-layer="1421" from-port="1" to-layer="1423" to-port="3"/>
		<edge from-layer="1422" from-port="1" to-layer="1423" to-port="4"/>
		<edge from-layer="1417" from-port="5" to-layer="1424" to-port="0"/>
		<edge from-layer="1423" from-port="5" to-layer="1424" to-port="1"/>
		<edge from-layer="1424" from-port="2" to-layer="1426" to-port="0"/>
		<edge from-layer="1425" from-port="1" to-layer="1426" to-port="1"/>
		<edge from-layer="1426" from-port="2" to-layer="1431" to-port="0"/>
		<edge from-layer="1427" from-port="1" to-layer="1431" to-port="1"/>
		<edge from-layer="1428" from-port="1" to-layer="1431" to-port="2"/>
		<edge from-layer="1429" from-port="1" to-layer="1431" to-port="3"/>
		<edge from-layer="1430" from-port="1" to-layer="1431" to-port="4"/>
		<edge from-layer="1431" from-port="5" to-layer="1432" to-port="0"/>
		<edge from-layer="1432" from-port="1" to-layer="1437" to-port="0"/>
		<edge from-layer="1433" from-port="1" to-layer="1437" to-port="1"/>
		<edge from-layer="1434" from-port="1" to-layer="1437" to-port="2"/>
		<edge from-layer="1435" from-port="1" to-layer="1437" to-port="3"/>
		<edge from-layer="1436" from-port="1" to-layer="1437" to-port="4"/>
		<edge from-layer="1438" from-port="1" to-layer="1443" to-port="0"/>
		<edge from-layer="1439" from-port="1" to-layer="1443" to-port="1"/>
		<edge from-layer="1440" from-port="1" to-layer="1443" to-port="2"/>
		<edge from-layer="1441" from-port="1" to-layer="1443" to-port="3"/>
		<edge from-layer="1442" from-port="1" to-layer="1443" to-port="4"/>
		<edge from-layer="1437" from-port="5" to-layer="1444" to-port="0"/>
		<edge from-layer="1443" from-port="5" to-layer="1444" to-port="1"/>
		<edge from-layer="1444" from-port="2" to-layer="1446" to-port="0"/>
		<edge from-layer="1445" from-port="1" to-layer="1446" to-port="1"/>
		<edge from-layer="1446" from-port="2" to-layer="1448" to-port="0"/>
		<edge from-layer="1447" from-port="1" to-layer="1448" to-port="1"/>
		<edge from-layer="1448" from-port="2" to-layer="1453" to-port="0"/>
		<edge from-layer="1449" from-port="1" to-layer="1453" to-port="1"/>
		<edge from-layer="1450" from-port="1" to-layer="1453" to-port="2"/>
		<edge from-layer="1451" from-port="1" to-layer="1453" to-port="3"/>
		<edge from-layer="1452" from-port="1" to-layer="1453" to-port="4"/>
		<edge from-layer="1454" from-port="1" to-layer="1459" to-port="0"/>
		<edge from-layer="1455" from-port="1" to-layer="1459" to-port="1"/>
		<edge from-layer="1456" from-port="1" to-layer="1459" to-port="2"/>
		<edge from-layer="1457" from-port="1" to-layer="1459" to-port="3"/>
		<edge from-layer="1458" from-port="1" to-layer="1459" to-port="4"/>
		<edge from-layer="1453" from-port="5" to-layer="1460" to-port="0"/>
		<edge from-layer="1459" from-port="5" to-layer="1460" to-port="1"/>
		<edge from-layer="1460" from-port="2" to-layer="1462" to-port="0"/>
		<edge from-layer="1461" from-port="1" to-layer="1462" to-port="1"/>
		<edge from-layer="1462" from-port="2" to-layer="1463" to-port="0"/>
		<edge from-layer="1463" from-port="1" to-layer="1468" to-port="0"/>
		<edge from-layer="1464" from-port="1" to-layer="1468" to-port="1"/>
		<edge from-layer="1465" from-port="1" to-layer="1468" to-port="2"/>
		<edge from-layer="1466" from-port="1" to-layer="1468" to-port="3"/>
		<edge from-layer="1467" from-port="1" to-layer="1468" to-port="4"/>
		<edge from-layer="1431" from-port="5" to-layer="1469" to-port="0"/>
		<edge from-layer="1468" from-port="5" to-layer="1469" to-port="1"/>
		<edge from-layer="1469" from-port="2" to-layer="1474" to-port="0"/>
		<edge from-layer="1470" from-port="1" to-layer="1474" to-port="1"/>
		<edge from-layer="1471" from-port="1" to-layer="1474" to-port="2"/>
		<edge from-layer="1472" from-port="1" to-layer="1474" to-port="3"/>
		<edge from-layer="1473" from-port="1" to-layer="1474" to-port="4"/>
		<edge from-layer="1383" from-port="5" to-layer="1475" to-port="0"/>
		<edge from-layer="1474" from-port="5" to-layer="1475" to-port="1"/>
		<edge from-layer="1475" from-port="2" to-layer="1480" to-port="0"/>
		<edge from-layer="1476" from-port="1" to-layer="1480" to-port="1"/>
		<edge from-layer="1477" from-port="1" to-layer="1480" to-port="2"/>
		<edge from-layer="1478" from-port="1" to-layer="1480" to-port="3"/>
		<edge from-layer="1479" from-port="1" to-layer="1480" to-port="4"/>
		<edge from-layer="1481" from-port="1" to-layer="1486" to-port="0"/>
		<edge from-layer="1482" from-port="1" to-layer="1486" to-port="1"/>
		<edge from-layer="1483" from-port="1" to-layer="1486" to-port="2"/>
		<edge from-layer="1484" from-port="1" to-layer="1486" to-port="3"/>
		<edge from-layer="1485" from-port="1" to-layer="1486" to-port="4"/>
		<edge from-layer="1480" from-port="5" to-layer="1487" to-port="0"/>
		<edge from-layer="1486" from-port="5" to-layer="1487" to-port="1"/>
		<edge from-layer="1487" from-port="2" to-layer="1489" to-port="0"/>
		<edge from-layer="1488" from-port="1" to-layer="1489" to-port="1"/>
		<edge from-layer="1489" from-port="2" to-layer="1491" to-port="0"/>
		<edge from-layer="1490" from-port="1" to-layer="1491" to-port="1"/>
		<edge from-layer="1491" from-port="2" to-layer="1496" to-port="0"/>
		<edge from-layer="1492" from-port="1" to-layer="1496" to-port="1"/>
		<edge from-layer="1493" from-port="1" to-layer="1496" to-port="2"/>
		<edge from-layer="1494" from-port="1" to-layer="1496" to-port="3"/>
		<edge from-layer="1495" from-port="1" to-layer="1496" to-port="4"/>
		<edge from-layer="1497" from-port="1" to-layer="1502" to-port="0"/>
		<edge from-layer="1498" from-port="1" to-layer="1502" to-port="1"/>
		<edge from-layer="1499" from-port="1" to-layer="1502" to-port="2"/>
		<edge from-layer="1500" from-port="1" to-layer="1502" to-port="3"/>
		<edge from-layer="1501" from-port="1" to-layer="1502" to-port="4"/>
		<edge from-layer="1502" from-port="5" to-layer="1504" to-port="0"/>
		<edge from-layer="1503" from-port="1" to-layer="1504" to-port="1"/>
		<edge from-layer="1496" from-port="5" to-layer="1505" to-port="0"/>
		<edge from-layer="1504" from-port="2" to-layer="1505" to-port="1"/>
		<edge from-layer="1505" from-port="2" to-layer="1507" to-port="0"/>
		<edge from-layer="1506" from-port="1" to-layer="1507" to-port="1"/>
		<edge from-layer="1507" from-port="2" to-layer="1512" to-port="0"/>
		<edge from-layer="1508" from-port="1" to-layer="1512" to-port="1"/>
		<edge from-layer="1509" from-port="1" to-layer="1512" to-port="2"/>
		<edge from-layer="1510" from-port="1" to-layer="1512" to-port="3"/>
		<edge from-layer="1511" from-port="1" to-layer="1512" to-port="4"/>
		<edge from-layer="1513" from-port="1" to-layer="1518" to-port="0"/>
		<edge from-layer="1514" from-port="1" to-layer="1518" to-port="1"/>
		<edge from-layer="1515" from-port="1" to-layer="1518" to-port="2"/>
		<edge from-layer="1516" from-port="1" to-layer="1518" to-port="3"/>
		<edge from-layer="1517" from-port="1" to-layer="1518" to-port="4"/>
		<edge from-layer="1512" from-port="5" to-layer="1519" to-port="0"/>
		<edge from-layer="1518" from-port="5" to-layer="1519" to-port="1"/>
		<edge from-layer="1519" from-port="2" to-layer="1520" to-port="0"/>
	</edges>
	<meta_data>
		<MO_version value="unknown version"/>
		<cli_parameters>
			<blobs_as_inputs value="True"/>
			<caffe_parser_path value="DIR"/>
			<data_type value="FP32"/>
			<disable_nhwc_to_nchw value="False"/>
			<disable_omitting_optional value="False"/>
			<disable_resnet_optimization value="False"/>
			<enable_concat_optimization value="False"/>
			<enable_flattening_nested_params value="False"/>
			<enable_ssd_gluoncv value="False"/>
			<extensions value="DIR"/>
			<framework value="onnx"/>
			<freeze_placeholder_with_value value="{}"/>
			<generate_deprecated_IR_V2 value="False"/>
			<generate_deprecated_IR_V7 value="False"/>
			<generate_experimental_IR_V10 value="True"/>
			<input value="0"/>
			<input_model value="DIR/Mobilenet_se_focal_121000.onnx"/>
			<input_model_is_text value="False"/>
			<input_shape value="[1,3,128,128]"/>
			<k value="DIR/CustomLayersMapping.xml"/>
			<keep_quantize_ops_in_IR value="True"/>
			<keep_shape_ops value="False"/>
			<legacy_mxnet_model value="False"/>
			<log_level value="ERROR"/>
			<mean_scale_values value="{'0': {'mean': None, 'scale': array([254.99991075])}}"/>
			<mean_values value="()"/>
			<model_name value="face-reidentification-retail-0095"/>
			<move_to_preprocess value="False"/>
			<output_dir value="DIR"/>
			<placeholder_data_types value="{}"/>
			<placeholder_shapes value="{'0': array([  1,   3, 128, 128])}"/>
			<progress value="False"/>
			<remove_memory value="False"/>
			<remove_output_softmax value="False"/>
			<reverse_input_channels value="True"/>
			<save_params_from_nd value="False"/>
			<scale_values value="0[254.99991075003123]"/>
			<silent value="False"/>
			<stream_output value="False"/>
			<unset unset_cli_parameters="batch, counts, disable_fusing, disable_gfusing, finegrain_fusing, input_checkpoint, input_meta_graph, input_proto, input_symbol, mean_file, mean_file_offsets, nd_prefix_name, output, pretrained_model_name, saved_model_dir, saved_model_tags, scale, tensorboard_logdir, tensorflow_custom_layer_libraries, tensorflow_custom_operations_config_update, tensorflow_object_detection_api_pipeline_config, tensorflow_operation_patterns, tensorflow_subgraph_patterns, tensorflow_use_custom_operations_config, transformations_config"/>
		</cli_parameters>
	</meta_data>
</net>
